roostDemo.py:199: RuntimeWarning: to-Python converter for boost::shared_ptr<caffe::Blob<float> > already registered; second conversion method ignored.
  caffe.set_mode_gpu()
WARNING: Logging before InitGoogleLogging() is written to STDERR
I0625 19:26:06.319099 14274 net.cpp:49] Initializing net from parameters: 
name: "ZF"
input: "data"
input: "im_info"
state {
  phase: TEST
}
input_shape {
  dim: 1
  dim: 3
  dim: 224
  dim: 224
}
input_shape {
  dim: 1
  dim: 3
}
layer {
  name: "conv1"
  type: "Convolution"
  bottom: "data"
  top: "conv1"
  convolution_param {
    num_output: 96
    pad: 3
    kernel_size: 7
    stride: 2
  }
}
layer {
  name: "relu1"
  type: "ReLU"
  bottom: "conv1"
  top: "conv1"
}
layer {
  name: "norm1"
  type: "LRN"
  bottom: "conv1"
  top: "norm1"
  lrn_param {
    local_size: 3
    alpha: 5e-05
    beta: 0.75
    norm_region: WITHIN_CHANNEL
    engine: CAFFE
  }
}
layer {
  name: "pool1"
  type: "Pooling"
  bottom: "norm1"
  top: "pool1"
  pooling_param {
    pool: MAX
    kernel_size: 3
    stride: 2
    pad: 1
  }
}
layer {
  name: "conv2"
  type: "Convolution"
  bottom: "pool1"
  top: "conv2"
  convolution_param {
    num_output: 256
    pad: 2
    kernel_size: 5
    stride: 2
  }
}
layer {
  name: "relu2"
  type: "ReLU"
  bottom: "conv2"
  top: "conv2"
}
layer {
  name: "norm2"
  type: "LRN"
  bottom: "conv2"
  top: "norm2"
  lrn_param {
    local_size: 3
    alpha: 5e-05
    beta: 0.75
    norm_region: WITHIN_CHANNEL
    engine: CAFFE
  }
}
layer {
  name: "pool2"
  type: "Pooling"
  bottom: "norm2"
  top: "pool2"
  pooling_param {
    pool: MAX
    kernel_size: 3
    stride: 2
    pad: 1
  }
}
layer {
  name: "conv3"
  type: "Convolution"
  bottom: "pool2"
  top: "conv3"
  convolution_param {
    num_output: 384
    pad: 1
    kernel_size: 3
    stride: 1
  }
}
layer {
  name: "relu3"
  type: "ReLU"
  bottom: "conv3"
  top: "conv3"
}
layer {
  name: "conv4"
  type: "Convolution"
  bottom: "conv3"
  top: "conv4"
  convolution_param {
    num_output: 384
    pad: 1
    kernel_size: 3
    stride: 1
  }
}
layer {
  name: "relu4"
  type: "ReLU"
  bottom: "conv4"
  top: "conv4"
}
layer {
  name: "conv5"
  type: "Convolution"
  bottom: "conv4"
  top: "conv5"
  convolution_param {
    num_output: 256
    pad: 1
    kernel_size: 3
    stride: 1
  }
}
layer {
  name: "relu5"
  type: "ReLU"
  bottom: "conv5"
  top: "conv5"
}
layer {
  name: "rpn_conv/3x3"
  type: "Convolution"
  bottom: "conv5"
  top: "rpn/output"
  convolution_param {
    num_output: 256
    pad: 1
    kernel_size: 3
    stride: 1
    weight_filler {
      type: "gaussian"
      std: 0.01
    }
    bias_filler {
      type: "constant"
      value: 0
    }
  }
}
layer {
  name: "rpn_relu/3x3"
  type: "ReLU"
  bottom: "rpn/output"
  top: "rpn/output"
}
layer {
  name: "rpn_cls_score"
  type: "Convolution"
  bottom: "rpn/output"
  top: "rpn_cls_score"
  convolution_param {
    num_output: 18
    pad: 0
    kernel_size: 1
    stride: 1
    weight_filler {
      type: "gaussian"
      std: 0.01
    }
    bias_filler {
      type: "constant"
      value: 0
    }
  }
}
layer {
  name: "rpn_bbox_pred"
  type: "Convolution"
  bottom: "rpn/output"
  top: "rpn_bbox_pred"
  convolution_param {
    num_output: 36
    pad: 0
    kernel_size: 1
    stride: 1
    weight_filler {
      type: "gaussian"
      std: 0.01
    }
    bias_filler {
      type: "constant"
      value: 0
    }
  }
}
layer {
  name: "rpn_cls_score_reshape"
  type: "Reshape"
  bottom: "rpn_cls_score"
  top: "rpn_cls_score_reshape"
  reshape_param {
    shape {
      dim: 0
      dim: 2
      dim: -1
      dim: 0
    }
  }
}
layer {
  name: "rpn_cls_prob"
  type: "Softmax"
  bottom: "rpn_cls_score_reshape"
  top: "rpn_cls_prob"
}
layer {
  name: "rpn_cls_prob_reshape"
  type: "Reshape"
  bottom: "rpn_cls_prob"
  top: "rpn_cls_prob_reshape"
  reshape_param {
    shape {
      dim: 0
      dim: 18
      dim: -1
      dim: 0
    }
  }
}
layer {
  name: "proposal"
  type: "Python"
  bottom: "rpn_cls_prob_reshape"
  bottom: "rpn_bbox_pred"
  bottom: "im_info"
  top: "rois"
  python_param {
    module: "rpn.proposal_layer"
    layer: "ProposalLayer"
    param_str: "\'feat_stride\': 16"
  }
}
layer {
  name: "roi_pool_conv5"
  type: "ROIPooling"
  bottom: "conv5"
  bottom: "rois"
  top: "roi_pool_conv5"
  roi_pooling_param {
    pooled_h: 6
    pooled_w: 6
    spatial_scale: 0.0625
  }
}
layer {
  name: "fc6"
  type: "InnerProduct"
  bottom: "roi_pool_conv5"
  top: "fc6"
  inner_product_param {
    num_output: 4096
  }
}
layer {
  name: "relu6"
  type: "ReLU"
  bottom: "fc6"
  top: "fc6"
}
layer {
  name: "drop6"
  type: "Dropout"
  bottom: "fc6"
  top: "fc6"
  dropout_param {
    dropout_ratio: 0.5
    scale_train: false
  }
}
layer {
  name: "fc7"
  type: "InnerProduct"
  bottom: "fc6"
  top: "fc7"
  inner_product_param {
    num_output: 4096
  }
}
layer {
  name: "relu7"
  type: "ReLU"
  bottom: "fc7"
  top: "fc7"
}
layer {
  name: "drop7"
  type: "Dropout"
  bottom: "fc7"
  top: "fc7"
  dropout_param {
    dropout_ratio: 0.5
    scale_train: false
  }
}
layer {
  name: "cls_score"
  type: "InnerProduct"
  bottom: "fc7"
  top: "cls_score"
  inner_product_param {
    num_output: 2
  }
}
layer {
  name: "bbox_pred"
  type: "InnerProduct"
  bottom: "fc7"
  top: "bbox_pred"
  inner_product_param {
    num_output: 8
  }
}
layer {
  name: "cls_prob"
  type: "Softmax"
  bottom: "cls_score"
  top: "cls_prob"
  loss_param {
    ignore_label: -1
    normalize: true
  }
}
I0625 19:26:06.319370 14274 net.cpp:413] Input 0 -> data
I0625 19:26:06.352749 14274 net.cpp:413] Input 1 -> im_info
I0625 19:26:06.352810 14274 layer_factory.hpp:77] Creating layer conv1
I0625 19:26:06.352844 14274 net.cpp:106] Creating Layer conv1
I0625 19:26:06.352850 14274 net.cpp:454] conv1 <- data
I0625 19:26:06.352857 14274 net.cpp:411] conv1 -> conv1
I0625 19:26:06.353657 14274 net.cpp:150] Setting up conv1
I0625 19:26:06.353674 14274 net.cpp:157] Top shape: 1 96 112 112 (1204224)
I0625 19:26:06.353677 14274 net.cpp:165] Memory required for data: 4816896
I0625 19:26:06.353693 14274 layer_factory.hpp:77] Creating layer relu1
I0625 19:26:06.353703 14274 net.cpp:106] Creating Layer relu1
I0625 19:26:06.353706 14274 net.cpp:454] relu1 <- conv1
I0625 19:26:06.353711 14274 net.cpp:397] relu1 -> conv1 (in-place)
I0625 19:26:06.353720 14274 net.cpp:150] Setting up relu1
I0625 19:26:06.353724 14274 net.cpp:157] Top shape: 1 96 112 112 (1204224)
I0625 19:26:06.353726 14274 net.cpp:165] Memory required for data: 9633792
I0625 19:26:06.353729 14274 layer_factory.hpp:77] Creating layer norm1
I0625 19:26:06.353736 14274 net.cpp:106] Creating Layer norm1
I0625 19:26:06.353739 14274 net.cpp:454] norm1 <- conv1
I0625 19:26:06.353744 14274 net.cpp:411] norm1 -> norm1
I0625 19:26:06.353842 14274 net.cpp:150] Setting up norm1
I0625 19:26:06.353850 14274 net.cpp:157] Top shape: 1 96 112 112 (1204224)
I0625 19:26:06.353853 14274 net.cpp:165] Memory required for data: 14450688
I0625 19:26:06.353857 14274 layer_factory.hpp:77] Creating layer pool1
I0625 19:26:06.353863 14274 net.cpp:106] Creating Layer pool1
I0625 19:26:06.353865 14274 net.cpp:454] pool1 <- norm1
I0625 19:26:06.353870 14274 net.cpp:411] pool1 -> pool1
I0625 19:26:06.353899 14274 net.cpp:150] Setting up pool1
I0625 19:26:06.353905 14274 net.cpp:157] Top shape: 1 96 57 57 (311904)
I0625 19:26:06.353909 14274 net.cpp:165] Memory required for data: 15698304
I0625 19:26:06.353911 14274 layer_factory.hpp:77] Creating layer conv2
I0625 19:26:06.353919 14274 net.cpp:106] Creating Layer conv2
I0625 19:26:06.353922 14274 net.cpp:454] conv2 <- pool1
I0625 19:26:06.353927 14274 net.cpp:411] conv2 -> conv2
I0625 19:26:06.356132 14274 net.cpp:150] Setting up conv2
I0625 19:26:06.356147 14274 net.cpp:157] Top shape: 1 256 29 29 (215296)
I0625 19:26:06.356149 14274 net.cpp:165] Memory required for data: 16559488
I0625 19:26:06.356158 14274 layer_factory.hpp:77] Creating layer relu2
I0625 19:26:06.356165 14274 net.cpp:106] Creating Layer relu2
I0625 19:26:06.356169 14274 net.cpp:454] relu2 <- conv2
I0625 19:26:06.356173 14274 net.cpp:397] relu2 -> conv2 (in-place)
I0625 19:26:06.356180 14274 net.cpp:150] Setting up relu2
I0625 19:26:06.356184 14274 net.cpp:157] Top shape: 1 256 29 29 (215296)
I0625 19:26:06.356186 14274 net.cpp:165] Memory required for data: 17420672
I0625 19:26:06.356189 14274 layer_factory.hpp:77] Creating layer norm2
I0625 19:26:06.356194 14274 net.cpp:106] Creating Layer norm2
I0625 19:26:06.356197 14274 net.cpp:454] norm2 <- conv2
I0625 19:26:06.356202 14274 net.cpp:411] norm2 -> norm2
I0625 19:26:06.356284 14274 net.cpp:150] Setting up norm2
I0625 19:26:06.356292 14274 net.cpp:157] Top shape: 1 256 29 29 (215296)
I0625 19:26:06.356295 14274 net.cpp:165] Memory required for data: 18281856
I0625 19:26:06.356298 14274 layer_factory.hpp:77] Creating layer pool2
I0625 19:26:06.356304 14274 net.cpp:106] Creating Layer pool2
I0625 19:26:06.356307 14274 net.cpp:454] pool2 <- norm2
I0625 19:26:06.356312 14274 net.cpp:411] pool2 -> pool2
I0625 19:26:06.356338 14274 net.cpp:150] Setting up pool2
I0625 19:26:06.356344 14274 net.cpp:157] Top shape: 1 256 15 15 (57600)
I0625 19:26:06.356346 14274 net.cpp:165] Memory required for data: 18512256
I0625 19:26:06.356349 14274 layer_factory.hpp:77] Creating layer conv3
I0625 19:26:06.356358 14274 net.cpp:106] Creating Layer conv3
I0625 19:26:06.356360 14274 net.cpp:454] conv3 <- pool2
I0625 19:26:06.356365 14274 net.cpp:411] conv3 -> conv3
I0625 19:26:06.358589 14274 net.cpp:150] Setting up conv3
I0625 19:26:06.358602 14274 net.cpp:157] Top shape: 1 384 15 15 (86400)
I0625 19:26:06.358604 14274 net.cpp:165] Memory required for data: 18857856
I0625 19:26:06.358613 14274 layer_factory.hpp:77] Creating layer relu3
I0625 19:26:06.358620 14274 net.cpp:106] Creating Layer relu3
I0625 19:26:06.358623 14274 net.cpp:454] relu3 <- conv3
I0625 19:26:06.358628 14274 net.cpp:397] relu3 -> conv3 (in-place)
I0625 19:26:06.358634 14274 net.cpp:150] Setting up relu3
I0625 19:26:06.358639 14274 net.cpp:157] Top shape: 1 384 15 15 (86400)
I0625 19:26:06.358641 14274 net.cpp:165] Memory required for data: 19203456
I0625 19:26:06.358644 14274 layer_factory.hpp:77] Creating layer conv4
I0625 19:26:06.358650 14274 net.cpp:106] Creating Layer conv4
I0625 19:26:06.358654 14274 net.cpp:454] conv4 <- conv3
I0625 19:26:06.358659 14274 net.cpp:411] conv4 -> conv4
I0625 19:26:06.361825 14274 net.cpp:150] Setting up conv4
I0625 19:26:06.361837 14274 net.cpp:157] Top shape: 1 384 15 15 (86400)
I0625 19:26:06.361840 14274 net.cpp:165] Memory required for data: 19549056
I0625 19:26:06.361847 14274 layer_factory.hpp:77] Creating layer relu4
I0625 19:26:06.361853 14274 net.cpp:106] Creating Layer relu4
I0625 19:26:06.361857 14274 net.cpp:454] relu4 <- conv4
I0625 19:26:06.361862 14274 net.cpp:397] relu4 -> conv4 (in-place)
I0625 19:26:06.361870 14274 net.cpp:150] Setting up relu4
I0625 19:26:06.361872 14274 net.cpp:157] Top shape: 1 384 15 15 (86400)
I0625 19:26:06.361876 14274 net.cpp:165] Memory required for data: 19894656
I0625 19:26:06.361878 14274 layer_factory.hpp:77] Creating layer conv5
I0625 19:26:06.361886 14274 net.cpp:106] Creating Layer conv5
I0625 19:26:06.361888 14274 net.cpp:454] conv5 <- conv4
I0625 19:26:06.361893 14274 net.cpp:411] conv5 -> conv5
I0625 19:26:06.364080 14274 net.cpp:150] Setting up conv5
I0625 19:26:06.364091 14274 net.cpp:157] Top shape: 1 256 15 15 (57600)
I0625 19:26:06.364106 14274 net.cpp:165] Memory required for data: 20125056
I0625 19:26:06.364117 14274 layer_factory.hpp:77] Creating layer relu5
I0625 19:26:06.364125 14274 net.cpp:106] Creating Layer relu5
I0625 19:26:06.364128 14274 net.cpp:454] relu5 <- conv5
I0625 19:26:06.364133 14274 net.cpp:397] relu5 -> conv5 (in-place)
I0625 19:26:06.364140 14274 net.cpp:150] Setting up relu5
I0625 19:26:06.364143 14274 net.cpp:157] Top shape: 1 256 15 15 (57600)
I0625 19:26:06.364146 14274 net.cpp:165] Memory required for data: 20355456
I0625 19:26:06.364148 14274 layer_factory.hpp:77] Creating layer conv5_relu5_0_split
I0625 19:26:06.364161 14274 net.cpp:106] Creating Layer conv5_relu5_0_split
I0625 19:26:06.364163 14274 net.cpp:454] conv5_relu5_0_split <- conv5
I0625 19:26:06.364168 14274 net.cpp:411] conv5_relu5_0_split -> conv5_relu5_0_split_0
I0625 19:26:06.364174 14274 net.cpp:411] conv5_relu5_0_split -> conv5_relu5_0_split_1
I0625 19:26:06.364210 14274 net.cpp:150] Setting up conv5_relu5_0_split
I0625 19:26:06.364217 14274 net.cpp:157] Top shape: 1 256 15 15 (57600)
I0625 19:26:06.364223 14274 net.cpp:157] Top shape: 1 256 15 15 (57600)
I0625 19:26:06.364225 14274 net.cpp:165] Memory required for data: 20816256
I0625 19:26:06.364228 14274 layer_factory.hpp:77] Creating layer rpn_conv/3x3
I0625 19:26:06.364238 14274 net.cpp:106] Creating Layer rpn_conv/3x3
I0625 19:26:06.364241 14274 net.cpp:454] rpn_conv/3x3 <- conv5_relu5_0_split_0
I0625 19:26:06.364248 14274 net.cpp:411] rpn_conv/3x3 -> rpn/output
I0625 19:26:06.375367 14274 net.cpp:150] Setting up rpn_conv/3x3
I0625 19:26:06.375378 14274 net.cpp:157] Top shape: 1 256 15 15 (57600)
I0625 19:26:06.375382 14274 net.cpp:165] Memory required for data: 21046656
I0625 19:26:06.375388 14274 layer_factory.hpp:77] Creating layer rpn_relu/3x3
I0625 19:26:06.375397 14274 net.cpp:106] Creating Layer rpn_relu/3x3
I0625 19:26:06.375401 14274 net.cpp:454] rpn_relu/3x3 <- rpn/output
I0625 19:26:06.375406 14274 net.cpp:397] rpn_relu/3x3 -> rpn/output (in-place)
I0625 19:26:06.375412 14274 net.cpp:150] Setting up rpn_relu/3x3
I0625 19:26:06.375416 14274 net.cpp:157] Top shape: 1 256 15 15 (57600)
I0625 19:26:06.375419 14274 net.cpp:165] Memory required for data: 21277056
I0625 19:26:06.375422 14274 layer_factory.hpp:77] Creating layer rpn/output_rpn_relu/3x3_0_split
I0625 19:26:06.375427 14274 net.cpp:106] Creating Layer rpn/output_rpn_relu/3x3_0_split
I0625 19:26:06.375429 14274 net.cpp:454] rpn/output_rpn_relu/3x3_0_split <- rpn/output
I0625 19:26:06.375434 14274 net.cpp:411] rpn/output_rpn_relu/3x3_0_split -> rpn/output_rpn_relu/3x3_0_split_0
I0625 19:26:06.375439 14274 net.cpp:411] rpn/output_rpn_relu/3x3_0_split -> rpn/output_rpn_relu/3x3_0_split_1
I0625 19:26:06.375469 14274 net.cpp:150] Setting up rpn/output_rpn_relu/3x3_0_split
I0625 19:26:06.375475 14274 net.cpp:157] Top shape: 1 256 15 15 (57600)
I0625 19:26:06.375479 14274 net.cpp:157] Top shape: 1 256 15 15 (57600)
I0625 19:26:06.375483 14274 net.cpp:165] Memory required for data: 21737856
I0625 19:26:06.375485 14274 layer_factory.hpp:77] Creating layer rpn_cls_score
I0625 19:26:06.375494 14274 net.cpp:106] Creating Layer rpn_cls_score
I0625 19:26:06.375496 14274 net.cpp:454] rpn_cls_score <- rpn/output_rpn_relu/3x3_0_split_0
I0625 19:26:06.375502 14274 net.cpp:411] rpn_cls_score -> rpn_cls_score
I0625 19:26:06.375764 14274 net.cpp:150] Setting up rpn_cls_score
I0625 19:26:06.375772 14274 net.cpp:157] Top shape: 1 18 15 15 (4050)
I0625 19:26:06.375774 14274 net.cpp:165] Memory required for data: 21754056
I0625 19:26:06.375780 14274 layer_factory.hpp:77] Creating layer rpn_bbox_pred
I0625 19:26:06.375789 14274 net.cpp:106] Creating Layer rpn_bbox_pred
I0625 19:26:06.375792 14274 net.cpp:454] rpn_bbox_pred <- rpn/output_rpn_relu/3x3_0_split_1
I0625 19:26:06.375797 14274 net.cpp:411] rpn_bbox_pred -> rpn_bbox_pred
I0625 19:26:06.376140 14274 net.cpp:150] Setting up rpn_bbox_pred
I0625 19:26:06.376147 14274 net.cpp:157] Top shape: 1 36 15 15 (8100)
I0625 19:26:06.376150 14274 net.cpp:165] Memory required for data: 21786456
I0625 19:26:06.376169 14274 layer_factory.hpp:77] Creating layer rpn_cls_score_reshape
I0625 19:26:06.376181 14274 net.cpp:106] Creating Layer rpn_cls_score_reshape
I0625 19:26:06.376184 14274 net.cpp:454] rpn_cls_score_reshape <- rpn_cls_score
I0625 19:26:06.376190 14274 net.cpp:411] rpn_cls_score_reshape -> rpn_cls_score_reshape
I0625 19:26:06.376225 14274 net.cpp:150] Setting up rpn_cls_score_reshape
I0625 19:26:06.376231 14274 net.cpp:157] Top shape: 1 2 135 15 (4050)
I0625 19:26:06.376235 14274 net.cpp:165] Memory required for data: 21802656
I0625 19:26:06.376237 14274 layer_factory.hpp:77] Creating layer rpn_cls_prob
I0625 19:26:06.376243 14274 net.cpp:106] Creating Layer rpn_cls_prob
I0625 19:26:06.376246 14274 net.cpp:454] rpn_cls_prob <- rpn_cls_score_reshape
I0625 19:26:06.376251 14274 net.cpp:411] rpn_cls_prob -> rpn_cls_prob
I0625 19:26:06.376303 14274 net.cpp:150] Setting up rpn_cls_prob
I0625 19:26:06.376309 14274 net.cpp:157] Top shape: 1 2 135 15 (4050)
I0625 19:26:06.376312 14274 net.cpp:165] Memory required for data: 21818856
I0625 19:26:06.376315 14274 layer_factory.hpp:77] Creating layer rpn_cls_prob_reshape
I0625 19:26:06.376320 14274 net.cpp:106] Creating Layer rpn_cls_prob_reshape
I0625 19:26:06.376324 14274 net.cpp:454] rpn_cls_prob_reshape <- rpn_cls_prob
I0625 19:26:06.376329 14274 net.cpp:411] rpn_cls_prob_reshape -> rpn_cls_prob_reshape
I0625 19:26:06.376348 14274 net.cpp:150] Setting up rpn_cls_prob_reshape
I0625 19:26:06.376354 14274 net.cpp:157] Top shape: 1 18 15 15 (4050)
I0625 19:26:06.376358 14274 net.cpp:165] Memory required for data: 21835056
I0625 19:26:06.376360 14274 layer_factory.hpp:77] Creating layer proposal
I0625 19:26:06.443593 14274 net.cpp:106] Creating Layer proposal
I0625 19:26:06.443625 14274 net.cpp:454] proposal <- rpn_cls_prob_reshape
I0625 19:26:06.443637 14274 net.cpp:454] proposal <- rpn_bbox_pred
I0625 19:26:06.443645 14274 net.cpp:454] proposal <- im_info
I0625 19:26:06.443655 14274 net.cpp:411] proposal -> rois
I0625 19:26:06.446266 14274 net.cpp:150] Setting up proposal
I0625 19:26:06.446331 14274 net.cpp:157] Top shape: 1 5 (5)
I0625 19:26:06.446362 14274 net.cpp:165] Memory required for data: 21835076
I0625 19:26:06.446391 14274 layer_factory.hpp:77] Creating layer roi_pool_conv5
I0625 19:26:06.446430 14274 net.cpp:106] Creating Layer roi_pool_conv5
I0625 19:26:06.446461 14274 net.cpp:454] roi_pool_conv5 <- conv5_relu5_0_split_1
I0625 19:26:06.446491 14274 net.cpp:454] roi_pool_conv5 <- rois
I0625 19:26:06.446522 14274 net.cpp:411] roi_pool_conv5 -> roi_pool_conv5
I0625 19:26:06.446559 14274 roi_pooling_layer.cpp:30] Spatial scale: 0.0625
I0625 19:26:06.446660 14274 net.cpp:150] Setting up roi_pool_conv5
I0625 19:26:06.446694 14274 net.cpp:157] Top shape: 1 256 6 6 (9216)
I0625 19:26:06.446725 14274 net.cpp:165] Memory required for data: 21871940
I0625 19:26:06.446751 14274 layer_factory.hpp:77] Creating layer fc6
I0625 19:26:06.446785 14274 net.cpp:106] Creating Layer fc6
I0625 19:26:06.446821 14274 net.cpp:454] fc6 <- roi_pool_conv5
I0625 19:26:06.446851 14274 net.cpp:411] fc6 -> fc6
I0625 19:26:06.566416 14274 net.cpp:150] Setting up fc6
I0625 19:26:06.566612 14274 net.cpp:157] Top shape: 1 4096 (4096)
I0625 19:26:06.566689 14274 net.cpp:165] Memory required for data: 21888324
I0625 19:26:06.566767 14274 layer_factory.hpp:77] Creating layer relu6
I0625 19:26:06.566836 14274 net.cpp:106] Creating Layer relu6
I0625 19:26:06.566901 14274 net.cpp:454] relu6 <- fc6
I0625 19:26:06.566962 14274 net.cpp:397] relu6 -> fc6 (in-place)
I0625 19:26:06.567028 14274 net.cpp:150] Setting up relu6
I0625 19:26:06.567086 14274 net.cpp:157] Top shape: 1 4096 (4096)
I0625 19:26:06.567147 14274 net.cpp:165] Memory required for data: 21904708
I0625 19:26:06.567200 14274 layer_factory.hpp:77] Creating layer drop6
I0625 19:26:06.567273 14274 net.cpp:106] Creating Layer drop6
I0625 19:26:06.567335 14274 net.cpp:454] drop6 <- fc6
I0625 19:26:06.567394 14274 net.cpp:397] drop6 -> fc6 (in-place)
I0625 19:26:06.567492 14274 net.cpp:150] Setting up drop6
I0625 19:26:06.567554 14274 net.cpp:157] Top shape: 1 4096 (4096)
I0625 19:26:06.567610 14274 net.cpp:165] Memory required for data: 21921092
I0625 19:26:06.567665 14274 layer_factory.hpp:77] Creating layer fc7
I0625 19:26:06.567726 14274 net.cpp:106] Creating Layer fc7
I0625 19:26:06.567781 14274 net.cpp:454] fc7 <- fc6
I0625 19:26:06.567842 14274 net.cpp:411] fc7 -> fc7
I0625 19:26:06.621199 14274 net.cpp:150] Setting up fc7
I0625 19:26:06.621405 14274 net.cpp:157] Top shape: 1 4096 (4096)
I0625 19:26:06.621457 14274 net.cpp:165] Memory required for data: 21937476
I0625 19:26:06.621515 14274 layer_factory.hpp:77] Creating layer relu7
I0625 19:26:06.621572 14274 net.cpp:106] Creating Layer relu7
I0625 19:26:06.621620 14274 net.cpp:454] relu7 <- fc7
I0625 19:26:06.621671 14274 net.cpp:397] relu7 -> fc7 (in-place)
I0625 19:26:06.621727 14274 net.cpp:150] Setting up relu7
I0625 19:26:06.621788 14274 net.cpp:157] Top shape: 1 4096 (4096)
I0625 19:26:06.621834 14274 net.cpp:165] Memory required for data: 21953860
I0625 19:26:06.621876 14274 layer_factory.hpp:77] Creating layer drop7
I0625 19:26:06.621923 14274 net.cpp:106] Creating Layer drop7
I0625 19:26:06.621968 14274 net.cpp:454] drop7 <- fc7
I0625 19:26:06.622014 14274 net.cpp:397] drop7 -> fc7 (in-place)
I0625 19:26:06.622092 14274 net.cpp:150] Setting up drop7
I0625 19:26:06.622144 14274 net.cpp:157] Top shape: 1 4096 (4096)
I0625 19:26:06.622187 14274 net.cpp:165] Memory required for data: 21970244
I0625 19:26:06.622239 14274 layer_factory.hpp:77] Creating layer fc7_drop7_0_split
I0625 19:26:06.622289 14274 net.cpp:106] Creating Layer fc7_drop7_0_split
I0625 19:26:06.622333 14274 net.cpp:454] fc7_drop7_0_split <- fc7
I0625 19:26:06.622380 14274 net.cpp:411] fc7_drop7_0_split -> fc7_drop7_0_split_0
I0625 19:26:06.622431 14274 net.cpp:411] fc7_drop7_0_split -> fc7_drop7_0_split_1
I0625 19:26:06.622526 14274 net.cpp:150] Setting up fc7_drop7_0_split
I0625 19:26:06.622578 14274 net.cpp:157] Top shape: 1 4096 (4096)
I0625 19:26:06.622624 14274 net.cpp:157] Top shape: 1 4096 (4096)
I0625 19:26:06.622666 14274 net.cpp:165] Memory required for data: 22003012
I0625 19:26:06.622709 14274 layer_factory.hpp:77] Creating layer cls_score
I0625 19:26:06.622764 14274 net.cpp:106] Creating Layer cls_score
I0625 19:26:06.622809 14274 net.cpp:454] cls_score <- fc7_drop7_0_split_0
I0625 19:26:06.622856 14274 net.cpp:411] cls_score -> cls_score
I0625 19:26:06.623031 14274 net.cpp:150] Setting up cls_score
I0625 19:26:06.623086 14274 net.cpp:157] Top shape: 1 2 (2)
I0625 19:26:06.623129 14274 net.cpp:165] Memory required for data: 22003020
I0625 19:26:06.623178 14274 layer_factory.hpp:77] Creating layer bbox_pred
I0625 19:26:06.623232 14274 net.cpp:106] Creating Layer bbox_pred
I0625 19:26:06.623281 14274 net.cpp:454] bbox_pred <- fc7_drop7_0_split_1
I0625 19:26:06.623338 14274 net.cpp:411] bbox_pred -> bbox_pred
I0625 19:26:06.624375 14274 net.cpp:150] Setting up bbox_pred
I0625 19:26:06.624447 14274 net.cpp:157] Top shape: 1 8 (8)
I0625 19:26:06.624495 14274 net.cpp:165] Memory required for data: 22003052
I0625 19:26:06.624544 14274 layer_factory.hpp:77] Creating layer cls_prob
I0625 19:26:06.624595 14274 net.cpp:106] Creating Layer cls_prob
I0625 19:26:06.624641 14274 net.cpp:454] cls_prob <- cls_score
I0625 19:26:06.624688 14274 net.cpp:411] cls_prob -> cls_prob
I0625 19:26:06.624807 14274 net.cpp:150] Setting up cls_prob
I0625 19:26:06.624861 14274 net.cpp:157] Top shape: 1 2 (2)
I0625 19:26:06.624905 14274 net.cpp:165] Memory required for data: 22003060
I0625 19:26:06.624948 14274 net.cpp:228] cls_prob does not need backward computation.
I0625 19:26:06.624991 14274 net.cpp:228] bbox_pred does not need backward computation.
I0625 19:26:06.625033 14274 net.cpp:228] cls_score does not need backward computation.
I0625 19:26:06.625077 14274 net.cpp:228] fc7_drop7_0_split does not need backward computation.
…
