…
snapshot_prefix: "zf_faster_rcnn"
average_loss: 100
iter_size: 2
I0327 09:29:46.906008 31190 solver.cpp:81] Creating training net from train_net file: /home/sgabriel/py-faster-rcnn/models/pascal_voc/ZF/faster_rcnn_end2end/train.prototxt
I0327 09:29:46.925552 31190 net.cpp:49] Initializing net from parameters: 
name: "ZF"
state {
  phase: TRAIN
}
layer {
  name: "input-data"
  type: "Python"
  top: "data"
  top: "im_info"
  top: "gt_boxes"
  python_param {
    module: "roi_data_layer.layer"
    layer: "RoIDataLayer"
    param_str: "\'num_classes\': 2"
  }
}
layer {
  name: "conv1"
  type: "Convolution"
  bottom: "data"
  top: "conv1"
  param {
    lr_mult: 0
  }
  param {
    lr_mult: 0
  }
  convolution_param {
    num_output: 96
    pad: 3
    kernel_size: 7
    stride: 2
  }
}
layer {
  name: "relu1"
  type: "ReLU"
  bottom: "conv1"
  top: "conv1"
}
layer {
  name: "norm1"
  type: "LRN"
  bottom: "conv1"
  top: "norm1"
  lrn_param {
    local_size: 3
    alpha: 5e-05
    beta: 0.75
    norm_region: WITHIN_CHANNEL
    engine: CAFFE
  }
}
layer {
  name: "pool1"
  type: "Pooling"
  bottom: "norm1"
  top: "pool1"
  pooling_param {
    pool: MAX
    kernel_size: 3
    stride: 2
    pad: 1
  }
}
layer {
  name: "conv2"
  type: "Convolution"
  bottom: "pool1"
  top: "conv2"
  param {
    lr_mult: 0
  }
  param {
    lr_mult: 0
  }
  convolution_param {
    num_output: 256
    pad: 2
    kernel_size: 5
    stride: 2
  }
}
layer {
  name: "relu2"
  type: "ReLU"
  bottom: "conv2"
  top: "conv2"
}
layer {
  name: "norm2"
  type: "LRN"
  bottom: "conv2"
  top: "norm2"
  lrn_param {
    local_size: 3
    alpha: 5e-05
    beta: 0.75
    norm_region: WITHIN_CHANNEL
    engine: CAFFE
  }
}
layer {
  name: "pool2"
  type: "Pooling"
  bottom: "norm2"
  top: "pool2"
  pooling_param {
    pool: MAX
    kernel_size: 3
    stride: 2
    pad: 1
  }
}
layer {
  name: "conv3"
  type: "Convolution"
  bottom: "pool2"
  top: "conv3"
  param {
    lr_mult: 0
  }
  param {
    lr_mult: 0
  }
  convolution_param {
    num_output: 384
    pad: 1
    kernel_size: 3
    stride: 1
  }
}
layer {
  name: "relu3"
  type: "ReLU"
  bottom: "conv3"
  top: "conv3"
}
layer {
  name: "conv4"
  type: "Convolution"
  bottom: "conv3"
  top: "conv4"
  param {
    lr_mult: 0
  }
  param {
    lr_mult: 0
  }
  convolution_param {
    num_output: 384
    pad: 1
    kernel_size: 3
    stride: 1
  }
}
layer {
  name: "relu4"
  type: "ReLU"
  bottom: "conv4"
  top: "conv4"
}
layer {
  name: "conv5"
  type: "Convolution"
  bottom: "conv4"
  top: "conv5"
  param {
    lr_mult: 0
  }
  param {
    lr_mult: 0
  }
  convolution_param {
    num_output: 256
    pad: 1
    kernel_size: 3
    stride: 1
  }
}
layer {
  name: "relu5"
  type: "ReLU"
  bottom: "conv5"
  top: "conv5"
}
layer {
  name: "rpn_conv/3x3"
  type: "Convolution"
  bottom: "conv5"
  top: "rpn/output"
  param {
    lr_mult: 1
  }
  param {
    lr_mult: 2
  }
  convolution_param {
    num_output: 256
    pad: 1
    kernel_size: 3
    stride: 1
    weight_filler {
      type: "gaussian"
      std: 0.01
    }
    bias_filler {
      type: "constant"
      value: 0
    }
  }
}
layer {
  name: "rpn_relu/3x3"
  type: "ReLU"
  bottom: "rpn/output"
  top: "rpn/output"
}
layer {
  name: "rpn_cls_score"
  type: "Convolution"
  bottom: "rpn/output"
  top: "rpn_cls_score"
  param {
    lr_mult: 1
  }
  param {
    lr_mult: 2
  }
  convolution_param {
    num_output: 18
    pad: 0
    kernel_size: 1
    stride: 1
    weight_filler {
      type: "gaussian"
      std: 0.01
    }
    bias_filler {
      type: "constant"
      value: 0
    }
  }
}
layer {
  name: "rpn_bbox_pred"
  type: "Convolution"
  bottom: "rpn/output"
  top: "rpn_bbox_pred"
  param {
    lr_mult: 1
  }
  param {
    lr_mult: 2
  }
  convolution_param {
    num_output: 36
    pad: 0
    kernel_size: 1
    stride: 1
    weight_filler {
      type: "gaussian"
      std: 0.01
    }
    bias_filler {
      type: "constant"
      value: 0
    }
  }
}
layer {
  name: "rpn_cls_score_reshape"
  type: "Reshape"
  bottom: "rpn_cls_score"
  top: "rpn_cls_score_reshape"
  reshape_param {
    shape {
      dim: 0
      dim: 2
      dim: -1
      dim: 0
    }
  }
}
layer {
  name: "rpn-data"
  type: "Python"
  bottom: "rpn_cls_score"
  bottom: "gt_boxes"
  bottom: "im_info"
  bottom: "data"
  top: "rpn_labels"
  top: "rpn_bbox_targets"
  top: "rpn_bbox_inside_weights"
  top: "rpn_bbox_outside_weights"
  python_param {
    module: "rpn.anchor_target_layer"
    layer: "AnchorTargetLayer"
    param_str: "\'feat_stride\': 16"
  }
}
layer {
  name: "rpn_loss_cls"
  type: "SoftmaxWithLoss"
  bottom: "rpn_cls_score_reshape"
  bottom: "rpn_labels"
  top: "rpn_cls_loss"
  loss_weight: 1
  propagate_down: true
  propagate_down: false
  loss_param {
    ignore_label: -1
    normalize: true
  }
}
layer {
  name: "rpn_loss_bbox"
  type: "SmoothL1Loss"
  bottom: "rpn_bbox_pred"
  bottom: "rpn_bbox_targets"
  bottom: "rpn_bbox_inside_weights"
  bottom: "rpn_bbox_outside_weights"
  top: "rpn_loss_bbox"
  loss_weight: 1
  smooth_l1_loss_param {
    sigma: 3
  }
}
layer {
  name: "rpn_cls_prob"
  type: "Softmax"
  bottom: "rpn_cls_score_reshape"
  top: "rpn_cls_prob"
}
layer {
  name: "rpn_cls_prob_reshape"
  type: "Reshape"
  bottom: "rpn_cls_prob"
  top: "rpn_cls_prob_reshape"
  reshape_param {
    shape {
      dim: 0
      dim: 18
      dim: -1
      dim: 0
    }
  }
}
layer {
  name: "proposal"
  type: "Python"
  bottom: "rpn_cls_prob_reshape"
  bottom: "rpn_bbox_pred"
  bottom: "im_info"
  top: "rpn_rois"
  python_param {
    module: "rpn.proposal_layer"
    layer: "ProposalLayer"
    param_str: "\'feat_stride\': 16"
  }
}
layer {
  name: "roi-data"
  type: "Python"
  bottom: "rpn_rois"
  bottom: "gt_boxes"
  top: "rois"
  top: "labels"
  top: "bbox_targets"
  top: "bbox_inside_weights"
  top: "bbox_outside_weights"
  python_param {
    module: "rpn.proposal_target_layer"
    layer: "ProposalTargetLayer"
    param_str: "\'num_classes\': 2"
  }
}
layer {
  name: "roi_pool_conv5"
  type: "ROIPooling"
  bottom: "conv5"
  bottom: "rois"
  top: "roi_pool_conv5"
  roi_pooling_param {
    pooled_h: 6
    pooled_w: 6
    spatial_scale: 0.0625
  }
}
layer {
  name: "fc6"
  type: "InnerProduct"
  bottom: "roi_pool_conv5"
  top: "fc6"
  param {
    lr_mult: 1
  }
  param {
    lr_mult: 2
  }
  inner_product_param {
    num_output: 4096
  }
}
layer {
  name: "relu6"
  type: "ReLU"
  bottom: "fc6"
  top: "fc6"
}
layer {
  name: "drop6"
  type: "Dropout"
  bottom: "fc6"
  top: "fc6"
  dropout_param {
    dropout_ratio: 0.5
    scale_train: false
  }
}
layer {
  name: "fc7"
  type: "InnerProduct"
  bottom: "fc6"
  top: "fc7"
  param {
    lr_mult: 0
  }
  param {
    lr_mult: 0
  }
  inner_product_param {
    num_output: 4096
  }
}
layer {
  name: "relu7"
  type: "ReLU"
  bottom: "fc7"
  top: "fc7"
}
layer {
  name: "drop7"
  type: "Dropout"
  bottom: "fc7"
  top: "fc7"
  dropout_param {
    dropout_ratio: 0.5
    scale_train: false
  }
}
layer {
  name: "cls_score"
  type: "InnerProduct"
  bottom: "fc7"
  top: "cls_score"
  param {
    lr_mult: 1
  }
  param {
    lr_mult: 2
  }
  inner_product_param {
    num_output: 2
    weight_filler {
      type: "gaussian"
      std: 0.01
    }
    bias_filler {
      type: "constant"
      value: 0
    }
  }
}
layer {
  name: "bbox_pred"
  type: "InnerProduct"
  bottom: "fc7"
  top: "bbox_pred"
  param {
    lr_mult: 1
  }
  param {
    lr_mult: 2
  }
  inner_product_param {
    num_output: 8
    weight_filler {
      type: "gaussian"
      std: 0.001
    }
    bias_filler {
      type: "constant"
      value: 0
    }
  }
}
layer {
  name: "loss_cls"
  type: "SoftmaxWithLoss"
  bottom: "cls_score"
  bottom: "labels"
  top: "cls_loss"
  loss_weight: 1
  propagate_down: true
  propagate_down: false
  loss_param {
    ignore_label: -1
    normalize: true
  }
}
layer {
  name: "loss_bbox"
  type: "SmoothL1Loss"
  bottom: "bbox_pred"
  bottom: "bbox_targets"
  bottom: "bbox_inside_weights"
  bottom: "bbox_outside_weights"
  top: "bbox_loss"
  loss_weight: 1
}
I0327 09:29:46.925981 31190 layer_factory.hpp:77] Creating layer input-data
I0327 09:29:47.275079 31190 net.cpp:106] Creating Layer input-data
I0327 09:29:47.275108 31190 net.cpp:411] input-data -> data
I0327 09:29:47.275130 31190 net.cpp:411] input-data -> im_info
I0327 09:29:47.275136 31190 net.cpp:411] input-data -> gt_boxes
RoiDataLayer: name_to_top: {'gt_boxes': 2, 'data': 0, 'im_info': 1}
I0327 09:29:47.332088 31190 net.cpp:150] Setting up input-data
I0327 09:29:47.332118 31190 net.cpp:157] Top shape: 1 3 600 600 (1080000)
I0327 09:29:47.332126 31190 net.cpp:157] Top shape: 1 3 (3)
I0327 09:29:47.332134 31190 net.cpp:157] Top shape: 1 4 (4)
I0327 09:29:47.332139 31190 net.cpp:165] Memory required for data: 4320028
I0327 09:29:47.332152 31190 layer_factory.hpp:77] Creating layer data_input-data_0_split
I0327 09:29:47.333510 31190 net.cpp:106] Creating Layer data_input-data_0_split
I0327 09:29:47.333523 31190 net.cpp:454] data_input-data_0_split <- data
I0327 09:29:47.333539 31190 net.cpp:411] data_input-data_0_split -> data_input-data_0_split_0
I0327 09:29:47.333554 31190 net.cpp:411] data_input-data_0_split -> data_input-data_0_split_1
I0327 09:29:47.333621 31190 net.cpp:150] Setting up data_input-data_0_split
I0327 09:29:47.333631 31190 net.cpp:157] Top shape: 1 3 600 600 (1080000)
I0327 09:29:47.333639 31190 net.cpp:157] Top shape: 1 3 600 600 (1080000)
I0327 09:29:47.333645 31190 net.cpp:165] Memory required for data: 12960028
I0327 09:29:47.333652 31190 layer_factory.hpp:77] Creating layer im_info_input-data_1_split
I0327 09:29:47.333662 31190 net.cpp:106] Creating Layer im_info_input-data_1_split
I0327 09:29:47.333669 31190 net.cpp:454] im_info_input-data_1_split <- im_info
I0327 09:29:47.333678 31190 net.cpp:411] im_info_input-data_1_split -> im_info_input-data_1_split_0
I0327 09:29:47.333688 31190 net.cpp:411] im_info_input-data_1_split -> im_info_input-data_1_split_1
I0327 09:29:47.333736 31190 net.cpp:150] Setting up im_info_input-data_1_split
I0327 09:29:47.333745 31190 net.cpp:157] Top shape: 1 3 (3)
I0327 09:29:47.333751 31190 net.cpp:157] Top shape: 1 3 (3)
I0327 09:29:47.333756 31190 net.cpp:165] Memory required for data: 12960052
I0327 09:29:47.333761 31190 layer_factory.hpp:77] Creating layer gt_boxes_input-data_2_split
I0327 09:29:47.333768 31190 net.cpp:106] Creating Layer gt_boxes_input-data_2_split
I0327 09:29:47.333775 31190 net.cpp:454] gt_boxes_input-data_2_split <- gt_boxes
I0327 09:29:47.333782 31190 net.cpp:411] gt_boxes_input-data_2_split -> gt_boxes_input-data_2_split_0
I0327 09:29:47.333791 31190 net.cpp:411] gt_boxes_input-data_2_split -> gt_boxes_input-data_2_split_1
I0327 09:29:47.333839 31190 net.cpp:150] Setting up gt_boxes_input-data_2_split
I0327 09:29:47.333847 31190 net.cpp:157] Top shape: 1 4 (4)
I0327 09:29:47.333854 31190 net.cpp:157] Top shape: 1 4 (4)
I0327 09:29:47.333859 31190 net.cpp:165] Memory required for data: 12960084
I0327 09:29:47.333864 31190 layer_factory.hpp:77] Creating layer conv1
I0327 09:29:47.333885 31190 net.cpp:106] Creating Layer conv1
I0327 09:29:47.333891 31190 net.cpp:454] conv1 <- data_input-data_0_split_0
I0327 09:29:47.333902 31190 net.cpp:411] conv1 -> conv1
I0327 09:29:47.335971 31190 net.cpp:150] Setting up conv1
I0327 09:29:47.335989 31190 net.cpp:157] Top shape: 1 96 300 300 (8640000)
I0327 09:29:47.335995 31190 net.cpp:165] Memory required for data: 47520084
I0327 09:29:47.336026 31190 layer_factory.hpp:77] Creating layer relu1
I0327 09:29:47.336042 31190 net.cpp:106] Creating Layer relu1
I0327 09:29:47.336048 31190 net.cpp:454] relu1 <- conv1
I0327 09:29:47.336058 31190 net.cpp:397] relu1 -> conv1 (in-place)
I0327 09:29:47.336071 31190 net.cpp:150] Setting up relu1
I0327 09:29:47.336079 31190 net.cpp:157] Top shape: 1 96 300 300 (8640000)
I0327 09:29:47.336084 31190 net.cpp:165] Memory required for data: 82080084
I0327 09:29:47.336089 31190 layer_factory.hpp:77] Creating layer norm1
I0327 09:29:47.336099 31190 net.cpp:106] Creating Layer norm1
I0327 09:29:47.336104 31190 net.cpp:454] norm1 <- conv1
I0327 09:29:47.336113 31190 net.cpp:411] norm1 -> norm1
I0327 09:29:47.336269 31190 net.cpp:150] Setting up norm1
I0327 09:29:47.336279 31190 net.cpp:157] Top shape: 1 96 300 300 (8640000)
I0327 09:29:47.336283 31190 net.cpp:165] Memory required for data: 116640084
I0327 09:29:47.336289 31190 layer_factory.hpp:77] Creating layer pool1
I0327 09:29:47.336302 31190 net.cpp:106] Creating Layer pool1
I0327 09:29:47.336308 31190 net.cpp:454] pool1 <- norm1
I0327 09:29:47.336314 31190 net.cpp:411] pool1 -> pool1
I0327 09:29:47.336362 31190 net.cpp:150] Setting up pool1
I0327 09:29:47.336370 31190 net.cpp:157] Top shape: 1 96 151 151 (2188896)
I0327 09:29:47.336374 31190 net.cpp:165] Memory required for data: 125395668
I0327 09:29:47.336380 31190 layer_factory.hpp:77] Creating layer conv2
I0327 09:29:47.336392 31190 net.cpp:106] Creating Layer conv2
I0327 09:29:47.336397 31190 net.cpp:454] conv2 <- pool1
I0327 09:29:47.336405 31190 net.cpp:411] conv2 -> conv2
I0327 09:29:47.338896 31190 net.cpp:150] Setting up conv2
I0327 09:29:47.338913 31190 net.cpp:157] Top shape: 1 256 76 76 (1478656)
I0327 09:29:47.338919 31190 net.cpp:165] Memory required for data: 131310292
I0327 09:29:47.338937 31190 layer_factory.hpp:77] Creating layer relu2
I0327 09:29:47.338953 31190 net.cpp:106] Creating Layer relu2
I0327 09:29:47.338959 31190 net.cpp:454] relu2 <- conv2
I0327 09:29:47.338968 31190 net.cpp:397] relu2 -> conv2 (in-place)
I0327 09:29:47.338979 31190 net.cpp:150] Setting up relu2
I0327 09:29:47.338985 31190 net.cpp:157] Top shape: 1 256 76 76 (1478656)
I0327 09:29:47.338992 31190 net.cpp:165] Memory required for data: 137224916
I0327 09:29:47.338999 31190 layer_factory.hpp:77] Creating layer norm2
I0327 09:29:47.339030 31190 net.cpp:106] Creating Layer norm2
I0327 09:29:47.339037 31190 net.cpp:454] norm2 <- conv2
I0327 09:29:47.339051 31190 net.cpp:411] norm2 -> norm2
I0327 09:29:47.339186 31190 net.cpp:150] Setting up norm2
I0327 09:29:47.339200 31190 net.cpp:157] Top shape: 1 256 76 76 (1478656)
I0327 09:29:47.339208 31190 net.cpp:165] Memory required for data: 143139540
I0327 09:29:47.339216 31190 layer_factory.hpp:77] Creating layer pool2
I0327 09:29:47.339232 31190 net.cpp:106] Creating Layer pool2
I0327 09:29:47.339239 31190 net.cpp:454] pool2 <- norm2
I0327 09:29:47.339251 31190 net.cpp:411] pool2 -> pool2
I0327 09:29:47.339303 31190 net.cpp:150] Setting up pool2
I0327 09:29:47.339315 31190 net.cpp:157] Top shape: 1 256 39 39 (389376)
I0327 09:29:47.339323 31190 net.cpp:165] Memory required for data: 144697044
I0327 09:29:47.339331 31190 layer_factory.hpp:77] Creating layer conv3
I0327 09:29:47.339350 31190 net.cpp:106] Creating Layer conv3
I0327 09:29:47.339357 31190 net.cpp:454] conv3 <- pool2
I0327 09:29:47.339371 31190 net.cpp:411] conv3 -> conv3
I0327 09:29:47.344275 31190 net.cpp:150] Setting up conv3
I0327 09:29:47.344296 31190 net.cpp:157] Top shape: 1 384 39 39 (584064)
I0327 09:29:47.344307 31190 net.cpp:165] Memory required for data: 147033300
I0327 09:29:47.344329 31190 layer_factory.hpp:77] Creating layer relu3
I0327 09:29:47.344347 31190 net.cpp:106] Creating Layer relu3
I0327 09:29:47.344354 31190 net.cpp:454] relu3 <- conv3
I0327 09:29:47.344367 31190 net.cpp:397] relu3 -> conv3 (in-place)
I0327 09:29:47.344380 31190 net.cpp:150] Setting up relu3
I0327 09:29:47.344391 31190 net.cpp:157] Top shape: 1 384 39 39 (584064)
I0327 09:29:47.344398 31190 net.cpp:165] Memory required for data: 149369556
I0327 09:29:47.344406 31190 layer_factory.hpp:77] Creating layer conv4
I0327 09:29:47.344424 31190 net.cpp:106] Creating Layer conv4
I0327 09:29:47.344440 31190 net.cpp:454] conv4 <- conv3
I0327 09:29:47.344454 31190 net.cpp:411] conv4 -> conv4
I0327 09:29:47.349210 31190 net.cpp:150] Setting up conv4
I0327 09:29:47.349230 31190 net.cpp:157] Top shape: 1 384 39 39 (584064)
I0327 09:29:47.349238 31190 net.cpp:165] Memory required for data: 151705812
I0327 09:29:47.349254 31190 layer_factory.hpp:77] Creating layer relu4
I0327 09:29:47.349269 31190 net.cpp:106] Creating Layer relu4
I0327 09:29:47.349277 31190 net.cpp:454] relu4 <- conv4
I0327 09:29:47.349289 31190 net.cpp:397] relu4 -> conv4 (in-place)
I0327 09:29:47.349301 31190 net.cpp:150] Setting up relu4
I0327 09:29:47.349311 31190 net.cpp:157] Top shape: 1 384 39 39 (584064)
I0327 09:29:47.349318 31190 net.cpp:165] Memory required for data: 154042068
I0327 09:29:47.349326 31190 layer_factory.hpp:77] Creating layer conv5
I0327 09:29:47.349351 31190 net.cpp:106] Creating Layer conv5
I0327 09:29:47.349359 31190 net.cpp:454] conv5 <- conv4
I0327 09:29:47.349370 31190 net.cpp:411] conv5 -> conv5
I0327 09:29:47.352641 31190 net.cpp:150] Setting up conv5
I0327 09:29:47.352660 31190 net.cpp:157] Top shape: 1 256 39 39 (389376)
I0327 09:29:47.352669 31190 net.cpp:165] Memory required for data: 155599572
I0327 09:29:47.352697 31190 layer_factory.hpp:77] Creating layer relu5
I0327 09:29:47.352710 31190 net.cpp:106] Creating Layer relu5
I0327 09:29:47.352716 31190 net.cpp:454] relu5 <- conv5
I0327 09:29:47.352728 31190 net.cpp:397] relu5 -> conv5 (in-place)
I0327 09:29:47.352741 31190 net.cpp:150] Setting up relu5
I0327 09:29:47.352751 31190 net.cpp:157] Top shape: 1 256 39 39 (389376)
I0327 09:29:47.352756 31190 net.cpp:165] Memory required for data: 157157076
I0327 09:29:47.352764 31190 layer_factory.hpp:77] Creating layer conv5_relu5_0_split
I0327 09:29:47.352778 31190 net.cpp:106] Creating Layer conv5_relu5_0_split
I0327 09:29:47.352784 31190 net.cpp:454] conv5_relu5_0_split <- conv5
I0327 09:29:47.352800 31190 net.cpp:411] conv5_relu5_0_split -> conv5_relu5_0_split_0
I0327 09:29:47.352813 31190 net.cpp:411] conv5_relu5_0_split -> conv5_relu5_0_split_1
I0327 09:29:47.352862 31190 net.cpp:150] Setting up conv5_relu5_0_split
I0327 09:29:47.352874 31190 net.cpp:157] Top shape: 1 256 39 39 (389376)
I0327 09:29:47.352885 31190 net.cpp:157] Top shape: 1 256 39 39 (389376)
I0327 09:29:47.352890 31190 net.cpp:165] Memory required for data: 160272084
I0327 09:29:47.352898 31190 layer_factory.hpp:77] Creating layer rpn_conv/3x3
I0327 09:29:47.352921 31190 net.cpp:106] Creating Layer rpn_conv/3x3
I0327 09:29:47.352928 31190 net.cpp:454] rpn_conv/3x3 <- conv5_relu5_0_split_0
I0327 09:29:47.352941 31190 net.cpp:411] rpn_conv/3x3 -> rpn/output
I0327 09:29:47.368221 31190 net.cpp:150] Setting up rpn_conv/3x3
I0327 09:29:47.368238 31190 net.cpp:157] Top shape: 1 256 39 39 (389376)
I0327 09:29:47.368247 31190 net.cpp:165] Memory required for data: 161829588
I0327 09:29:47.368260 31190 layer_factory.hpp:77] Creating layer rpn_relu/3x3
I0327 09:29:47.368273 31190 net.cpp:106] Creating Layer rpn_relu/3x3
I0327 09:29:47.368279 31190 net.cpp:454] rpn_relu/3x3 <- rpn/output
I0327 09:29:47.368291 31190 net.cpp:397] rpn_relu/3x3 -> rpn/output (in-place)
I0327 09:29:47.368302 31190 net.cpp:150] Setting up rpn_relu/3x3
I0327 09:29:47.368310 31190 net.cpp:157] Top shape: 1 256 39 39 (389376)
I0327 09:29:47.368316 31190 net.cpp:165] Memory required for data: 163387092
I0327 09:29:47.368324 31190 layer_factory.hpp:77] Creating layer rpn/output_rpn_relu/3x3_0_split
I0327 09:29:47.368335 31190 net.cpp:106] Creating Layer rpn/output_rpn_relu/3x3_0_split
I0327 09:29:47.368340 31190 net.cpp:454] rpn/output_rpn_relu/3x3_0_split <- rpn/output
I0327 09:29:47.368353 31190 net.cpp:411] rpn/output_rpn_relu/3x3_0_split -> rpn/output_rpn_relu/3x3_0_split_0
I0327 09:29:47.368365 31190 net.cpp:411] rpn/output_rpn_relu/3x3_0_split -> rpn/output_rpn_relu/3x3_0_split_1
I0327 09:29:47.368408 31190 net.cpp:150] Setting up rpn/output_rpn_relu/3x3_0_split
I0327 09:29:47.368418 31190 net.cpp:157] Top shape: 1 256 39 39 (389376)
I0327 09:29:47.368432 31190 net.cpp:157] Top shape: 1 256 39 39 (389376)
I0327 09:29:47.368440 31190 net.cpp:165] Memory required for data: 166502100
I0327 09:29:47.368449 31190 layer_factory.hpp:77] Creating layer rpn_cls_score
I0327 09:29:47.368468 31190 net.cpp:106] Creating Layer rpn_cls_score
I0327 09:29:47.368475 31190 net.cpp:454] rpn_cls_score <- rpn/output_rpn_relu/3x3_0_split_0
I0327 09:29:47.368487 31190 net.cpp:411] rpn_cls_score -> rpn_cls_score
I0327 09:29:47.368890 31190 net.cpp:150] Setting up rpn_cls_score
I0327 09:29:47.368904 31190 net.cpp:157] Top shape: 1 18 39 39 (27378)
I0327 09:29:47.368911 31190 net.cpp:165] Memory required for data: 166611612
I0327 09:29:47.368924 31190 layer_factory.hpp:77] Creating layer rpn_cls_score_rpn_cls_score_0_split
I0327 09:29:47.368934 31190 net.cpp:106] Creating Layer rpn_cls_score_rpn_cls_score_0_split
I0327 09:29:47.368940 31190 net.cpp:454] rpn_cls_score_rpn_cls_score_0_split <- rpn_cls_score
I0327 09:29:47.368952 31190 net.cpp:411] rpn_cls_score_rpn_cls_score_0_split -> rpn_cls_score_rpn_cls_score_0_split_0
I0327 09:29:47.368963 31190 net.cpp:411] rpn_cls_score_rpn_cls_score_0_split -> rpn_cls_score_rpn_cls_score_0_split_1
I0327 09:29:47.369007 31190 net.cpp:150] Setting up rpn_cls_score_rpn_cls_score_0_split
I0327 09:29:47.369017 31190 net.cpp:157] Top shape: 1 18 39 39 (27378)
I0327 09:29:47.369027 31190 net.cpp:157] Top shape: 1 18 39 39 (27378)
I0327 09:29:47.369032 31190 net.cpp:165] Memory required for data: 166830636
I0327 09:29:47.369040 31190 layer_factory.hpp:77] Creating layer rpn_bbox_pred
I0327 09:29:47.369057 31190 net.cpp:106] Creating Layer rpn_bbox_pred
I0327 09:29:47.369065 31190 net.cpp:454] rpn_bbox_pred <- rpn/output_rpn_relu/3x3_0_split_1
I0327 09:29:47.369078 31190 net.cpp:411] rpn_bbox_pred -> rpn_bbox_pred
I0327 09:29:47.369559 31190 net.cpp:150] Setting up rpn_bbox_pred
I0327 09:29:47.369571 31190 net.cpp:157] Top shape: 1 36 39 39 (54756)
I0327 09:29:47.369578 31190 net.cpp:165] Memory required for data: 167049660
I0327 09:29:47.369591 31190 layer_factory.hpp:77] Creating layer rpn_bbox_pred_rpn_bbox_pred_0_split
I0327 09:29:47.369602 31190 net.cpp:106] Creating Layer rpn_bbox_pred_rpn_bbox_pred_0_split
I0327 09:29:47.369609 31190 net.cpp:454] rpn_bbox_pred_rpn_bbox_pred_0_split <- rpn_bbox_pred
I0327 09:29:47.369621 31190 net.cpp:411] rpn_bbox_pred_rpn_bbox_pred_0_split -> rpn_bbox_pred_rpn_bbox_pred_0_split_0
I0327 09:29:47.369632 31190 net.cpp:411] rpn_bbox_pred_rpn_bbox_pred_0_split -> rpn_bbox_pred_rpn_bbox_pred_0_split_1
I0327 09:29:47.369679 31190 net.cpp:150] Setting up rpn_bbox_pred_rpn_bbox_pred_0_split
I0327 09:29:47.369689 31190 net.cpp:157] Top shape: 1 36 39 39 (54756)
I0327 09:29:47.369699 31190 net.cpp:157] Top shape: 1 36 39 39 (54756)
I0327 09:29:47.369705 31190 net.cpp:165] Memory required for data: 167487708
I0327 09:29:47.369712 31190 layer_factory.hpp:77] Creating layer rpn_cls_score_reshape
I0327 09:29:47.369729 31190 net.cpp:106] Creating Layer rpn_cls_score_reshape
I0327 09:29:47.369736 31190 net.cpp:454] rpn_cls_score_reshape <- rpn_cls_score_rpn_cls_score_0_split_0
I0327 09:29:47.369747 31190 net.cpp:411] rpn_cls_score_reshape -> rpn_cls_score_reshape
I0327 09:29:47.369784 31190 net.cpp:150] Setting up rpn_cls_score_reshape
I0327 09:29:47.369794 31190 net.cpp:157] Top shape: 1 2 351 39 (27378)
I0327 09:29:47.369801 31190 net.cpp:165] Memory required for data: 167597220
I0327 09:29:47.369810 31190 layer_factory.hpp:77] Creating layer rpn_cls_score_reshape_rpn_cls_score_reshape_0_split
I0327 09:29:47.369822 31190 net.cpp:106] Creating Layer rpn_cls_score_reshape_rpn_cls_score_reshape_0_split
I0327 09:29:47.369828 31190 net.cpp:454] rpn_cls_score_reshape_rpn_cls_score_reshape_0_split <- rpn_cls_score_reshape
I0327 09:29:47.369838 31190 net.cpp:411] rpn_cls_score_reshape_rpn_cls_score_reshape_0_split -> rpn_cls_score_reshape_rpn_cls_score_reshape_0_split_0
I0327 09:29:47.369851 31190 net.cpp:411] rpn_cls_score_reshape_rpn_cls_score_reshape_0_split -> rpn_cls_score_reshape_rpn_cls_score_reshape_0_split_1
I0327 09:29:47.369892 31190 net.cpp:150] Setting up rpn_cls_score_reshape_rpn_cls_score_reshape_0_split
I0327 09:29:47.369902 31190 net.cpp:157] Top shape: 1 2 351 39 (27378)
I0327 09:29:47.369911 31190 net.cpp:157] Top shape: 1 2 351 39 (27378)
I0327 09:29:47.369917 31190 net.cpp:165] Memory required for data: 167816244
I0327 09:29:47.369925 31190 layer_factory.hpp:77] Creating layer rpn-data
I0327 09:29:47.400403 31190 net.cpp:106] Creating Layer rpn-data
I0327 09:29:47.400419 31190 net.cpp:454] rpn-data <- rpn_cls_score_rpn_cls_score_0_split_1
I0327 09:29:47.400434 31190 net.cpp:454] rpn-data <- gt_boxes_input-data_2_split_0
I0327 09:29:47.400440 31190 net.cpp:454] rpn-data <- im_info_input-data_1_split_0
I0327 09:29:47.400444 31190 net.cpp:454] rpn-data <- data_input-data_0_split_1
I0327 09:29:47.400450 31190 net.cpp:411] rpn-data -> rpn_labels
I0327 09:29:47.400462 31190 net.cpp:411] rpn-data -> rpn_bbox_targets
I0327 09:29:47.400470 31190 net.cpp:411] rpn-data -> rpn_bbox_inside_weights
I0327 09:29:47.400477 31190 net.cpp:411] rpn-data -> rpn_bbox_outside_weights
I0327 09:29:47.401981 31190 net.cpp:150] Setting up rpn-data
I0327 09:29:47.401994 31190 net.cpp:157] Top shape: 1 1 351 39 (13689)
I0327 09:29:47.402009 31190 net.cpp:157] Top shape: 1 36 39 39 (54756)
I0327 09:29:47.402014 31190 net.cpp:157] Top shape: 1 36 39 39 (54756)
I0327 09:29:47.402017 31190 net.cpp:157] Top shape: 1 36 39 39 (54756)
I0327 09:29:47.402021 31190 net.cpp:165] Memory required for data: 168528072
I0327 09:29:47.402025 31190 layer_factory.hpp:77] Creating layer rpn_loss_cls
I0327 09:29:47.402036 31190 net.cpp:106] Creating Layer rpn_loss_cls
I0327 09:29:47.402041 31190 net.cpp:454] rpn_loss_cls <- rpn_cls_score_reshape_rpn_cls_score_reshape_0_split_0
I0327 09:29:47.402047 31190 net.cpp:454] rpn_loss_cls <- rpn_labels
…
I0327 09:29:47.402652 31190 net.cpp:157] Top shape: (1)
I0327 09:29:47.402655 31190 net.cpp:160]     with loss weight 1
I0327 09:29:47.402660 31190 net.cpp:165] Memory required for data: 168528080
I0327 09:29:47.402663 31190 layer_factory.hpp:77] Creating layer rpn_cls_prob
I0327 09:29:47.402670 31190 net.cpp:106] Creating Layer rpn_cls_prob
I0327 09:29:47.402674 31190 net.cpp:454] rpn_cls_prob <- rpn_cls_score_reshape_rpn_cls_score_reshape_0_split_1
I0327 09:29:47.402693 31190 net.cpp:411] rpn_cls_prob -> rpn_cls_prob
I0327 09:29:47.402745 31190 net.cpp:150] Setting up rpn_cls_prob
I0327 09:29:47.402751 31190 net.cpp:157] Top shape: 1 2 351 39 (27378)
I0327 09:29:47.402755 31190 net.cpp:165] Memory required for data: 168637592
I0327 09:29:47.402758 31190 layer_factory.hpp:77] Creating layer rpn_cls_prob_reshape
I0327 09:29:47.402771 31190 net.cpp:106] Creating Layer rpn_cls_prob_reshape
I0327 09:29:47.402776 31190 net.cpp:454] rpn_cls_prob_reshape <- rpn_cls_prob
I0327 09:29:47.402781 31190 net.cpp:411] rpn_cls_prob_reshape -> rpn_cls_prob_reshape
I0327 09:29:47.402804 31190 net.cpp:150] Setting up rpn_cls_prob_reshape
I0327 09:29:47.402811 31190 net.cpp:157] Top shape: 1 18 39 39 (27378)
I0327 09:29:47.402813 31190 net.cpp:165] Memory required for data: 168747104
I0327 09:29:47.402817 31190 layer_factory.hpp:77] Creating layer proposal
I0327 09:29:47.466346 31190 net.cpp:106] Creating Layer proposal
I0327 09:29:47.466362 31190 net.cpp:454] proposal <- rpn_cls_prob_reshape
I0327 09:29:47.466369 31190 net.cpp:454] proposal <- rpn_bbox_pred_rpn_bbox_pred_0_split_1
I0327 09:29:47.466375 31190 net.cpp:454] proposal <- im_info_input-data_1_split_1
I0327 09:29:47.466382 31190 net.cpp:411] proposal -> rpn_rois
I0327 09:29:47.480717 31190 net.cpp:150] Setting up proposal
I0327 09:29:47.480746 31190 net.cpp:157] Top shape: 1 5 (5)
I0327 09:29:47.480751 31190 net.cpp:165] Memory required for data: 168747124
I0327 09:29:47.480756 31190 layer_factory.hpp:77] Creating layer roi-data
I0327 09:29:47.488055 31190 net.cpp:106] Creating Layer roi-data
I0327 09:29:47.488067 31190 net.cpp:454] roi-data <- rpn_rois
I0327 09:29:47.488086 31190 net.cpp:454] roi-data <- gt_boxes_input-data_2_split_1
I0327 09:29:47.488093 31190 net.cpp:411] roi-data -> rois
I0327 09:29:47.488101 31190 net.cpp:411] roi-data -> labels
I0327 09:29:47.488108 31190 net.cpp:411] roi-data -> bbox_targets
I0327 09:29:47.488114 31190 net.cpp:411] roi-data -> bbox_inside_weights
I0327 09:29:47.488121 31190 net.cpp:411] roi-data -> bbox_outside_weights
I0327 09:29:47.488629 31190 net.cpp:150] Setting up roi-data
I0327 09:29:47.488641 31190 net.cpp:157] Top shape: 1 5 (5)
I0327 09:29:47.488646 31190 net.cpp:157] Top shape: 1 1 (1)
I0327 09:29:47.488651 31190 net.cpp:157] Top shape: 1 8 (8)
I0327 09:29:47.488654 31190 net.cpp:157] Top shape: 1 8 (8)
I0327 09:29:47.488658 31190 net.cpp:157] Top shape: 1 8 (8)
I0327 09:29:47.488662 31190 net.cpp:165] Memory required for data: 168747244
I0327 09:29:47.488665 31190 layer_factory.hpp:77] Creating layer roi_pool_conv5
I0327 09:29:47.488679 31190 net.cpp:106] Creating Layer roi_pool_conv5
I0327 09:29:47.488684 31190 net.cpp:454] roi_pool_conv5 <- conv5_relu5_0_split_1
I0327 09:29:47.488690 31190 net.cpp:454] roi_pool_conv5 <- rois
I0327 09:29:47.488696 31190 net.cpp:411] roi_pool_conv5 -> roi_pool_conv5
I0327 09:29:47.488706 31190 roi_pooling_layer.cpp:30] Spatial scale: 0.0625
I0327 09:29:47.488744 31190 net.cpp:150] Setting up roi_pool_conv5
I0327 09:29:47.488750 31190 net.cpp:157] Top shape: 1 256 6 6 (9216)
I0327 09:29:47.488754 31190 net.cpp:165] Memory required for data: 168784108
I0327 09:29:47.488757 31190 layer_factory.hpp:77] Creating layer fc6
I0327 09:29:47.488766 31190 net.cpp:106] Creating Layer fc6
I0327 09:29:47.488770 31190 net.cpp:454] fc6 <- roi_pool_conv5
I0327 09:29:47.488776 31190 net.cpp:411] fc6 -> fc6
I0327 09:29:47.586804 31190 net.cpp:150] Setting up fc6
I0327 09:29:47.586834 31190 net.cpp:157] Top shape: 1 4096 (4096)
I0327 09:29:47.586838 31190 net.cpp:165] Memory required for data: 168800492
I0327 09:29:47.586864 31190 layer_factory.hpp:77] Creating layer relu6
I0327 09:29:47.586876 31190 net.cpp:106] Creating Layer relu6
I0327 09:29:47.586881 31190 net.cpp:454] relu6 <- fc6
I0327 09:29:47.586889 31190 net.cpp:397] relu6 -> fc6 (in-place)
I0327 09:29:47.586899 31190 net.cpp:150] Setting up relu6
I0327 09:29:47.586902 31190 net.cpp:157] Top shape: 1 4096 (4096)
I0327 09:29:47.586906 31190 net.cpp:165] Memory required for data: 168816876
I0327 09:29:47.586908 31190 layer_factory.hpp:77] Creating layer drop6
I0327 09:29:47.586925 31190 net.cpp:106] Creating Layer drop6
I0327 09:29:47.586927 31190 net.cpp:454] drop6 <- fc6
I0327 09:29:47.586932 31190 net.cpp:397] drop6 -> fc6 (in-place)
I0327 09:29:47.586968 31190 net.cpp:150] Setting up drop6
I0327 09:29:47.586974 31190 net.cpp:157] Top shape: 1 4096 (4096)
I0327 09:29:47.586982 31190 net.cpp:165] Memory required for data: 168833260
I0327 09:29:47.586985 31190 layer_factory.hpp:77] Creating layer fc7
I0327 09:29:47.586993 31190 net.cpp:106] Creating Layer fc7
I0327 09:29:47.586997 31190 net.cpp:454] fc7 <- fc6
I0327 09:29:47.587002 31190 net.cpp:411] fc7 -> fc7
I0327 09:29:47.631325 31190 net.cpp:150] Setting up fc7
I0327 09:29:47.631356 31190 net.cpp:157] Top shape: 1 4096 (4096)
I0327 09:29:47.631366 31190 net.cpp:165] Memory required for data: 168849644
I0327 09:29:47.631374 31190 layer_factory.hpp:77] Creating layer relu7
I0327 09:29:47.631386 31190 net.cpp:106] Creating Layer relu7
I0327 09:29:47.631392 31190 net.cpp:454] relu7 <- fc7
I0327 09:29:47.631399 31190 net.cpp:397] relu7 -> fc7 (in-place)
I0327 09:29:47.631409 31190 net.cpp:150] Setting up relu7
I0327 09:29:47.631414 31190 net.cpp:157] Top shape: 1 4096 (4096)
I0327 09:29:47.631417 31190 net.cpp:165] Memory required for data: 168866028
I0327 09:29:47.631422 31190 layer_factory.hpp:77] Creating layer drop7
I0327 09:29:47.631431 31190 net.cpp:106] Creating Layer drop7
I0327 09:29:47.631435 31190 net.cpp:454] drop7 <- fc7
I0327 09:29:47.631440 31190 net.cpp:397] drop7 -> fc7 (in-place)
I0327 09:29:47.631463 31190 net.cpp:150] Setting up drop7
I0327 09:29:47.631469 31190 net.cpp:157] Top shape: 1 4096 (4096)
I0327 09:29:47.631471 31190 net.cpp:165] Memory required for data: 168882412
I0327 09:29:47.631474 31190 layer_factory.hpp:77] Creating layer fc7_drop7_0_split
I0327 09:29:47.631481 31190 net.cpp:106] Creating Layer fc7_drop7_0_split
I0327 09:29:47.631489 31190 net.cpp:454] fc7_drop7_0_split <- fc7
I0327 09:29:47.631492 31190 net.cpp:411] fc7_drop7_0_split -> fc7_drop7_0_split_0
I0327 09:29:47.631500 31190 net.cpp:411] fc7_drop7_0_split -> fc7_drop7_0_split_1
I0327 09:29:47.631534 31190 net.cpp:150] Setting up fc7_drop7_0_split
I0327 09:29:47.631539 31190 net.cpp:157] Top shape: 1 4096 (4096)
I0327 09:29:47.631543 31190 net.cpp:157] Top shape: 1 4096 (4096)
I0327 09:29:47.631546 31190 net.cpp:165] Memory required for data: 168915180
I0327 09:29:47.631551 31190 layer_factory.hpp:77] Creating layer cls_score
I0327 09:29:47.631557 31190 net.cpp:106] Creating Layer cls_score
I0327 09:29:47.631561 31190 net.cpp:454] cls_score <- fc7_drop7_0_split_0
I0327 09:29:47.631568 31190 net.cpp:411] cls_score -> cls_score
I0327 09:29:47.631794 31190 net.cpp:150] Setting up cls_score
I0327 09:29:47.631803 31190 net.cpp:157] Top shape: 1 2 (2)
I0327 09:29:47.631808 31190 net.cpp:165] Memory required for data: 168915188
I0327 09:29:47.631819 31190 layer_factory.hpp:77] Creating layer bbox_pred
I0327 09:29:47.631826 31190 net.cpp:106] Creating Layer bbox_pred
I0327 09:29:47.631831 31190 net.cpp:454] bbox_pred <- fc7_drop7_0_split_1
I0327 09:29:47.631845 31190 net.cpp:411] bbox_pred -> bbox_pred
I0327 09:29:47.632484 31190 net.cpp:150] Setting up bbox_pred
I0327 09:29:47.632493 31190 net.cpp:157] Top shape: 1 8 (8)
I0327 09:29:47.632498 31190 net.cpp:165] Memory required for data: 168915220
I0327 09:29:47.632508 31190 layer_factory.hpp:77] Creating layer loss_cls
I0327 09:29:47.632517 31190 net.cpp:106] Creating Layer loss_cls
I0327 09:29:47.632522 31190 net.cpp:454] loss_cls <- cls_score
I0327 09:29:47.632529 31190 net.cpp:454] loss_cls <- labels
I0327 09:29:47.632537 31190 net.cpp:411] loss_cls -> cls_loss
…
           'USE_FLIPPED': True,
           'USE_PREFETCH': False},
 'USE_GPU_NMS': False}
../../tools/test_net.py:80: RuntimeWarning: to-Python converter for boost::shared_ptr<caffe::Blob<float> > already registered; second conversion method ignored.
  caffe.set_mode_gpu()
WARNING: Logging before InitGoogleLogging() is written to STDERR
I0327 09:29:56.539465 31230 net.cpp:49] Initializing net from parameters: 
name: "ZF"
input: "data"
input: "im_info"
state {
  phase: TEST
}
input_shape {
  dim: 1
  dim: 3
  dim: 224
  dim: 224
}
input_shape {
  dim: 1
  dim: 3
}
layer {
  name: "conv1"
  type: "Convolution"
  bottom: "data"
  top: "conv1"
  convolution_param {
    num_output: 96
    pad: 3
    kernel_size: 7
    stride: 2
  }
}
layer {
  name: "relu1"
  type: "ReLU"
  bottom: "conv1"
  top: "conv1"
}
layer {
  name: "norm1"
  type: "LRN"
  bottom: "conv1"
  top: "norm1"
  lrn_param {
    local_size: 3
    alpha: 5e-05
    beta: 0.75
    norm_region: WITHIN_CHANNEL
    engine: CAFFE
  }
}
layer {
  name: "pool1"
  type: "Pooling"
  bottom: "norm1"
  top: "pool1"
  pooling_param {
    pool: MAX
    kernel_size: 3
    stride: 2
    pad: 1
  }
}
layer {
  name: "conv2"
  type: "Convolution"
  bottom: "pool1"
  top: "conv2"
  convolution_param {
    num_output: 256
    pad: 2
    kernel_size: 5
    stride: 2
  }
}
layer {
  name: "relu2"
  type: "ReLU"
  bottom: "conv2"
  top: "conv2"
}
layer {
  name: "norm2"
  type: "LRN"
  bottom: "conv2"
  top: "norm2"
  lrn_param {
    local_size: 3
    alpha: 5e-05
    beta: 0.75
    norm_region: WITHIN_CHANNEL
    engine: CAFFE
  }
}
layer {
  name: "pool2"
  type: "Pooling"
  bottom: "norm2"
  top: "pool2"
  pooling_param {
    pool: MAX
    kernel_size: 3
    stride: 2
    pad: 1
  }
}
layer {
  name: "conv3"
  type: "Convolution"
  bottom: "pool2"
  top: "conv3"
  convolution_param {
    num_output: 384
    pad: 1
    kernel_size: 3
    stride: 1
  }
}
layer {
  name: "relu3"
  type: "ReLU"
  bottom: "conv3"
  top: "conv3"
}
layer {
  name: "conv4"
  type: "Convolution"
  bottom: "conv3"
  top: "conv4"
  convolution_param {
    num_output: 384
    pad: 1
    kernel_size: 3
    stride: 1
  }
}
layer {
  name: "relu4"
  type: "ReLU"
  bottom: "conv4"
  top: "conv4"
}
layer {
  name: "conv5"
  type: "Convolution"
  bottom: "conv4"
  top: "conv5"
  convolution_param {
    num_output: 256
    pad: 1
    kernel_size: 3
    stride: 1
  }
}
layer {
  name: "relu5"
  type: "ReLU"
  bottom: "conv5"
  top: "conv5"
}
layer {
  name: "rpn_conv/3x3"
  type: "Convolution"
  bottom: "conv5"
  top: "rpn/output"
  convolution_param {
    num_output: 256
    pad: 1
    kernel_size: 3
    stride: 1
    weight_filler {
      type: "gaussian"
      std: 0.01
    }
    bias_filler {
      type: "constant"
      value: 0
    }
  }
}
layer {
  name: "rpn_relu/3x3"
  type: "ReLU"
  bottom: "rpn/output"
  top: "rpn/output"
}
layer {
  name: "rpn_cls_score"
  type: "Convolution"
  bottom: "rpn/output"
  top: "rpn_cls_score"
  convolution_param {
    num_output: 18
    pad: 0
    kernel_size: 1
    stride: 1
    weight_filler {
      type: "gaussian"
      std: 0.01
    }
    bias_filler {
      type: "constant"
      value: 0
    }
  }
}
layer {
  name: "rpn_bbox_pred"
  type: "Convolution"
  bottom: "rpn/output"
  top: "rpn_bbox_pred"
  convolution_param {
    num_output: 36
    pad: 0
    kernel_size: 1
    stride: 1
    weight_filler {
      type: "gaussian"
      std: 0.01
    }
    bias_filler {
      type: "constant"
      value: 0
    }
  }
}
layer {
  name: "rpn_cls_score_reshape"
  type: "Reshape"
  bottom: "rpn_cls_score"
  top: "rpn_cls_score_reshape"
  reshape_param {
    shape {
      dim: 0
      dim: 2
      dim: -1
      dim: 0
    }
  }
}
layer {
  name: "rpn_cls_prob"
  type: "Softmax"
  bottom: "rpn_cls_score_reshape"
  top: "rpn_cls_prob"
}
layer {
  name: "rpn_cls_prob_reshape"
  type: "Reshape"
  bottom: "rpn_cls_prob"
  top: "rpn_cls_prob_reshape"
  reshape_param {
    shape {
      dim: 0
      dim: 18
      dim: -1
      dim: 0
    }
  }
}
layer {
  name: "proposal"
  type: "Python"
  bottom: "rpn_cls_prob_reshape"
  bottom: "rpn_bbox_pred"
  bottom: "im_info"
  top: "rois"
  python_param {
    module: "rpn.proposal_layer"
    layer: "ProposalLayer"
    param_str: "\'feat_stride\': 16"
  }
}
layer {
  name: "roi_pool_conv5"
  type: "ROIPooling"
  bottom: "conv5"
  bottom: "rois"
  top: "roi_pool_conv5"
  roi_pooling_param {
    pooled_h: 6
    pooled_w: 6
    spatial_scale: 0.0625
  }
}
layer {
  name: "fc6"
  type: "InnerProduct"
  bottom: "roi_pool_conv5"
  top: "fc6"
  inner_product_param {
    num_output: 4096
  }
}
layer {
  name: "relu6"
  type: "ReLU"
  bottom: "fc6"
  top: "fc6"
}
layer {
  name: "drop6"
  type: "Dropout"
  bottom: "fc6"
  top: "fc6"
  dropout_param {
    dropout_ratio: 0.5
    scale_train: false
  }
}
layer {
  name: "fc7"
  type: "InnerProduct"
  bottom: "fc6"
  top: "fc7"
  inner_product_param {
    num_output: 4096
  }
}
layer {
  name: "relu7"
  type: "ReLU"
  bottom: "fc7"
  top: "fc7"
}
layer {
  name: "drop7"
  type: "Dropout"
  bottom: "fc7"
  top: "fc7"
  dropout_param {
    dropout_ratio: 0.5
    scale_train: false
  }
}
layer {
  name: "cls_score"
  type: "InnerProduct"
  bottom: "fc7"
  top: "cls_score"
  inner_product_param {
    num_output: 2
  }
}
layer {
  name: "bbox_pred"
  type: "InnerProduct"
  bottom: "fc7"
  top: "bbox_pred"
  inner_product_param {
    num_output: 8
  }
}
layer {
  name: "cls_prob"
  type: "Softmax"
  bottom: "cls_score"
  top: "cls_prob"
  loss_param {
    ignore_label: -1
    normalize: true
  }
}
I0327 09:29:56.539638 31230 net.cpp:413] Input 0 -> data
I0327 09:29:56.564615 31230 net.cpp:413] Input 1 -> im_info
I0327 09:29:56.564677 31230 layer_factory.hpp:77] Creating layer conv1
I0327 09:29:56.564704 31230 net.cpp:106] Creating Layer conv1
I0327 09:29:56.564709 31230 net.cpp:454] conv1 <- data
I0327 09:29:56.564715 31230 net.cpp:411] conv1 -> conv1
I0327 09:29:56.565603 31230 net.cpp:150] Setting up conv1
I0327 09:29:56.565618 31230 net.cpp:157] Top shape: 1 96 112 112 (1204224)
I0327 09:29:56.565623 31230 net.cpp:165] Memory required for data: 4816896
I0327 09:29:56.565636 31230 layer_factory.hpp:77] Creating layer relu1
I0327 09:29:56.565649 31230 net.cpp:106] Creating Layer relu1
I0327 09:29:56.565654 31230 net.cpp:454] relu1 <- conv1
I0327 09:29:56.565659 31230 net.cpp:397] relu1 -> conv1 (in-place)
I0327 09:29:56.565667 31230 net.cpp:150] Setting up relu1
I0327 09:29:56.565672 31230 net.cpp:157] Top shape: 1 96 112 112 (1204224)
I0327 09:29:56.565676 31230 net.cpp:165] Memory required for data: 9633792
I0327 09:29:56.565680 31230 layer_factory.hpp:77] Creating layer norm1
I0327 09:29:56.565688 31230 net.cpp:106] Creating Layer norm1
I0327 09:29:56.565692 31230 net.cpp:454] norm1 <- conv1
I0327 09:29:56.565697 31230 net.cpp:411] norm1 -> norm1
I0327 09:29:56.565805 31230 net.cpp:150] Setting up norm1
I0327 09:29:56.565812 31230 net.cpp:157] Top shape: 1 96 112 112 (1204224)
I0327 09:29:56.565815 31230 net.cpp:165] Memory required for data: 14450688
I0327 09:29:56.565819 31230 layer_factory.hpp:77] Creating layer pool1
I0327 09:29:56.565825 31230 net.cpp:106] Creating Layer pool1
I0327 09:29:56.565829 31230 net.cpp:454] pool1 <- norm1
I0327 09:29:56.565836 31230 net.cpp:411] pool1 -> pool1
I0327 09:29:56.565870 31230 net.cpp:150] Setting up pool1
I0327 09:29:56.565876 31230 net.cpp:157] Top shape: 1 96 57 57 (311904)
I0327 09:29:56.565878 31230 net.cpp:165] Memory required for data: 15698304
I0327 09:29:56.565882 31230 layer_factory.hpp:77] Creating layer conv2
I0327 09:29:56.565891 31230 net.cpp:106] Creating Layer conv2
I0327 09:29:56.565896 31230 net.cpp:454] conv2 <- pool1
I0327 09:29:56.565901 31230 net.cpp:411] conv2 -> conv2
I0327 09:29:56.568470 31230 net.cpp:150] Setting up conv2
I0327 09:29:56.568482 31230 net.cpp:157] Top shape: 1 256 29 29 (215296)
I0327 09:29:56.568486 31230 net.cpp:165] Memory required for data: 16559488
I0327 09:29:56.568505 31230 layer_factory.hpp:77] Creating layer relu2
I0327 09:29:56.568513 31230 net.cpp:106] Creating Layer relu2
I0327 09:29:56.568517 31230 net.cpp:454] relu2 <- conv2
I0327 09:29:56.568523 31230 net.cpp:397] relu2 -> conv2 (in-place)
I0327 09:29:56.568532 31230 net.cpp:150] Setting up relu2
I0327 09:29:56.568537 31230 net.cpp:157] Top shape: 1 256 29 29 (215296)
I0327 09:29:56.568541 31230 net.cpp:165] Memory required for data: 17420672
I0327 09:29:56.568544 31230 layer_factory.hpp:77] Creating layer norm2
I0327 09:29:56.568550 31230 net.cpp:106] Creating Layer norm2
I0327 09:29:56.568553 31230 net.cpp:454] norm2 <- conv2
I0327 09:29:56.568558 31230 net.cpp:411] norm2 -> norm2
I0327 09:29:56.568650 31230 net.cpp:150] Setting up norm2
I0327 09:29:56.568656 31230 net.cpp:157] Top shape: 1 256 29 29 (215296)
I0327 09:29:56.568660 31230 net.cpp:165] Memory required for data: 18281856
I0327 09:29:56.568663 31230 layer_factory.hpp:77] Creating layer pool2
I0327 09:29:56.568670 31230 net.cpp:106] Creating Layer pool2
I0327 09:29:56.568675 31230 net.cpp:454] pool2 <- norm2
I0327 09:29:56.568680 31230 net.cpp:411] pool2 -> pool2
I0327 09:29:56.568711 31230 net.cpp:150] Setting up pool2
I0327 09:29:56.568717 31230 net.cpp:157] Top shape: 1 256 15 15 (57600)
I0327 09:29:56.568720 31230 net.cpp:165] Memory required for data: 18512256
I0327 09:29:56.568723 31230 layer_factory.hpp:77] Creating layer conv3
I0327 09:29:56.568732 31230 net.cpp:106] Creating Layer conv3
I0327 09:29:56.568734 31230 net.cpp:454] conv3 <- pool2
I0327 09:29:56.568739 31230 net.cpp:411] conv3 -> conv3
I0327 09:29:56.571271 31230 net.cpp:150] Setting up conv3
I0327 09:29:56.571283 31230 net.cpp:157] Top shape: 1 384 15 15 (86400)
I0327 09:29:56.571287 31230 net.cpp:165] Memory required for data: 18857856
I0327 09:29:56.571302 31230 layer_factory.hpp:77] Creating layer relu3
I0327 09:29:56.571311 31230 net.cpp:106] Creating Layer relu3
I0327 09:29:56.571316 31230 net.cpp:454] relu3 <- conv3
I0327 09:29:56.571321 31230 net.cpp:397] relu3 -> conv3 (in-place)
I0327 09:29:56.571328 31230 net.cpp:150] Setting up relu3
I0327 09:29:56.571333 31230 net.cpp:157] Top shape: 1 384 15 15 (86400)
I0327 09:29:56.571336 31230 net.cpp:165] Memory required for data: 19203456
I0327 09:29:56.571341 31230 layer_factory.hpp:77] Creating layer conv4
I0327 09:29:56.571349 31230 net.cpp:106] Creating Layer conv4
I0327 09:29:56.571352 31230 net.cpp:454] conv4 <- conv3
I0327 09:29:56.571357 31230 net.cpp:411] conv4 -> conv4
I0327 09:29:56.575083 31230 net.cpp:150] Setting up conv4
I0327 09:29:56.575095 31230 net.cpp:157] Top shape: 1 384 15 15 (86400)
I0327 09:29:56.575098 31230 net.cpp:165] Memory required for data: 19549056
I0327 09:29:56.575105 31230 layer_factory.hpp:77] Creating layer relu4
I0327 09:29:56.575117 31230 net.cpp:106] Creating Layer relu4
I0327 09:29:56.575121 31230 net.cpp:454] relu4 <- conv4
I0327 09:29:56.575126 31230 net.cpp:397] relu4 -> conv4 (in-place)
I0327 09:29:56.575134 31230 net.cpp:150] Setting up relu4
I0327 09:29:56.575139 31230 net.cpp:157] Top shape: 1 384 15 15 (86400)
I0327 09:29:56.575142 31230 net.cpp:165] Memory required for data: 19894656
I0327 09:29:56.575145 31230 layer_factory.hpp:77] Creating layer conv5
I0327 09:29:56.575155 31230 net.cpp:106] Creating Layer conv5
I0327 09:29:56.575158 31230 net.cpp:454] conv5 <- conv4
I0327 09:29:56.575165 31230 net.cpp:411] conv5 -> conv5
I0327 09:29:56.577678 31230 net.cpp:150] Setting up conv5
I0327 09:29:56.577689 31230 net.cpp:157] Top shape: 1 256 15 15 (57600)
I0327 09:29:56.577693 31230 net.cpp:165] Memory required for data: 20125056
I0327 09:29:56.577706 31230 layer_factory.hpp:77] Creating layer relu5
I0327 09:29:56.577713 31230 net.cpp:106] Creating Layer relu5
I0327 09:29:56.577716 31230 net.cpp:454] relu5 <- conv5
I0327 09:29:56.577723 31230 net.cpp:397] relu5 -> conv5 (in-place)
I0327 09:29:56.577729 31230 net.cpp:150] Setting up relu5
I0327 09:29:56.577734 31230 net.cpp:157] Top shape: 1 256 15 15 (57600)
I0327 09:29:56.577738 31230 net.cpp:165] Memory required for data: 20355456
I0327 09:29:56.577740 31230 layer_factory.hpp:77] Creating layer conv5_relu5_0_split
I0327 09:29:56.577750 31230 net.cpp:106] Creating Layer conv5_relu5_0_split
I0327 09:29:56.577754 31230 net.cpp:454] conv5_relu5_0_split <- conv5
I0327 09:29:56.577762 31230 net.cpp:411] conv5_relu5_0_split -> conv5_relu5_0_split_0
I0327 09:29:56.577769 31230 net.cpp:411] conv5_relu5_0_split -> conv5_relu5_0_split_1
I0327 09:29:56.577806 31230 net.cpp:150] Setting up conv5_relu5_0_split
I0327 09:29:56.577811 31230 net.cpp:157] Top shape: 1 256 15 15 (57600)
I0327 09:29:56.577818 31230 net.cpp:157] Top shape: 1 256 15 15 (57600)
I0327 09:29:56.577821 31230 net.cpp:165] Memory required for data: 20816256
I0327 09:29:56.577826 31230 layer_factory.hpp:77] Creating layer rpn_conv/3x3
I0327 09:29:56.577836 31230 net.cpp:106] Creating Layer rpn_conv/3x3
I0327 09:29:56.577841 31230 net.cpp:454] rpn_conv/3x3 <- conv5_relu5_0_split_0
I0327 09:29:56.577847 31230 net.cpp:411] rpn_conv/3x3 -> rpn/output
I0327 09:29:56.589948 31230 net.cpp:150] Setting up rpn_conv/3x3
I0327 09:29:56.589967 31230 net.cpp:157] Top shape: 1 256 15 15 (57600)
I0327 09:29:56.589972 31230 net.cpp:165] Memory required for data: 21046656
I0327 09:29:56.589979 31230 layer_factory.hpp:77] Creating layer rpn_relu/3x3
I0327 09:29:56.589992 31230 net.cpp:106] Creating Layer rpn_relu/3x3
I0327 09:29:56.589995 31230 net.cpp:454] rpn_relu/3x3 <- rpn/output
I0327 09:29:56.590000 31230 net.cpp:397] rpn_relu/3x3 -> rpn/output (in-place)
I0327 09:29:56.590008 31230 net.cpp:150] Setting up rpn_relu/3x3
I0327 09:29:56.590013 31230 net.cpp:157] Top shape: 1 256 15 15 (57600)
I0327 09:29:56.590016 31230 net.cpp:165] Memory required for data: 21277056
I0327 09:29:56.590020 31230 layer_factory.hpp:77] Creating layer rpn/output_rpn_relu/3x3_0_split
I0327 09:29:56.590025 31230 net.cpp:106] Creating Layer rpn/output_rpn_relu/3x3_0_split
I0327 09:29:56.590029 31230 net.cpp:454] rpn/output_rpn_relu/3x3_0_split <- rpn/output
I0327 09:29:56.590034 31230 net.cpp:411] rpn/output_rpn_relu/3x3_0_split -> rpn/output_rpn_relu/3x3_0_split_0
I0327 09:29:56.590041 31230 net.cpp:411] rpn/output_rpn_relu/3x3_0_split -> rpn/output_rpn_relu/3x3_0_split_1
I0327 09:29:56.590077 31230 net.cpp:150] Setting up rpn/output_rpn_relu/3x3_0_split
I0327 09:29:56.590083 31230 net.cpp:157] Top shape: 1 256 15 15 (57600)
I0327 09:29:56.590087 31230 net.cpp:157] Top shape: 1 256 15 15 (57600)
I0327 09:29:56.590090 31230 net.cpp:165] Memory required for data: 21737856
I0327 09:29:56.590093 31230 layer_factory.hpp:77] Creating layer rpn_cls_score
I0327 09:29:56.590104 31230 net.cpp:106] Creating Layer rpn_cls_score
I0327 09:29:56.590109 31230 net.cpp:454] rpn_cls_score <- rpn/output_rpn_relu/3x3_0_split_0
I0327 09:29:56.590126 31230 net.cpp:411] rpn_cls_score -> rpn_cls_score
I0327 09:29:56.590423 31230 net.cpp:150] Setting up rpn_cls_score
I0327 09:29:56.590435 31230 net.cpp:157] Top shape: 1 18 15 15 (4050)
I0327 09:29:56.590438 31230 net.cpp:165] Memory required for data: 21754056
I0327 09:29:56.590445 31230 layer_factory.hpp:77] Creating layer rpn_bbox_pred
I0327 09:29:56.590454 31230 net.cpp:106] Creating Layer rpn_bbox_pred
I0327 09:29:56.590459 31230 net.cpp:454] rpn_bbox_pred <- rpn/output_rpn_relu/3x3_0_split_1
I0327 09:29:56.590464 31230 net.cpp:411] rpn_bbox_pred -> rpn_bbox_pred
I0327 09:29:56.590838 31230 net.cpp:150] Setting up rpn_bbox_pred
I0327 09:29:56.590847 31230 net.cpp:157] Top shape: 1 36 15 15 (8100)
I0327 09:29:56.590849 31230 net.cpp:165] Memory required for data: 21786456
I0327 09:29:56.590857 31230 layer_factory.hpp:77] Creating layer rpn_cls_score_reshape
I0327 09:29:56.590869 31230 net.cpp:106] Creating Layer rpn_cls_score_reshape
I0327 09:29:56.590873 31230 net.cpp:454] rpn_cls_score_reshape <- rpn_cls_score
I0327 09:29:56.590878 31230 net.cpp:411] rpn_cls_score_reshape -> rpn_cls_score_reshape
I0327 09:29:56.590909 31230 net.cpp:150] Setting up rpn_cls_score_reshape
I0327 09:29:56.590915 31230 net.cpp:157] Top shape: 1 2 135 15 (4050)
I0327 09:29:56.590919 31230 net.cpp:165] Memory required for data: 21802656
I0327 09:29:56.590922 31230 layer_factory.hpp:77] Creating layer rpn_cls_prob
I0327 09:29:56.590929 31230 net.cpp:106] Creating Layer rpn_cls_prob
I0327 09:29:56.590932 31230 net.cpp:454] rpn_cls_prob <- rpn_cls_score_reshape
I0327 09:29:56.590939 31230 net.cpp:411] rpn_cls_prob -> rpn_cls_prob
I0327 09:29:56.590994 31230 net.cpp:150] Setting up rpn_cls_prob
I0327 09:29:56.591001 31230 net.cpp:157] Top shape: 1 2 135 15 (4050)
I0327 09:29:56.591003 31230 net.cpp:165] Memory required for data: 21818856
I0327 09:29:56.591007 31230 layer_factory.hpp:77] Creating layer rpn_cls_prob_reshape
I0327 09:29:56.591012 31230 net.cpp:106] Creating Layer rpn_cls_prob_reshape
I0327 09:29:56.591017 31230 net.cpp:454] rpn_cls_prob_reshape <- rpn_cls_prob
I0327 09:29:56.591023 31230 net.cpp:411] rpn_cls_prob_reshape -> rpn_cls_prob_reshape
I0327 09:29:56.591042 31230 net.cpp:150] Setting up rpn_cls_prob_reshape
I0327 09:29:56.591048 31230 net.cpp:157] Top shape: 1 18 15 15 (4050)
I0327 09:29:56.591050 31230 net.cpp:165] Memory required for data: 21835056
I0327 09:29:56.591054 31230 layer_factory.hpp:77] Creating layer proposal
I0327 09:29:56.594125 31230 net.cpp:106] Creating Layer proposal
I0327 09:29:56.594146 31230 net.cpp:454] proposal <- rpn_cls_prob_reshape
I0327 09:29:56.594154 31230 net.cpp:454] proposal <- rpn_bbox_pred
I0327 09:29:56.594161 31230 net.cpp:454] proposal <- im_info
I0327 09:29:56.594179 31230 net.cpp:411] proposal -> rois
I0327 09:29:56.595414 31230 net.cpp:150] Setting up proposal
I0327 09:29:56.595437 31230 net.cpp:157] Top shape: 1 5 (5)
I0327 09:29:56.595443 31230 net.cpp:165] Memory required for data: 21835076
I0327 09:29:56.595451 31230 layer_factory.hpp:77] Creating layer roi_pool_conv5
I0327 09:29:56.595469 31230 net.cpp:106] Creating Layer roi_pool_conv5
I0327 09:29:56.595479 31230 net.cpp:454] roi_pool_conv5 <- conv5_relu5_0_split_1
I0327 09:29:56.595487 31230 net.cpp:454] roi_pool_conv5 <- rois
I0327 09:29:56.595497 31230 net.cpp:411] roi_pool_conv5 -> roi_pool_conv5
I0327 09:29:56.595515 31230 roi_pooling_layer.cpp:30] Spatial scale: 0.0625
I0327 09:29:56.595578 31230 net.cpp:150] Setting up roi_pool_conv5
I0327 09:29:56.595587 31230 net.cpp:157] Top shape: 1 256 6 6 (9216)
I0327 09:29:56.595593 31230 net.cpp:165] Memory required for data: 21871940
I0327 09:29:56.595599 31230 layer_factory.hpp:77] Creating layer fc6
I0327 09:29:56.595613 31230 net.cpp:106] Creating Layer fc6
I0327 09:29:56.595621 31230 net.cpp:454] fc6 <- roi_pool_conv5
I0327 09:29:56.595631 31230 net.cpp:411] fc6 -> fc6
I0327 09:29:56.698557 31230 net.cpp:150] Setting up fc6
I0327 09:29:56.698588 31230 net.cpp:157] Top shape: 1 4096 (4096)
I0327 09:29:56.698592 31230 net.cpp:165] Memory required for data: 21888324
I0327 09:29:56.698621 31230 layer_factory.hpp:77] Creating layer relu6
I0327 09:29:56.698638 31230 net.cpp:106] Creating Layer relu6
I0327 09:29:56.698647 31230 net.cpp:454] relu6 <- fc6
I0327 09:29:56.698657 31230 net.cpp:397] relu6 -> fc6 (in-place)
I0327 09:29:56.698670 31230 net.cpp:150] Setting up relu6
I0327 09:29:56.698679 31230 net.cpp:157] Top shape: 1 4096 (4096)
I0327 09:29:56.698685 31230 net.cpp:165] Memory required for data: 21904708
I0327 09:29:56.698691 31230 layer_factory.hpp:77] Creating layer drop6
I0327 09:29:56.698709 31230 net.cpp:106] Creating Layer drop6
I0327 09:29:56.698714 31230 net.cpp:454] drop6 <- fc6
I0327 09:29:56.698726 31230 net.cpp:397] drop6 -> fc6 (in-place)
I0327 09:29:56.698767 31230 net.cpp:150] Setting up drop6
I0327 09:29:56.698776 31230 net.cpp:157] Top shape: 1 4096 (4096)
I0327 09:29:56.698781 31230 net.cpp:165] Memory required for data: 21921092
I0327 09:29:56.698787 31230 layer_factory.hpp:77] Creating layer fc7
I0327 09:29:56.698799 31230 net.cpp:106] Creating Layer fc7
I0327 09:29:56.698806 31230 net.cpp:454] fc7 <- fc6
I0327 09:29:56.698815 31230 net.cpp:411] fc7 -> fc7
I0327 09:29:56.744702 31230 net.cpp:150] Setting up fc7
I0327 09:29:56.744735 31230 net.cpp:157] Top shape: 1 4096 (4096)
I0327 09:29:56.744738 31230 net.cpp:165] Memory required for data: 21937476
I0327 09:29:56.744751 31230 layer_factory.hpp:77] Creating layer relu7
I0327 09:29:56.744767 31230 net.cpp:106] Creating Layer relu7
I0327 09:29:56.744776 31230 net.cpp:454] relu7 <- fc7
I0327 09:29:56.744786 31230 net.cpp:397] relu7 -> fc7 (in-place)
I0327 09:29:56.744802 31230 net.cpp:150] Setting up relu7
I0327 09:29:56.744809 31230 net.cpp:157] Top shape: 1 4096 (4096)
I0327 09:29:56.744814 31230 net.cpp:165] Memory required for data: 21953860
I0327 09:29:56.744820 31230 layer_factory.hpp:77] Creating layer drop7
I0327 09:29:56.744832 31230 net.cpp:106] Creating Layer drop7
I0327 09:29:56.744838 31230 net.cpp:454] drop7 <- fc7
I0327 09:29:56.744848 31230 net.cpp:397] drop7 -> fc7 (in-place)
I0327 09:29:56.744885 31230 net.cpp:150] Setting up drop7
I0327 09:29:56.744892 31230 net.cpp:157] Top shape: 1 4096 (4096)
I0327 09:29:56.744896 31230 net.cpp:165] Memory required for data: 21970244
I0327 09:29:56.744904 31230 layer_factory.hpp:77] Creating layer fc7_drop7_0_split
I0327 09:29:56.744916 31230 net.cpp:106] Creating Layer fc7_drop7_0_split
I0327 09:29:56.744923 31230 net.cpp:454] fc7_drop7_0_split <- fc7
I0327 09:29:56.744933 31230 net.cpp:411] fc7_drop7_0_split -> fc7_drop7_0_split_0
I0327 09:29:56.744946 31230 net.cpp:411] fc7_drop7_0_split -> fc7_drop7_0_split_1
I0327 09:29:56.744992 31230 net.cpp:150] Setting up fc7_drop7_0_split
I0327 09:29:56.744999 31230 net.cpp:157] Top shape: 1 4096 (4096)
I0327 09:29:56.745007 31230 net.cpp:157] Top shape: 1 4096 (4096)
I0327 09:29:56.745013 31230 net.cpp:165] Memory required for data: 22003012
I0327 09:29:56.745020 31230 layer_factory.hpp:77] Creating layer cls_score
I0327 09:29:56.745038 31230 net.cpp:106] Creating Layer cls_score
I0327 09:29:56.745046 31230 net.cpp:454] cls_score <- fc7_drop7_0_split_0
I0327 09:29:56.745059 31230 net.cpp:411] cls_score -> cls_score
I0327 09:29:56.745173 31230 net.cpp:150] Setting up cls_score
I0327 09:29:56.745182 31230 net.cpp:157] Top shape: 1 2 (2)
I0327 09:29:56.745187 31230 net.cpp:165] Memory required for data: 22003020
I0327 09:29:56.745198 31230 layer_factory.hpp:77] Creating layer bbox_pred
I0327 09:29:56.745215 31230 net.cpp:106] Creating Layer bbox_pred
I0327 09:29:56.745223 31230 net.cpp:454] bbox_pred <- fc7_drop7_0_split_1
I0327 09:29:56.745235 31230 net.cpp:411] bbox_pred -> bbox_pred
I0327 09:29:56.746119 31230 net.cpp:150] Setting up bbox_pred
I0327 09:29:56.746130 31230 net.cpp:157] Top shape: 1 8 (8)
I0327 09:29:56.746137 31230 net.cpp:165] Memory required for data: 22003052
I0327 09:29:56.746150 31230 layer_factory.hpp:77] Creating layer cls_prob
I0327 09:29:56.746162 31230 net.cpp:106] Creating Layer cls_prob
I0327 09:29:56.746170 31230 net.cpp:454] cls_prob <- cls_score
I0327 09:29:56.746182 31230 net.cpp:411] cls_prob -> cls_prob
I0327 09:29:56.746251 31230 net.cpp:150] Setting up cls_prob
I0327 09:29:56.746258 31230 net.cpp:157] Top shape: 1 2 (2)
I0327 09:29:56.746264 31230 net.cpp:165] Memory required for data: 22003060
I0327 09:29:56.746271 31230 net.cpp:228] cls_prob does not need backward computation.
I0327 09:29:56.746279 31230 net.cpp:228] bbox_pred does not need backward computation.
I0327 09:29:56.746284 31230 net.cpp:228] cls_score does not need backward computation.
I0327 09:29:56.746291 31230 net.cpp:228] fc7_drop7_0_split does not need backward computation.
…
