…
snapshot_prefix: "zf_faster_rcnn"
average_loss: 100
iter_size: 2
I0327 14:59:09.317471 22319 solver.cpp:81] Creating training net from train_net file: /home/sgabriel/py-faster-rcnn/models/pascal_voc/ZF/faster_rcnn_end2end/train.prototxt
I0327 14:59:09.320174 22319 net.cpp:49] Initializing net from parameters: 
name: "ZF"
state {
  phase: TRAIN
}
layer {
  name: "input-data"
  type: "Python"
  top: "data"
  top: "im_info"
  top: "gt_boxes"
  python_param {
    module: "roi_data_layer.layer"
    layer: "RoIDataLayer"
    param_str: "\'num_classes\': 2"
  }
}
layer {
  name: "conv1"
  type: "Convolution"
  bottom: "data"
  top: "conv1"
  param {
    lr_mult: 0
  }
  param {
    lr_mult: 0
  }
  convolution_param {
    num_output: 96
    pad: 3
    kernel_size: 7
    stride: 2
  }
}
layer {
  name: "relu1"
  type: "ReLU"
  bottom: "conv1"
  top: "conv1"
}
layer {
  name: "norm1"
  type: "LRN"
  bottom: "conv1"
  top: "norm1"
  lrn_param {
    local_size: 3
    alpha: 5e-05
    beta: 0.75
    norm_region: WITHIN_CHANNEL
    engine: CAFFE
  }
}
layer {
  name: "pool1"
  type: "Pooling"
  bottom: "norm1"
  top: "pool1"
  pooling_param {
    pool: MAX
    kernel_size: 3
    stride: 2
    pad: 1
  }
}
layer {
  name: "conv2"
  type: "Convolution"
  bottom: "pool1"
  top: "conv2"
  param {
    lr_mult: 0
  }
  param {
    lr_mult: 0
  }
  convolution_param {
    num_output: 256
    pad: 2
    kernel_size: 5
    stride: 2
  }
}
layer {
  name: "relu2"
  type: "ReLU"
  bottom: "conv2"
  top: "conv2"
}
layer {
  name: "norm2"
  type: "LRN"
  bottom: "conv2"
  top: "norm2"
  lrn_param {
    local_size: 3
    alpha: 5e-05
    beta: 0.75
    norm_region: WITHIN_CHANNEL
    engine: CAFFE
  }
}
layer {
  name: "pool2"
  type: "Pooling"
  bottom: "norm2"
  top: "pool2"
  pooling_param {
    pool: MAX
    kernel_size: 3
    stride: 2
    pad: 1
  }
}
layer {
  name: "conv3"
  type: "Convolution"
  bottom: "pool2"
  top: "conv3"
  param {
    lr_mult: 0
  }
  param {
    lr_mult: 0
  }
  convolution_param {
    num_output: 384
    pad: 1
    kernel_size: 3
    stride: 1
  }
}
layer {
  name: "relu3"
  type: "ReLU"
  bottom: "conv3"
  top: "conv3"
}
layer {
  name: "conv4"
  type: "Convolution"
  bottom: "conv3"
  top: "conv4"
  param {
    lr_mult: 0
  }
  param {
    lr_mult: 0
  }
  convolution_param {
    num_output: 384
    pad: 1
    kernel_size: 3
    stride: 1
  }
}
layer {
  name: "relu4"
  type: "ReLU"
  bottom: "conv4"
  top: "conv4"
}
layer {
  name: "conv5"
  type: "Convolution"
  bottom: "conv4"
  top: "conv5"
  param {
    lr_mult: 0
  }
  param {
    lr_mult: 0
  }
  convolution_param {
    num_output: 256
    pad: 1
    kernel_size: 3
    stride: 1
  }
}
layer {
  name: "relu5"
  type: "ReLU"
  bottom: "conv5"
  top: "conv5"
}
layer {
  name: "rpn_conv/3x3"
  type: "Convolution"
  bottom: "conv5"
  top: "rpn/output"
  param {
    lr_mult: 1
  }
  param {
    lr_mult: 2
  }
  convolution_param {
    num_output: 256
    pad: 1
    kernel_size: 3
    stride: 1
    weight_filler {
      type: "gaussian"
      std: 0.01
    }
    bias_filler {
      type: "constant"
      value: 0
    }
  }
}
layer {
  name: "rpn_relu/3x3"
  type: "ReLU"
  bottom: "rpn/output"
  top: "rpn/output"
}
layer {
  name: "rpn_cls_score"
  type: "Convolution"
  bottom: "rpn/output"
  top: "rpn_cls_score"
  param {
    lr_mult: 1
  }
  param {
    lr_mult: 2
  }
  convolution_param {
    num_output: 18
    pad: 0
    kernel_size: 1
    stride: 1
    weight_filler {
      type: "gaussian"
      std: 0.01
    }
    bias_filler {
      type: "constant"
      value: 0
    }
  }
}
layer {
  name: "rpn_bbox_pred"
  type: "Convolution"
  bottom: "rpn/output"
  top: "rpn_bbox_pred"
  param {
    lr_mult: 1
  }
  param {
    lr_mult: 2
  }
  convolution_param {
    num_output: 36
    pad: 0
    kernel_size: 1
    stride: 1
    weight_filler {
      type: "gaussian"
      std: 0.01
    }
    bias_filler {
      type: "constant"
      value: 0
    }
  }
}
layer {
  name: "rpn_cls_score_reshape"
  type: "Reshape"
  bottom: "rpn_cls_score"
  top: "rpn_cls_score_reshape"
  reshape_param {
    shape {
      dim: 0
      dim: 2
      dim: -1
      dim: 0
    }
  }
}
layer {
  name: "rpn-data"
  type: "Python"
  bottom: "rpn_cls_score"
  bottom: "gt_boxes"
  bottom: "im_info"
  bottom: "data"
  top: "rpn_labels"
  top: "rpn_bbox_targets"
  top: "rpn_bbox_inside_weights"
  top: "rpn_bbox_outside_weights"
  python_param {
    module: "rpn.anchor_target_layer"
    layer: "AnchorTargetLayer"
    param_str: "\'feat_stride\': 16"
  }
}
layer {
  name: "rpn_loss_cls"
  type: "SoftmaxWithLoss"
  bottom: "rpn_cls_score_reshape"
  bottom: "rpn_labels"
  top: "rpn_cls_loss"
  loss_weight: 1
  propagate_down: true
  propagate_down: false
  loss_param {
    ignore_label: -1
    normalize: true
  }
}
layer {
  name: "rpn_loss_bbox"
  type: "SmoothL1Loss"
  bottom: "rpn_bbox_pred"
  bottom: "rpn_bbox_targets"
  bottom: "rpn_bbox_inside_weights"
  bottom: "rpn_bbox_outside_weights"
  top: "rpn_loss_bbox"
  loss_weight: 1
  smooth_l1_loss_param {
    sigma: 3
  }
}
layer {
  name: "rpn_cls_prob"
  type: "Softmax"
  bottom: "rpn_cls_score_reshape"
  top: "rpn_cls_prob"
}
layer {
  name: "rpn_cls_prob_reshape"
  type: "Reshape"
  bottom: "rpn_cls_prob"
  top: "rpn_cls_prob_reshape"
  reshape_param {
    shape {
      dim: 0
      dim: 18
      dim: -1
      dim: 0
    }
  }
}
layer {
  name: "proposal"
  type: "Python"
  bottom: "rpn_cls_prob_reshape"
  bottom: "rpn_bbox_pred"
  bottom: "im_info"
  top: "rpn_rois"
  python_param {
    module: "rpn.proposal_layer"
    layer: "ProposalLayer"
    param_str: "\'feat_stride\': 16"
  }
}
layer {
  name: "roi-data"
  type: "Python"
  bottom: "rpn_rois"
  bottom: "gt_boxes"
  top: "rois"
  top: "labels"
  top: "bbox_targets"
  top: "bbox_inside_weights"
  top: "bbox_outside_weights"
  python_param {
    module: "rpn.proposal_target_layer"
    layer: "ProposalTargetLayer"
    param_str: "\'num_classes\': 2"
  }
}
layer {
  name: "roi_pool_conv5"
  type: "ROIPooling"
  bottom: "conv5"
  bottom: "rois"
  top: "roi_pool_conv5"
  roi_pooling_param {
    pooled_h: 6
    pooled_w: 6
    spatial_scale: 0.0625
  }
}
layer {
  name: "fc6"
  type: "InnerProduct"
  bottom: "roi_pool_conv5"
  top: "fc6"
  param {
    lr_mult: 1
  }
  param {
    lr_mult: 2
  }
  inner_product_param {
    num_output: 4096
  }
}
layer {
  name: "relu6"
  type: "ReLU"
  bottom: "fc6"
  top: "fc6"
}
layer {
  name: "drop6"
  type: "Dropout"
  bottom: "fc6"
  top: "fc6"
  dropout_param {
    dropout_ratio: 0.5
    scale_train: false
  }
}
layer {
  name: "fc7"
  type: "InnerProduct"
  bottom: "fc6"
  top: "fc7"
  param {
    lr_mult: 0
  }
  param {
    lr_mult: 0
  }
  inner_product_param {
    num_output: 4096
  }
}
layer {
  name: "relu7"
  type: "ReLU"
  bottom: "fc7"
  top: "fc7"
}
layer {
  name: "drop7"
  type: "Dropout"
  bottom: "fc7"
  top: "fc7"
  dropout_param {
    dropout_ratio: 0.5
    scale_train: false
  }
}
layer {
  name: "cls_score"
  type: "InnerProduct"
  bottom: "fc7"
  top: "cls_score"
  param {
    lr_mult: 1
  }
  param {
    lr_mult: 2
  }
  inner_product_param {
    num_output: 2
    weight_filler {
      type: "gaussian"
      std: 0.01
    }
    bias_filler {
      type: "constant"
      value: 0
    }
  }
}
layer {
  name: "bbox_pred"
  type: "InnerProduct"
  bottom: "fc7"
  top: "bbox_pred"
  param {
    lr_mult: 1
  }
  param {
    lr_mult: 2
  }
  inner_product_param {
    num_output: 8
    weight_filler {
      type: "gaussian"
      std: 0.001
    }
    bias_filler {
      type: "constant"
      value: 0
    }
  }
}
layer {
  name: "loss_cls"
  type: "SoftmaxWithLoss"
  bottom: "cls_score"
  bottom: "labels"
  top: "cls_loss"
  loss_weight: 1
  propagate_down: true
  propagate_down: false
  loss_param {
    ignore_label: -1
    normalize: true
  }
}
layer {
  name: "loss_bbox"
  type: "SmoothL1Loss"
  bottom: "bbox_pred"
  bottom: "bbox_targets"
  bottom: "bbox_inside_weights"
  bottom: "bbox_outside_weights"
  top: "bbox_loss"
  loss_weight: 1
}
I0327 14:59:09.320426 22319 layer_factory.hpp:77] Creating layer input-data
I0327 14:59:09.391039 22319 net.cpp:106] Creating Layer input-data
I0327 14:59:09.391068 22319 net.cpp:411] input-data -> data
I0327 14:59:09.391094 22319 net.cpp:411] input-data -> im_info
I0327 14:59:09.391108 22319 net.cpp:411] input-data -> gt_boxes
RoiDataLayer: name_to_top: {'gt_boxes': 2, 'data': 0, 'im_info': 1}
I0327 14:59:09.404301 22319 net.cpp:150] Setting up input-data
I0327 14:59:09.404332 22319 net.cpp:157] Top shape: 1 3 600 600 (1080000)
I0327 14:59:09.404340 22319 net.cpp:157] Top shape: 1 3 (3)
I0327 14:59:09.404346 22319 net.cpp:157] Top shape: 1 4 (4)
I0327 14:59:09.404351 22319 net.cpp:165] Memory required for data: 4320028
I0327 14:59:09.404369 22319 layer_factory.hpp:77] Creating layer data_input-data_0_split
I0327 14:59:09.404384 22319 net.cpp:106] Creating Layer data_input-data_0_split
I0327 14:59:09.404391 22319 net.cpp:454] data_input-data_0_split <- data
I0327 14:59:09.404400 22319 net.cpp:411] data_input-data_0_split -> data_input-data_0_split_0
I0327 14:59:09.404414 22319 net.cpp:411] data_input-data_0_split -> data_input-data_0_split_1
I0327 14:59:09.404455 22319 net.cpp:150] Setting up data_input-data_0_split
I0327 14:59:09.404464 22319 net.cpp:157] Top shape: 1 3 600 600 (1080000)
I0327 14:59:09.404471 22319 net.cpp:157] Top shape: 1 3 600 600 (1080000)
I0327 14:59:09.404475 22319 net.cpp:165] Memory required for data: 12960028
I0327 14:59:09.404481 22319 layer_factory.hpp:77] Creating layer im_info_input-data_1_split
I0327 14:59:09.404489 22319 net.cpp:106] Creating Layer im_info_input-data_1_split
I0327 14:59:09.404494 22319 net.cpp:454] im_info_input-data_1_split <- im_info
I0327 14:59:09.404503 22319 net.cpp:411] im_info_input-data_1_split -> im_info_input-data_1_split_0
I0327 14:59:09.404510 22319 net.cpp:411] im_info_input-data_1_split -> im_info_input-data_1_split_1
I0327 14:59:09.404542 22319 net.cpp:150] Setting up im_info_input-data_1_split
I0327 14:59:09.404549 22319 net.cpp:157] Top shape: 1 3 (3)
I0327 14:59:09.404556 22319 net.cpp:157] Top shape: 1 3 (3)
I0327 14:59:09.404561 22319 net.cpp:165] Memory required for data: 12960052
I0327 14:59:09.404566 22319 layer_factory.hpp:77] Creating layer gt_boxes_input-data_2_split
I0327 14:59:09.404572 22319 net.cpp:106] Creating Layer gt_boxes_input-data_2_split
I0327 14:59:09.404577 22319 net.cpp:454] gt_boxes_input-data_2_split <- gt_boxes
I0327 14:59:09.404584 22319 net.cpp:411] gt_boxes_input-data_2_split -> gt_boxes_input-data_2_split_0
I0327 14:59:09.404592 22319 net.cpp:411] gt_boxes_input-data_2_split -> gt_boxes_input-data_2_split_1
I0327 14:59:09.404624 22319 net.cpp:150] Setting up gt_boxes_input-data_2_split
I0327 14:59:09.404630 22319 net.cpp:157] Top shape: 1 4 (4)
I0327 14:59:09.404637 22319 net.cpp:157] Top shape: 1 4 (4)
I0327 14:59:09.404642 22319 net.cpp:165] Memory required for data: 12960084
I0327 14:59:09.404647 22319 layer_factory.hpp:77] Creating layer conv1
I0327 14:59:09.404664 22319 net.cpp:106] Creating Layer conv1
I0327 14:59:09.404669 22319 net.cpp:454] conv1 <- data_input-data_0_split_0
I0327 14:59:09.404676 22319 net.cpp:411] conv1 -> conv1
I0327 14:59:09.406091 22319 net.cpp:150] Setting up conv1
I0327 14:59:09.406105 22319 net.cpp:157] Top shape: 1 96 300 300 (8640000)
I0327 14:59:09.406111 22319 net.cpp:165] Memory required for data: 47520084
I0327 14:59:09.406133 22319 layer_factory.hpp:77] Creating layer relu1
I0327 14:59:09.406144 22319 net.cpp:106] Creating Layer relu1
I0327 14:59:09.406149 22319 net.cpp:454] relu1 <- conv1
I0327 14:59:09.406159 22319 net.cpp:397] relu1 -> conv1 (in-place)
I0327 14:59:09.406169 22319 net.cpp:150] Setting up relu1
I0327 14:59:09.406177 22319 net.cpp:157] Top shape: 1 96 300 300 (8640000)
I0327 14:59:09.406182 22319 net.cpp:165] Memory required for data: 82080084
I0327 14:59:09.406188 22319 layer_factory.hpp:77] Creating layer norm1
I0327 14:59:09.406196 22319 net.cpp:106] Creating Layer norm1
I0327 14:59:09.406200 22319 net.cpp:454] norm1 <- conv1
I0327 14:59:09.406208 22319 net.cpp:411] norm1 -> norm1
I0327 14:59:09.406314 22319 net.cpp:150] Setting up norm1
I0327 14:59:09.406324 22319 net.cpp:157] Top shape: 1 96 300 300 (8640000)
I0327 14:59:09.406329 22319 net.cpp:165] Memory required for data: 116640084
I0327 14:59:09.406335 22319 layer_factory.hpp:77] Creating layer pool1
I0327 14:59:09.406345 22319 net.cpp:106] Creating Layer pool1
I0327 14:59:09.406350 22319 net.cpp:454] pool1 <- norm1
I0327 14:59:09.406358 22319 net.cpp:411] pool1 -> pool1
I0327 14:59:09.406394 22319 net.cpp:150] Setting up pool1
I0327 14:59:09.406400 22319 net.cpp:157] Top shape: 1 96 151 151 (2188896)
I0327 14:59:09.406405 22319 net.cpp:165] Memory required for data: 125395668
I0327 14:59:09.406411 22319 layer_factory.hpp:77] Creating layer conv2
I0327 14:59:09.406422 22319 net.cpp:106] Creating Layer conv2
I0327 14:59:09.406426 22319 net.cpp:454] conv2 <- pool1
I0327 14:59:09.406435 22319 net.cpp:411] conv2 -> conv2
I0327 14:59:09.408144 22319 net.cpp:150] Setting up conv2
I0327 14:59:09.408159 22319 net.cpp:157] Top shape: 1 256 76 76 (1478656)
I0327 14:59:09.408164 22319 net.cpp:165] Memory required for data: 131310292
I0327 14:59:09.408176 22319 layer_factory.hpp:77] Creating layer relu2
I0327 14:59:09.408185 22319 net.cpp:106] Creating Layer relu2
I0327 14:59:09.408190 22319 net.cpp:454] relu2 <- conv2
I0327 14:59:09.408201 22319 net.cpp:397] relu2 -> conv2 (in-place)
I0327 14:59:09.408210 22319 net.cpp:150] Setting up relu2
I0327 14:59:09.408216 22319 net.cpp:157] Top shape: 1 256 76 76 (1478656)
I0327 14:59:09.408221 22319 net.cpp:165] Memory required for data: 137224916
I0327 14:59:09.408226 22319 layer_factory.hpp:77] Creating layer norm2
I0327 14:59:09.408233 22319 net.cpp:106] Creating Layer norm2
I0327 14:59:09.408239 22319 net.cpp:454] norm2 <- conv2
I0327 14:59:09.408247 22319 net.cpp:411] norm2 -> norm2
I0327 14:59:09.408334 22319 net.cpp:150] Setting up norm2
I0327 14:59:09.408342 22319 net.cpp:157] Top shape: 1 256 76 76 (1478656)
I0327 14:59:09.408347 22319 net.cpp:165] Memory required for data: 143139540
I0327 14:59:09.408352 22319 layer_factory.hpp:77] Creating layer pool2
I0327 14:59:09.408360 22319 net.cpp:106] Creating Layer pool2
I0327 14:59:09.408365 22319 net.cpp:454] pool2 <- norm2
I0327 14:59:09.408372 22319 net.cpp:411] pool2 -> pool2
I0327 14:59:09.408408 22319 net.cpp:150] Setting up pool2
I0327 14:59:09.408416 22319 net.cpp:157] Top shape: 1 256 39 39 (389376)
I0327 14:59:09.408421 22319 net.cpp:165] Memory required for data: 144697044
I0327 14:59:09.408427 22319 layer_factory.hpp:77] Creating layer conv3
I0327 14:59:09.408438 22319 net.cpp:106] Creating Layer conv3
I0327 14:59:09.408442 22319 net.cpp:454] conv3 <- pool2
I0327 14:59:09.408450 22319 net.cpp:411] conv3 -> conv3
I0327 14:59:09.411883 22319 net.cpp:150] Setting up conv3
I0327 14:59:09.411901 22319 net.cpp:157] Top shape: 1 384 39 39 (584064)
I0327 14:59:09.411906 22319 net.cpp:165] Memory required for data: 147033300
I0327 14:59:09.411921 22319 layer_factory.hpp:77] Creating layer relu3
I0327 14:59:09.411932 22319 net.cpp:106] Creating Layer relu3
I0327 14:59:09.411938 22319 net.cpp:454] relu3 <- conv3
I0327 14:59:09.411947 22319 net.cpp:397] relu3 -> conv3 (in-place)
I0327 14:59:09.411955 22319 net.cpp:150] Setting up relu3
I0327 14:59:09.411962 22319 net.cpp:157] Top shape: 1 384 39 39 (584064)
I0327 14:59:09.411967 22319 net.cpp:165] Memory required for data: 149369556
I0327 14:59:09.411972 22319 layer_factory.hpp:77] Creating layer conv4
I0327 14:59:09.411983 22319 net.cpp:106] Creating Layer conv4
I0327 14:59:09.411988 22319 net.cpp:454] conv4 <- conv3
I0327 14:59:09.411995 22319 net.cpp:411] conv4 -> conv4
I0327 14:59:09.415362 22319 net.cpp:150] Setting up conv4
I0327 14:59:09.415380 22319 net.cpp:157] Top shape: 1 384 39 39 (584064)
I0327 14:59:09.415386 22319 net.cpp:165] Memory required for data: 151705812
I0327 14:59:09.415397 22319 layer_factory.hpp:77] Creating layer relu4
I0327 14:59:09.415405 22319 net.cpp:106] Creating Layer relu4
I0327 14:59:09.415413 22319 net.cpp:454] relu4 <- conv4
I0327 14:59:09.415421 22319 net.cpp:397] relu4 -> conv4 (in-place)
I0327 14:59:09.415429 22319 net.cpp:150] Setting up relu4
I0327 14:59:09.415436 22319 net.cpp:157] Top shape: 1 384 39 39 (584064)
I0327 14:59:09.415441 22319 net.cpp:165] Memory required for data: 154042068
I0327 14:59:09.415446 22319 layer_factory.hpp:77] Creating layer conv5
I0327 14:59:09.415462 22319 net.cpp:106] Creating Layer conv5
I0327 14:59:09.415465 22319 net.cpp:454] conv5 <- conv4
I0327 14:59:09.415474 22319 net.cpp:411] conv5 -> conv5
I0327 14:59:09.417873 22319 net.cpp:150] Setting up conv5
I0327 14:59:09.417887 22319 net.cpp:157] Top shape: 1 256 39 39 (389376)
I0327 14:59:09.417892 22319 net.cpp:165] Memory required for data: 155599572
I0327 14:59:09.417917 22319 layer_factory.hpp:77] Creating layer relu5
I0327 14:59:09.417927 22319 net.cpp:106] Creating Layer relu5
I0327 14:59:09.417932 22319 net.cpp:454] relu5 <- conv5
I0327 14:59:09.417939 22319 net.cpp:397] relu5 -> conv5 (in-place)
I0327 14:59:09.417948 22319 net.cpp:150] Setting up relu5
I0327 14:59:09.417954 22319 net.cpp:157] Top shape: 1 256 39 39 (389376)
I0327 14:59:09.417960 22319 net.cpp:165] Memory required for data: 157157076
I0327 14:59:09.417965 22319 layer_factory.hpp:77] Creating layer conv5_relu5_0_split
I0327 14:59:09.417973 22319 net.cpp:106] Creating Layer conv5_relu5_0_split
I0327 14:59:09.417978 22319 net.cpp:454] conv5_relu5_0_split <- conv5
I0327 14:59:09.417989 22319 net.cpp:411] conv5_relu5_0_split -> conv5_relu5_0_split_0
I0327 14:59:09.417997 22319 net.cpp:411] conv5_relu5_0_split -> conv5_relu5_0_split_1
I0327 14:59:09.418031 22319 net.cpp:150] Setting up conv5_relu5_0_split
I0327 14:59:09.418040 22319 net.cpp:157] Top shape: 1 256 39 39 (389376)
I0327 14:59:09.418046 22319 net.cpp:157] Top shape: 1 256 39 39 (389376)
I0327 14:59:09.418051 22319 net.cpp:165] Memory required for data: 160272084
I0327 14:59:09.418056 22319 layer_factory.hpp:77] Creating layer rpn_conv/3x3
I0327 14:59:09.418071 22319 net.cpp:106] Creating Layer rpn_conv/3x3
I0327 14:59:09.418076 22319 net.cpp:454] rpn_conv/3x3 <- conv5_relu5_0_split_0
I0327 14:59:09.418084 22319 net.cpp:411] rpn_conv/3x3 -> rpn/output
I0327 14:59:09.428890 22319 net.cpp:150] Setting up rpn_conv/3x3
I0327 14:59:09.428912 22319 net.cpp:157] Top shape: 1 256 39 39 (389376)
I0327 14:59:09.428916 22319 net.cpp:165] Memory required for data: 161829588
I0327 14:59:09.428937 22319 layer_factory.hpp:77] Creating layer rpn_relu/3x3
I0327 14:59:09.428949 22319 net.cpp:106] Creating Layer rpn_relu/3x3
I0327 14:59:09.428956 22319 net.cpp:454] rpn_relu/3x3 <- rpn/output
I0327 14:59:09.428964 22319 net.cpp:397] rpn_relu/3x3 -> rpn/output (in-place)
I0327 14:59:09.428975 22319 net.cpp:150] Setting up rpn_relu/3x3
I0327 14:59:09.428982 22319 net.cpp:157] Top shape: 1 256 39 39 (389376)
I0327 14:59:09.428987 22319 net.cpp:165] Memory required for data: 163387092
I0327 14:59:09.428993 22319 layer_factory.hpp:77] Creating layer rpn/output_rpn_relu/3x3_0_split
I0327 14:59:09.429002 22319 net.cpp:106] Creating Layer rpn/output_rpn_relu/3x3_0_split
I0327 14:59:09.429005 22319 net.cpp:454] rpn/output_rpn_relu/3x3_0_split <- rpn/output
I0327 14:59:09.429015 22319 net.cpp:411] rpn/output_rpn_relu/3x3_0_split -> rpn/output_rpn_relu/3x3_0_split_0
I0327 14:59:09.429023 22319 net.cpp:411] rpn/output_rpn_relu/3x3_0_split -> rpn/output_rpn_relu/3x3_0_split_1
I0327 14:59:09.429057 22319 net.cpp:150] Setting up rpn/output_rpn_relu/3x3_0_split
I0327 14:59:09.429064 22319 net.cpp:157] Top shape: 1 256 39 39 (389376)
I0327 14:59:09.429071 22319 net.cpp:157] Top shape: 1 256 39 39 (389376)
I0327 14:59:09.429075 22319 net.cpp:165] Memory required for data: 166502100
I0327 14:59:09.429081 22319 layer_factory.hpp:77] Creating layer rpn_cls_score
I0327 14:59:09.429100 22319 net.cpp:106] Creating Layer rpn_cls_score
I0327 14:59:09.429105 22319 net.cpp:454] rpn_cls_score <- rpn/output_rpn_relu/3x3_0_split_0
I0327 14:59:09.429114 22319 net.cpp:411] rpn_cls_score -> rpn_cls_score
I0327 14:59:09.429419 22319 net.cpp:150] Setting up rpn_cls_score
I0327 14:59:09.429430 22319 net.cpp:157] Top shape: 1 18 39 39 (27378)
I0327 14:59:09.429435 22319 net.cpp:165] Memory required for data: 166611612
I0327 14:59:09.429445 22319 layer_factory.hpp:77] Creating layer rpn_cls_score_rpn_cls_score_0_split
I0327 14:59:09.429452 22319 net.cpp:106] Creating Layer rpn_cls_score_rpn_cls_score_0_split
I0327 14:59:09.429456 22319 net.cpp:454] rpn_cls_score_rpn_cls_score_0_split <- rpn_cls_score
I0327 14:59:09.429464 22319 net.cpp:411] rpn_cls_score_rpn_cls_score_0_split -> rpn_cls_score_rpn_cls_score_0_split_0
I0327 14:59:09.429472 22319 net.cpp:411] rpn_cls_score_rpn_cls_score_0_split -> rpn_cls_score_rpn_cls_score_0_split_1
I0327 14:59:09.429507 22319 net.cpp:150] Setting up rpn_cls_score_rpn_cls_score_0_split
I0327 14:59:09.429513 22319 net.cpp:157] Top shape: 1 18 39 39 (27378)
I0327 14:59:09.429520 22319 net.cpp:157] Top shape: 1 18 39 39 (27378)
I0327 14:59:09.429525 22319 net.cpp:165] Memory required for data: 166830636
I0327 14:59:09.429530 22319 layer_factory.hpp:77] Creating layer rpn_bbox_pred
I0327 14:59:09.429543 22319 net.cpp:106] Creating Layer rpn_bbox_pred
I0327 14:59:09.429548 22319 net.cpp:454] rpn_bbox_pred <- rpn/output_rpn_relu/3x3_0_split_1
I0327 14:59:09.429558 22319 net.cpp:411] rpn_bbox_pred -> rpn_bbox_pred
I0327 14:59:09.429916 22319 net.cpp:150] Setting up rpn_bbox_pred
I0327 14:59:09.429926 22319 net.cpp:157] Top shape: 1 36 39 39 (54756)
I0327 14:59:09.429932 22319 net.cpp:165] Memory required for data: 167049660
I0327 14:59:09.429941 22319 layer_factory.hpp:77] Creating layer rpn_bbox_pred_rpn_bbox_pred_0_split
I0327 14:59:09.429950 22319 net.cpp:106] Creating Layer rpn_bbox_pred_rpn_bbox_pred_0_split
I0327 14:59:09.429955 22319 net.cpp:454] rpn_bbox_pred_rpn_bbox_pred_0_split <- rpn_bbox_pred
I0327 14:59:09.429963 22319 net.cpp:411] rpn_bbox_pred_rpn_bbox_pred_0_split -> rpn_bbox_pred_rpn_bbox_pred_0_split_0
I0327 14:59:09.429971 22319 net.cpp:411] rpn_bbox_pred_rpn_bbox_pred_0_split -> rpn_bbox_pred_rpn_bbox_pred_0_split_1
I0327 14:59:09.430008 22319 net.cpp:150] Setting up rpn_bbox_pred_rpn_bbox_pred_0_split
I0327 14:59:09.430016 22319 net.cpp:157] Top shape: 1 36 39 39 (54756)
I0327 14:59:09.430022 22319 net.cpp:157] Top shape: 1 36 39 39 (54756)
I0327 14:59:09.430027 22319 net.cpp:165] Memory required for data: 167487708
I0327 14:59:09.430032 22319 layer_factory.hpp:77] Creating layer rpn_cls_score_reshape
I0327 14:59:09.430044 22319 net.cpp:106] Creating Layer rpn_cls_score_reshape
I0327 14:59:09.430052 22319 net.cpp:454] rpn_cls_score_reshape <- rpn_cls_score_rpn_cls_score_0_split_0
I0327 14:59:09.430059 22319 net.cpp:411] rpn_cls_score_reshape -> rpn_cls_score_reshape
I0327 14:59:09.430088 22319 net.cpp:150] Setting up rpn_cls_score_reshape
I0327 14:59:09.430094 22319 net.cpp:157] Top shape: 1 2 351 39 (27378)
I0327 14:59:09.430099 22319 net.cpp:165] Memory required for data: 167597220
I0327 14:59:09.430104 22319 layer_factory.hpp:77] Creating layer rpn_cls_score_reshape_rpn_cls_score_reshape_0_split
I0327 14:59:09.430114 22319 net.cpp:106] Creating Layer rpn_cls_score_reshape_rpn_cls_score_reshape_0_split
I0327 14:59:09.430119 22319 net.cpp:454] rpn_cls_score_reshape_rpn_cls_score_reshape_0_split <- rpn_cls_score_reshape
I0327 14:59:09.430126 22319 net.cpp:411] rpn_cls_score_reshape_rpn_cls_score_reshape_0_split -> rpn_cls_score_reshape_rpn_cls_score_reshape_0_split_0
I0327 14:59:09.430136 22319 net.cpp:411] rpn_cls_score_reshape_rpn_cls_score_reshape_0_split -> rpn_cls_score_reshape_rpn_cls_score_reshape_0_split_1
I0327 14:59:09.430166 22319 net.cpp:150] Setting up rpn_cls_score_reshape_rpn_cls_score_reshape_0_split
I0327 14:59:09.430174 22319 net.cpp:157] Top shape: 1 2 351 39 (27378)
I0327 14:59:09.430181 22319 net.cpp:157] Top shape: 1 2 351 39 (27378)
I0327 14:59:09.430186 22319 net.cpp:165] Memory required for data: 167816244
I0327 14:59:09.430191 22319 layer_factory.hpp:77] Creating layer rpn-data
I0327 14:59:09.438551 22319 net.cpp:106] Creating Layer rpn-data
I0327 14:59:09.438571 22319 net.cpp:454] rpn-data <- rpn_cls_score_rpn_cls_score_0_split_1
I0327 14:59:09.438593 22319 net.cpp:454] rpn-data <- gt_boxes_input-data_2_split_0
I0327 14:59:09.438609 22319 net.cpp:454] rpn-data <- im_info_input-data_1_split_0
I0327 14:59:09.438622 22319 net.cpp:454] rpn-data <- data_input-data_0_split_1
I0327 14:59:09.438638 22319 net.cpp:411] rpn-data -> rpn_labels
I0327 14:59:09.438657 22319 net.cpp:411] rpn-data -> rpn_bbox_targets
I0327 14:59:09.438669 22319 net.cpp:411] rpn-data -> rpn_bbox_inside_weights
I0327 14:59:09.438688 22319 net.cpp:411] rpn-data -> rpn_bbox_outside_weights
I0327 14:59:09.440557 22319 net.cpp:150] Setting up rpn-data
I0327 14:59:09.440577 22319 net.cpp:157] Top shape: 1 1 351 39 (13689)
I0327 14:59:09.440582 22319 net.cpp:157] Top shape: 1 36 39 39 (54756)
I0327 14:59:09.440587 22319 net.cpp:157] Top shape: 1 36 39 39 (54756)
I0327 14:59:09.440590 22319 net.cpp:157] Top shape: 1 36 39 39 (54756)
I0327 14:59:09.440593 22319 net.cpp:165] Memory required for data: 168528072
I0327 14:59:09.440598 22319 layer_factory.hpp:77] Creating layer rpn_loss_cls
I0327 14:59:09.440613 22319 net.cpp:106] Creating Layer rpn_loss_cls
I0327 14:59:09.440629 22319 net.cpp:454] rpn_loss_cls <- rpn_cls_score_reshape_rpn_cls_score_reshape_0_split_0
I0327 14:59:09.440645 22319 net.cpp:454] rpn_loss_cls <- rpn_labels
…
I0327 14:59:09.441439 22319 net.cpp:157] Top shape: (1)
I0327 14:59:09.441443 22319 net.cpp:160]     with loss weight 1
I0327 14:59:09.441450 22319 net.cpp:165] Memory required for data: 168528080
I0327 14:59:09.441454 22319 layer_factory.hpp:77] Creating layer rpn_cls_prob
I0327 14:59:09.441462 22319 net.cpp:106] Creating Layer rpn_cls_prob
I0327 14:59:09.441465 22319 net.cpp:454] rpn_cls_prob <- rpn_cls_score_reshape_rpn_cls_score_reshape_0_split_1
I0327 14:59:09.441475 22319 net.cpp:411] rpn_cls_prob -> rpn_cls_prob
I0327 14:59:09.441560 22319 net.cpp:150] Setting up rpn_cls_prob
I0327 14:59:09.441570 22319 net.cpp:157] Top shape: 1 2 351 39 (27378)
I0327 14:59:09.441573 22319 net.cpp:165] Memory required for data: 168637592
I0327 14:59:09.441578 22319 layer_factory.hpp:77] Creating layer rpn_cls_prob_reshape
I0327 14:59:09.441593 22319 net.cpp:106] Creating Layer rpn_cls_prob_reshape
I0327 14:59:09.441598 22319 net.cpp:454] rpn_cls_prob_reshape <- rpn_cls_prob
I0327 14:59:09.441607 22319 net.cpp:411] rpn_cls_prob_reshape -> rpn_cls_prob_reshape
I0327 14:59:09.441637 22319 net.cpp:150] Setting up rpn_cls_prob_reshape
I0327 14:59:09.441644 22319 net.cpp:157] Top shape: 1 18 39 39 (27378)
I0327 14:59:09.441649 22319 net.cpp:165] Memory required for data: 168747104
I0327 14:59:09.441655 22319 layer_factory.hpp:77] Creating layer proposal
I0327 14:59:09.453292 22319 net.cpp:106] Creating Layer proposal
I0327 14:59:09.453321 22319 net.cpp:454] proposal <- rpn_cls_prob_reshape
I0327 14:59:09.453332 22319 net.cpp:454] proposal <- rpn_bbox_pred_rpn_bbox_pred_0_split_1
I0327 14:59:09.453338 22319 net.cpp:454] proposal <- im_info_input-data_1_split_1
I0327 14:59:09.453346 22319 net.cpp:411] proposal -> rpn_rois
I0327 14:59:09.467818 22319 net.cpp:150] Setting up proposal
I0327 14:59:09.467847 22319 net.cpp:157] Top shape: 1 5 (5)
I0327 14:59:09.467851 22319 net.cpp:165] Memory required for data: 168747124
I0327 14:59:09.467859 22319 layer_factory.hpp:77] Creating layer roi-data
I0327 14:59:09.469558 22319 net.cpp:106] Creating Layer roi-data
I0327 14:59:09.469571 22319 net.cpp:454] roi-data <- rpn_rois
I0327 14:59:09.469579 22319 net.cpp:454] roi-data <- gt_boxes_input-data_2_split_1
I0327 14:59:09.469586 22319 net.cpp:411] roi-data -> rois
I0327 14:59:09.469594 22319 net.cpp:411] roi-data -> labels
I0327 14:59:09.469601 22319 net.cpp:411] roi-data -> bbox_targets
I0327 14:59:09.469607 22319 net.cpp:411] roi-data -> bbox_inside_weights
I0327 14:59:09.469615 22319 net.cpp:411] roi-data -> bbox_outside_weights
I0327 14:59:09.470171 22319 net.cpp:150] Setting up roi-data
I0327 14:59:09.470185 22319 net.cpp:157] Top shape: 1 5 (5)
I0327 14:59:09.470190 22319 net.cpp:157] Top shape: 1 1 (1)
I0327 14:59:09.470192 22319 net.cpp:157] Top shape: 1 8 (8)
I0327 14:59:09.470196 22319 net.cpp:157] Top shape: 1 8 (8)
I0327 14:59:09.470199 22319 net.cpp:157] Top shape: 1 8 (8)
I0327 14:59:09.470202 22319 net.cpp:165] Memory required for data: 168747244
I0327 14:59:09.470206 22319 layer_factory.hpp:77] Creating layer roi_pool_conv5
I0327 14:59:09.470219 22319 net.cpp:106] Creating Layer roi_pool_conv5
I0327 14:59:09.470227 22319 net.cpp:454] roi_pool_conv5 <- conv5_relu5_0_split_1
I0327 14:59:09.470235 22319 net.cpp:454] roi_pool_conv5 <- rois
I0327 14:59:09.470244 22319 net.cpp:411] roi_pool_conv5 -> roi_pool_conv5
I0327 14:59:09.470259 22319 roi_pooling_layer.cpp:30] Spatial scale: 0.0625
I0327 14:59:09.470321 22319 net.cpp:150] Setting up roi_pool_conv5
I0327 14:59:09.470331 22319 net.cpp:157] Top shape: 1 256 6 6 (9216)
I0327 14:59:09.470335 22319 net.cpp:165] Memory required for data: 168784108
I0327 14:59:09.470338 22319 layer_factory.hpp:77] Creating layer fc6
I0327 14:59:09.470348 22319 net.cpp:106] Creating Layer fc6
I0327 14:59:09.470355 22319 net.cpp:454] fc6 <- roi_pool_conv5
I0327 14:59:09.470365 22319 net.cpp:411] fc6 -> fc6
I0327 14:59:09.564669 22319 net.cpp:150] Setting up fc6
I0327 14:59:09.564700 22319 net.cpp:157] Top shape: 1 4096 (4096)
I0327 14:59:09.564709 22319 net.cpp:165] Memory required for data: 168800492
I0327 14:59:09.564726 22319 layer_factory.hpp:77] Creating layer relu6
I0327 14:59:09.564738 22319 net.cpp:106] Creating Layer relu6
I0327 14:59:09.564743 22319 net.cpp:454] relu6 <- fc6
I0327 14:59:09.564749 22319 net.cpp:397] relu6 -> fc6 (in-place)
I0327 14:59:09.564759 22319 net.cpp:150] Setting up relu6
I0327 14:59:09.564764 22319 net.cpp:157] Top shape: 1 4096 (4096)
I0327 14:59:09.564766 22319 net.cpp:165] Memory required for data: 168816876
I0327 14:59:09.564770 22319 layer_factory.hpp:77] Creating layer drop6
I0327 14:59:09.564786 22319 net.cpp:106] Creating Layer drop6
I0327 14:59:09.564791 22319 net.cpp:454] drop6 <- fc6
I0327 14:59:09.564797 22319 net.cpp:397] drop6 -> fc6 (in-place)
I0327 14:59:09.564831 22319 net.cpp:150] Setting up drop6
I0327 14:59:09.564839 22319 net.cpp:157] Top shape: 1 4096 (4096)
I0327 14:59:09.564843 22319 net.cpp:165] Memory required for data: 168833260
I0327 14:59:09.564849 22319 layer_factory.hpp:77] Creating layer fc7
I0327 14:59:09.564862 22319 net.cpp:106] Creating Layer fc7
I0327 14:59:09.564868 22319 net.cpp:454] fc7 <- fc6
I0327 14:59:09.564877 22319 net.cpp:411] fc7 -> fc7
I0327 14:59:09.607192 22319 net.cpp:150] Setting up fc7
I0327 14:59:09.607219 22319 net.cpp:157] Top shape: 1 4096 (4096)
I0327 14:59:09.607223 22319 net.cpp:165] Memory required for data: 168849644
I0327 14:59:09.607234 22319 layer_factory.hpp:77] Creating layer relu7
I0327 14:59:09.607249 22319 net.cpp:106] Creating Layer relu7
I0327 14:59:09.607262 22319 net.cpp:454] relu7 <- fc7
I0327 14:59:09.607273 22319 net.cpp:397] relu7 -> fc7 (in-place)
I0327 14:59:09.607285 22319 net.cpp:150] Setting up relu7
I0327 14:59:09.607292 22319 net.cpp:157] Top shape: 1 4096 (4096)
I0327 14:59:09.607316 22319 net.cpp:165] Memory required for data: 168866028
I0327 14:59:09.607331 22319 layer_factory.hpp:77] Creating layer drop7
I0327 14:59:09.607341 22319 net.cpp:106] Creating Layer drop7
I0327 14:59:09.607345 22319 net.cpp:454] drop7 <- fc7
I0327 14:59:09.607353 22319 net.cpp:397] drop7 -> fc7 (in-place)
I0327 14:59:09.607380 22319 net.cpp:150] Setting up drop7
I0327 14:59:09.607388 22319 net.cpp:157] Top shape: 1 4096 (4096)
I0327 14:59:09.607393 22319 net.cpp:165] Memory required for data: 168882412
I0327 14:59:09.607398 22319 layer_factory.hpp:77] Creating layer fc7_drop7_0_split
I0327 14:59:09.607408 22319 net.cpp:106] Creating Layer fc7_drop7_0_split
I0327 14:59:09.607411 22319 net.cpp:454] fc7_drop7_0_split <- fc7
I0327 14:59:09.607420 22319 net.cpp:411] fc7_drop7_0_split -> fc7_drop7_0_split_0
I0327 14:59:09.607429 22319 net.cpp:411] fc7_drop7_0_split -> fc7_drop7_0_split_1
I0327 14:59:09.607466 22319 net.cpp:150] Setting up fc7_drop7_0_split
I0327 14:59:09.607473 22319 net.cpp:157] Top shape: 1 4096 (4096)
I0327 14:59:09.607491 22319 net.cpp:157] Top shape: 1 4096 (4096)
I0327 14:59:09.607496 22319 net.cpp:165] Memory required for data: 168915180
I0327 14:59:09.607503 22319 layer_factory.hpp:77] Creating layer cls_score
I0327 14:59:09.607517 22319 net.cpp:106] Creating Layer cls_score
I0327 14:59:09.607525 22319 net.cpp:454] cls_score <- fc7_drop7_0_split_0
I0327 14:59:09.607537 22319 net.cpp:411] cls_score -> cls_score
I0327 14:59:09.607784 22319 net.cpp:150] Setting up cls_score
I0327 14:59:09.607795 22319 net.cpp:157] Top shape: 1 2 (2)
I0327 14:59:09.607807 22319 net.cpp:165] Memory required for data: 168915188
I0327 14:59:09.607820 22319 layer_factory.hpp:77] Creating layer bbox_pred
I0327 14:59:09.607839 22319 net.cpp:106] Creating Layer bbox_pred
I0327 14:59:09.607853 22319 net.cpp:454] bbox_pred <- fc7_drop7_0_split_1
I0327 14:59:09.607869 22319 net.cpp:411] bbox_pred -> bbox_pred
I0327 14:59:09.608530 22319 net.cpp:150] Setting up bbox_pred
I0327 14:59:09.608541 22319 net.cpp:157] Top shape: 1 8 (8)
I0327 14:59:09.608544 22319 net.cpp:165] Memory required for data: 168915220
I0327 14:59:09.608551 22319 layer_factory.hpp:77] Creating layer loss_cls
I0327 14:59:09.608559 22319 net.cpp:106] Creating Layer loss_cls
I0327 14:59:09.608563 22319 net.cpp:454] loss_cls <- cls_score
I0327 14:59:09.608570 22319 net.cpp:454] loss_cls <- labels
I0327 14:59:09.608582 22319 net.cpp:411] loss_cls -> cls_loss
…
           'USE_FLIPPED': True,
           'USE_PREFETCH': False},
 'USE_GPU_NMS': False}
../../tools/test_net.py:80: RuntimeWarning: to-Python converter for boost::shared_ptr<caffe::Blob<float> > already registered; second conversion method ignored.
  caffe.set_mode_gpu()
WARNING: Logging before InitGoogleLogging() is written to STDERR
I0328 08:10:54.420107  8977 net.cpp:49] Initializing net from parameters: 
name: "ZF"
input: "data"
input: "im_info"
state {
  phase: TEST
}
input_shape {
  dim: 1
  dim: 3
  dim: 224
  dim: 224
}
input_shape {
  dim: 1
  dim: 3
}
layer {
  name: "conv1"
  type: "Convolution"
  bottom: "data"
  top: "conv1"
  convolution_param {
    num_output: 96
    pad: 3
    kernel_size: 7
    stride: 2
  }
}
layer {
  name: "relu1"
  type: "ReLU"
  bottom: "conv1"
  top: "conv1"
}
layer {
  name: "norm1"
  type: "LRN"
  bottom: "conv1"
  top: "norm1"
  lrn_param {
    local_size: 3
    alpha: 5e-05
    beta: 0.75
    norm_region: WITHIN_CHANNEL
    engine: CAFFE
  }
}
layer {
  name: "pool1"
  type: "Pooling"
  bottom: "norm1"
  top: "pool1"
  pooling_param {
    pool: MAX
    kernel_size: 3
    stride: 2
    pad: 1
  }
}
layer {
  name: "conv2"
  type: "Convolution"
  bottom: "pool1"
  top: "conv2"
  convolution_param {
    num_output: 256
    pad: 2
    kernel_size: 5
    stride: 2
  }
}
layer {
  name: "relu2"
  type: "ReLU"
  bottom: "conv2"
  top: "conv2"
}
layer {
  name: "norm2"
  type: "LRN"
  bottom: "conv2"
  top: "norm2"
  lrn_param {
    local_size: 3
    alpha: 5e-05
    beta: 0.75
    norm_region: WITHIN_CHANNEL
    engine: CAFFE
  }
}
layer {
  name: "pool2"
  type: "Pooling"
  bottom: "norm2"
  top: "pool2"
  pooling_param {
    pool: MAX
    kernel_size: 3
    stride: 2
    pad: 1
  }
}
layer {
  name: "conv3"
  type: "Convolution"
  bottom: "pool2"
  top: "conv3"
  convolution_param {
    num_output: 384
    pad: 1
    kernel_size: 3
    stride: 1
  }
}
layer {
  name: "relu3"
  type: "ReLU"
  bottom: "conv3"
  top: "conv3"
}
layer {
  name: "conv4"
  type: "Convolution"
  bottom: "conv3"
  top: "conv4"
  convolution_param {
    num_output: 384
    pad: 1
    kernel_size: 3
    stride: 1
  }
}
layer {
  name: "relu4"
  type: "ReLU"
  bottom: "conv4"
  top: "conv4"
}
layer {
  name: "conv5"
  type: "Convolution"
  bottom: "conv4"
  top: "conv5"
  convolution_param {
    num_output: 256
    pad: 1
    kernel_size: 3
    stride: 1
  }
}
layer {
  name: "relu5"
  type: "ReLU"
  bottom: "conv5"
  top: "conv5"
}
layer {
  name: "rpn_conv/3x3"
  type: "Convolution"
  bottom: "conv5"
  top: "rpn/output"
  convolution_param {
    num_output: 256
    pad: 1
    kernel_size: 3
    stride: 1
    weight_filler {
      type: "gaussian"
      std: 0.01
    }
    bias_filler {
      type: "constant"
      value: 0
    }
  }
}
layer {
  name: "rpn_relu/3x3"
  type: "ReLU"
  bottom: "rpn/output"
  top: "rpn/output"
}
layer {
  name: "rpn_cls_score"
  type: "Convolution"
  bottom: "rpn/output"
  top: "rpn_cls_score"
  convolution_param {
    num_output: 18
    pad: 0
    kernel_size: 1
    stride: 1
    weight_filler {
      type: "gaussian"
      std: 0.01
    }
    bias_filler {
      type: "constant"
      value: 0
    }
  }
}
layer {
  name: "rpn_bbox_pred"
  type: "Convolution"
  bottom: "rpn/output"
  top: "rpn_bbox_pred"
  convolution_param {
    num_output: 36
    pad: 0
    kernel_size: 1
    stride: 1
    weight_filler {
      type: "gaussian"
      std: 0.01
    }
    bias_filler {
      type: "constant"
      value: 0
    }
  }
}
layer {
  name: "rpn_cls_score_reshape"
  type: "Reshape"
  bottom: "rpn_cls_score"
  top: "rpn_cls_score_reshape"
  reshape_param {
    shape {
      dim: 0
      dim: 2
      dim: -1
      dim: 0
    }
  }
}
layer {
  name: "rpn_cls_prob"
  type: "Softmax"
  bottom: "rpn_cls_score_reshape"
  top: "rpn_cls_prob"
}
layer {
  name: "rpn_cls_prob_reshape"
  type: "Reshape"
  bottom: "rpn_cls_prob"
  top: "rpn_cls_prob_reshape"
  reshape_param {
    shape {
      dim: 0
      dim: 18
      dim: -1
      dim: 0
    }
  }
}
layer {
  name: "proposal"
  type: "Python"
  bottom: "rpn_cls_prob_reshape"
  bottom: "rpn_bbox_pred"
  bottom: "im_info"
  top: "rois"
  python_param {
    module: "rpn.proposal_layer"
    layer: "ProposalLayer"
    param_str: "\'feat_stride\': 16"
  }
}
layer {
  name: "roi_pool_conv5"
  type: "ROIPooling"
  bottom: "conv5"
  bottom: "rois"
  top: "roi_pool_conv5"
  roi_pooling_param {
    pooled_h: 6
    pooled_w: 6
    spatial_scale: 0.0625
  }
}
layer {
  name: "fc6"
  type: "InnerProduct"
  bottom: "roi_pool_conv5"
  top: "fc6"
  inner_product_param {
    num_output: 4096
  }
}
layer {
  name: "relu6"
  type: "ReLU"
  bottom: "fc6"
  top: "fc6"
}
layer {
  name: "drop6"
  type: "Dropout"
  bottom: "fc6"
  top: "fc6"
  dropout_param {
    dropout_ratio: 0.5
    scale_train: false
  }
}
layer {
  name: "fc7"
  type: "InnerProduct"
  bottom: "fc6"
  top: "fc7"
  inner_product_param {
    num_output: 4096
  }
}
layer {
  name: "relu7"
  type: "ReLU"
  bottom: "fc7"
  top: "fc7"
}
layer {
  name: "drop7"
  type: "Dropout"
  bottom: "fc7"
  top: "fc7"
  dropout_param {
    dropout_ratio: 0.5
    scale_train: false
  }
}
layer {
  name: "cls_score"
  type: "InnerProduct"
  bottom: "fc7"
  top: "cls_score"
  inner_product_param {
    num_output: 2
  }
}
layer {
  name: "bbox_pred"
  type: "InnerProduct"
  bottom: "fc7"
  top: "bbox_pred"
  inner_product_param {
    num_output: 8
  }
}
layer {
  name: "cls_prob"
  type: "Softmax"
  bottom: "cls_score"
  top: "cls_prob"
  loss_param {
    ignore_label: -1
    normalize: true
  }
}
I0328 08:10:54.420308  8977 net.cpp:413] Input 0 -> data
I0328 08:10:54.444937  8977 net.cpp:413] Input 1 -> im_info
I0328 08:10:54.445004  8977 layer_factory.hpp:77] Creating layer conv1
I0328 08:10:54.445029  8977 net.cpp:106] Creating Layer conv1
I0328 08:10:54.445035  8977 net.cpp:454] conv1 <- data
I0328 08:10:54.445045  8977 net.cpp:411] conv1 -> conv1
I0328 08:10:54.445863  8977 net.cpp:150] Setting up conv1
I0328 08:10:54.445880  8977 net.cpp:157] Top shape: 1 96 112 112 (1204224)
I0328 08:10:54.445888  8977 net.cpp:165] Memory required for data: 4816896
I0328 08:10:54.445905  8977 layer_factory.hpp:77] Creating layer relu1
I0328 08:10:54.445916  8977 net.cpp:106] Creating Layer relu1
I0328 08:10:54.445922  8977 net.cpp:454] relu1 <- conv1
I0328 08:10:54.445930  8977 net.cpp:397] relu1 -> conv1 (in-place)
I0328 08:10:54.445940  8977 net.cpp:150] Setting up relu1
I0328 08:10:54.445946  8977 net.cpp:157] Top shape: 1 96 112 112 (1204224)
I0328 08:10:54.445950  8977 net.cpp:165] Memory required for data: 9633792
I0328 08:10:54.445955  8977 layer_factory.hpp:77] Creating layer norm1
I0328 08:10:54.445966  8977 net.cpp:106] Creating Layer norm1
I0328 08:10:54.445969  8977 net.cpp:454] norm1 <- conv1
I0328 08:10:54.445978  8977 net.cpp:411] norm1 -> norm1
I0328 08:10:54.446074  8977 net.cpp:150] Setting up norm1
I0328 08:10:54.446082  8977 net.cpp:157] Top shape: 1 96 112 112 (1204224)
I0328 08:10:54.446087  8977 net.cpp:165] Memory required for data: 14450688
I0328 08:10:54.446094  8977 layer_factory.hpp:77] Creating layer pool1
I0328 08:10:54.446101  8977 net.cpp:106] Creating Layer pool1
I0328 08:10:54.446105  8977 net.cpp:454] pool1 <- norm1
I0328 08:10:54.446113  8977 net.cpp:411] pool1 -> pool1
I0328 08:10:54.446146  8977 net.cpp:150] Setting up pool1
I0328 08:10:54.446152  8977 net.cpp:157] Top shape: 1 96 57 57 (311904)
I0328 08:10:54.446157  8977 net.cpp:165] Memory required for data: 15698304
I0328 08:10:54.446163  8977 layer_factory.hpp:77] Creating layer conv2
I0328 08:10:54.446173  8977 net.cpp:106] Creating Layer conv2
I0328 08:10:54.446177  8977 net.cpp:454] conv2 <- pool1
I0328 08:10:54.446187  8977 net.cpp:411] conv2 -> conv2
I0328 08:10:54.448496  8977 net.cpp:150] Setting up conv2
I0328 08:10:54.448511  8977 net.cpp:157] Top shape: 1 256 29 29 (215296)
I0328 08:10:54.448518  8977 net.cpp:165] Memory required for data: 16559488
I0328 08:10:54.448531  8977 layer_factory.hpp:77] Creating layer relu2
I0328 08:10:54.448540  8977 net.cpp:106] Creating Layer relu2
I0328 08:10:54.448545  8977 net.cpp:454] relu2 <- conv2
I0328 08:10:54.448554  8977 net.cpp:397] relu2 -> conv2 (in-place)
I0328 08:10:54.448562  8977 net.cpp:150] Setting up relu2
I0328 08:10:54.448568  8977 net.cpp:157] Top shape: 1 256 29 29 (215296)
I0328 08:10:54.448572  8977 net.cpp:165] Memory required for data: 17420672
I0328 08:10:54.448577  8977 layer_factory.hpp:77] Creating layer norm2
I0328 08:10:54.448586  8977 net.cpp:106] Creating Layer norm2
I0328 08:10:54.448590  8977 net.cpp:454] norm2 <- conv2
I0328 08:10:54.448598  8977 net.cpp:411] norm2 -> norm2
I0328 08:10:54.448680  8977 net.cpp:150] Setting up norm2
I0328 08:10:54.448688  8977 net.cpp:157] Top shape: 1 256 29 29 (215296)
I0328 08:10:54.448694  8977 net.cpp:165] Memory required for data: 18281856
I0328 08:10:54.448699  8977 layer_factory.hpp:77] Creating layer pool2
I0328 08:10:54.448711  8977 net.cpp:106] Creating Layer pool2
I0328 08:10:54.448716  8977 net.cpp:454] pool2 <- norm2
I0328 08:10:54.448724  8977 net.cpp:411] pool2 -> pool2
I0328 08:10:54.448755  8977 net.cpp:150] Setting up pool2
I0328 08:10:54.448761  8977 net.cpp:157] Top shape: 1 256 15 15 (57600)
I0328 08:10:54.448767  8977 net.cpp:165] Memory required for data: 18512256
I0328 08:10:54.448772  8977 layer_factory.hpp:77] Creating layer conv3
I0328 08:10:54.448783  8977 net.cpp:106] Creating Layer conv3
I0328 08:10:54.448788  8977 net.cpp:454] conv3 <- pool2
I0328 08:10:54.448797  8977 net.cpp:411] conv3 -> conv3
I0328 08:10:54.451198  8977 net.cpp:150] Setting up conv3
I0328 08:10:54.451213  8977 net.cpp:157] Top shape: 1 384 15 15 (86400)
I0328 08:10:54.451220  8977 net.cpp:165] Memory required for data: 18857856
I0328 08:10:54.451232  8977 layer_factory.hpp:77] Creating layer relu3
I0328 08:10:54.451241  8977 net.cpp:106] Creating Layer relu3
I0328 08:10:54.451246  8977 net.cpp:454] relu3 <- conv3
I0328 08:10:54.451254  8977 net.cpp:397] relu3 -> conv3 (in-place)
I0328 08:10:54.451262  8977 net.cpp:150] Setting up relu3
I0328 08:10:54.451268  8977 net.cpp:157] Top shape: 1 384 15 15 (86400)
I0328 08:10:54.451273  8977 net.cpp:165] Memory required for data: 19203456
I0328 08:10:54.451277  8977 layer_factory.hpp:77] Creating layer conv4
I0328 08:10:54.451287  8977 net.cpp:106] Creating Layer conv4
I0328 08:10:54.451292  8977 net.cpp:454] conv4 <- conv3
I0328 08:10:54.451300  8977 net.cpp:411] conv4 -> conv4
I0328 08:10:54.454592  8977 net.cpp:150] Setting up conv4
I0328 08:10:54.454609  8977 net.cpp:157] Top shape: 1 384 15 15 (86400)
I0328 08:10:54.454615  8977 net.cpp:165] Memory required for data: 19549056
I0328 08:10:54.454627  8977 layer_factory.hpp:77] Creating layer relu4
I0328 08:10:54.454637  8977 net.cpp:106] Creating Layer relu4
I0328 08:10:54.454641  8977 net.cpp:454] relu4 <- conv4
I0328 08:10:54.454649  8977 net.cpp:397] relu4 -> conv4 (in-place)
I0328 08:10:54.454658  8977 net.cpp:150] Setting up relu4
I0328 08:10:54.454664  8977 net.cpp:157] Top shape: 1 384 15 15 (86400)
I0328 08:10:54.454669  8977 net.cpp:165] Memory required for data: 19894656
I0328 08:10:54.454674  8977 layer_factory.hpp:77] Creating layer conv5
I0328 08:10:54.454684  8977 net.cpp:106] Creating Layer conv5
I0328 08:10:54.454689  8977 net.cpp:454] conv5 <- conv4
I0328 08:10:54.454697  8977 net.cpp:411] conv5 -> conv5
I0328 08:10:54.457018  8977 net.cpp:150] Setting up conv5
I0328 08:10:54.457034  8977 net.cpp:157] Top shape: 1 256 15 15 (57600)
I0328 08:10:54.457041  8977 net.cpp:165] Memory required for data: 20125056
I0328 08:10:54.457067  8977 layer_factory.hpp:77] Creating layer relu5
I0328 08:10:54.457077  8977 net.cpp:106] Creating Layer relu5
I0328 08:10:54.457082  8977 net.cpp:454] relu5 <- conv5
I0328 08:10:54.457089  8977 net.cpp:397] relu5 -> conv5 (in-place)
I0328 08:10:54.457098  8977 net.cpp:150] Setting up relu5
I0328 08:10:54.457104  8977 net.cpp:157] Top shape: 1 256 15 15 (57600)
I0328 08:10:54.457108  8977 net.cpp:165] Memory required for data: 20355456
I0328 08:10:54.457114  8977 layer_factory.hpp:77] Creating layer conv5_relu5_0_split
I0328 08:10:54.457128  8977 net.cpp:106] Creating Layer conv5_relu5_0_split
I0328 08:10:54.457131  8977 net.cpp:454] conv5_relu5_0_split <- conv5
I0328 08:10:54.457139  8977 net.cpp:411] conv5_relu5_0_split -> conv5_relu5_0_split_0
I0328 08:10:54.457147  8977 net.cpp:411] conv5_relu5_0_split -> conv5_relu5_0_split_1
I0328 08:10:54.457181  8977 net.cpp:150] Setting up conv5_relu5_0_split
I0328 08:10:54.457190  8977 net.cpp:157] Top shape: 1 256 15 15 (57600)
I0328 08:10:54.457197  8977 net.cpp:157] Top shape: 1 256 15 15 (57600)
I0328 08:10:54.457201  8977 net.cpp:165] Memory required for data: 20816256
I0328 08:10:54.457206  8977 layer_factory.hpp:77] Creating layer rpn_conv/3x3
I0328 08:10:54.457218  8977 net.cpp:106] Creating Layer rpn_conv/3x3
I0328 08:10:54.457223  8977 net.cpp:454] rpn_conv/3x3 <- conv5_relu5_0_split_0
I0328 08:10:54.457231  8977 net.cpp:411] rpn_conv/3x3 -> rpn/output
I0328 08:10:54.469684  8977 net.cpp:150] Setting up rpn_conv/3x3
I0328 08:10:54.469728  8977 net.cpp:157] Top shape: 1 256 15 15 (57600)
I0328 08:10:54.469748  8977 net.cpp:165] Memory required for data: 21046656
I0328 08:10:54.469766  8977 layer_factory.hpp:77] Creating layer rpn_relu/3x3
I0328 08:10:54.469789  8977 net.cpp:106] Creating Layer rpn_relu/3x3
I0328 08:10:54.469805  8977 net.cpp:454] rpn_relu/3x3 <- rpn/output
I0328 08:10:54.469820  8977 net.cpp:397] rpn_relu/3x3 -> rpn/output (in-place)
I0328 08:10:54.469835  8977 net.cpp:150] Setting up rpn_relu/3x3
I0328 08:10:54.469854  8977 net.cpp:157] Top shape: 1 256 15 15 (57600)
I0328 08:10:54.469867  8977 net.cpp:165] Memory required for data: 21277056
I0328 08:10:54.469879  8977 layer_factory.hpp:77] Creating layer rpn/output_rpn_relu/3x3_0_split
I0328 08:10:54.469892  8977 net.cpp:106] Creating Layer rpn/output_rpn_relu/3x3_0_split
I0328 08:10:54.469897  8977 net.cpp:454] rpn/output_rpn_relu/3x3_0_split <- rpn/output
I0328 08:10:54.469907  8977 net.cpp:411] rpn/output_rpn_relu/3x3_0_split -> rpn/output_rpn_relu/3x3_0_split_0
I0328 08:10:54.469918  8977 net.cpp:411] rpn/output_rpn_relu/3x3_0_split -> rpn/output_rpn_relu/3x3_0_split_1
I0328 08:10:54.469977  8977 net.cpp:150] Setting up rpn/output_rpn_relu/3x3_0_split
I0328 08:10:54.469993  8977 net.cpp:157] Top shape: 1 256 15 15 (57600)
I0328 08:10:54.470015  8977 net.cpp:157] Top shape: 1 256 15 15 (57600)
I0328 08:10:54.470027  8977 net.cpp:165] Memory required for data: 21737856
I0328 08:10:54.470037  8977 layer_factory.hpp:77] Creating layer rpn_cls_score
I0328 08:10:54.470059  8977 net.cpp:106] Creating Layer rpn_cls_score
I0328 08:10:54.470074  8977 net.cpp:454] rpn_cls_score <- rpn/output_rpn_relu/3x3_0_split_0
I0328 08:10:54.470095  8977 net.cpp:411] rpn_cls_score -> rpn_cls_score
I0328 08:10:54.470525  8977 net.cpp:150] Setting up rpn_cls_score
I0328 08:10:54.470548  8977 net.cpp:157] Top shape: 1 18 15 15 (4050)
I0328 08:10:54.470559  8977 net.cpp:165] Memory required for data: 21754056
I0328 08:10:54.470577  8977 layer_factory.hpp:77] Creating layer rpn_bbox_pred
I0328 08:10:54.470594  8977 net.cpp:106] Creating Layer rpn_bbox_pred
I0328 08:10:54.470602  8977 net.cpp:454] rpn_bbox_pred <- rpn/output_rpn_relu/3x3_0_split_1
I0328 08:10:54.470615  8977 net.cpp:411] rpn_bbox_pred -> rpn_bbox_pred
I0328 08:10:54.471128  8977 net.cpp:150] Setting up rpn_bbox_pred
I0328 08:10:54.471145  8977 net.cpp:157] Top shape: 1 36 15 15 (8100)
I0328 08:10:54.471153  8977 net.cpp:165] Memory required for data: 21786456
I0328 08:10:54.471165  8977 layer_factory.hpp:77] Creating layer rpn_cls_score_reshape
I0328 08:10:54.471186  8977 net.cpp:106] Creating Layer rpn_cls_score_reshape
I0328 08:10:54.471194  8977 net.cpp:454] rpn_cls_score_reshape <- rpn_cls_score
I0328 08:10:54.471207  8977 net.cpp:411] rpn_cls_score_reshape -> rpn_cls_score_reshape
I0328 08:10:54.471258  8977 net.cpp:150] Setting up rpn_cls_score_reshape
I0328 08:10:54.471271  8977 net.cpp:157] Top shape: 1 2 135 15 (4050)
I0328 08:10:54.471276  8977 net.cpp:165] Memory required for data: 21802656
I0328 08:10:54.471282  8977 layer_factory.hpp:77] Creating layer rpn_cls_prob
I0328 08:10:54.471292  8977 net.cpp:106] Creating Layer rpn_cls_prob
I0328 08:10:54.471299  8977 net.cpp:454] rpn_cls_prob <- rpn_cls_score_reshape
I0328 08:10:54.471307  8977 net.cpp:411] rpn_cls_prob -> rpn_cls_prob
I0328 08:10:54.471393  8977 net.cpp:150] Setting up rpn_cls_prob
I0328 08:10:54.471405  8977 net.cpp:157] Top shape: 1 2 135 15 (4050)
I0328 08:10:54.471411  8977 net.cpp:165] Memory required for data: 21818856
I0328 08:10:54.471427  8977 layer_factory.hpp:77] Creating layer rpn_cls_prob_reshape
I0328 08:10:54.471443  8977 net.cpp:106] Creating Layer rpn_cls_prob_reshape
I0328 08:10:54.471451  8977 net.cpp:454] rpn_cls_prob_reshape <- rpn_cls_prob
I0328 08:10:54.471462  8977 net.cpp:411] rpn_cls_prob_reshape -> rpn_cls_prob_reshape
I0328 08:10:54.471506  8977 net.cpp:150] Setting up rpn_cls_prob_reshape
I0328 08:10:54.471526  8977 net.cpp:157] Top shape: 1 18 15 15 (4050)
I0328 08:10:54.471534  8977 net.cpp:165] Memory required for data: 21835056
I0328 08:10:54.471546  8977 layer_factory.hpp:77] Creating layer proposal
I0328 08:10:54.474328  8977 net.cpp:106] Creating Layer proposal
I0328 08:10:54.474359  8977 net.cpp:454] proposal <- rpn_cls_prob_reshape
I0328 08:10:54.474377  8977 net.cpp:454] proposal <- rpn_bbox_pred
I0328 08:10:54.474391  8977 net.cpp:454] proposal <- im_info
I0328 08:10:54.474408  8977 net.cpp:411] proposal -> rois
I0328 08:10:54.475529  8977 net.cpp:150] Setting up proposal
I0328 08:10:54.475548  8977 net.cpp:157] Top shape: 1 5 (5)
I0328 08:10:54.475560  8977 net.cpp:165] Memory required for data: 21835076
I0328 08:10:54.475574  8977 layer_factory.hpp:77] Creating layer roi_pool_conv5
I0328 08:10:54.475594  8977 net.cpp:106] Creating Layer roi_pool_conv5
I0328 08:10:54.475607  8977 net.cpp:454] roi_pool_conv5 <- conv5_relu5_0_split_1
I0328 08:10:54.475617  8977 net.cpp:454] roi_pool_conv5 <- rois
I0328 08:10:54.475627  8977 net.cpp:411] roi_pool_conv5 -> roi_pool_conv5
I0328 08:10:54.475642  8977 roi_pooling_layer.cpp:30] Spatial scale: 0.0625
I0328 08:10:54.475736  8977 net.cpp:150] Setting up roi_pool_conv5
I0328 08:10:54.475751  8977 net.cpp:157] Top shape: 1 256 6 6 (9216)
I0328 08:10:54.475757  8977 net.cpp:165] Memory required for data: 21871940
I0328 08:10:54.475764  8977 layer_factory.hpp:77] Creating layer fc6
I0328 08:10:54.475777  8977 net.cpp:106] Creating Layer fc6
I0328 08:10:54.475785  8977 net.cpp:454] fc6 <- roi_pool_conv5
I0328 08:10:54.475795  8977 net.cpp:411] fc6 -> fc6
I0328 08:10:54.580276  8977 net.cpp:150] Setting up fc6
I0328 08:10:54.580305  8977 net.cpp:157] Top shape: 1 4096 (4096)
I0328 08:10:54.580309  8977 net.cpp:165] Memory required for data: 21888324
I0328 08:10:54.580338  8977 layer_factory.hpp:77] Creating layer relu6
I0328 08:10:54.580353  8977 net.cpp:106] Creating Layer relu6
I0328 08:10:54.580360  8977 net.cpp:454] relu6 <- fc6
I0328 08:10:54.580369  8977 net.cpp:397] relu6 -> fc6 (in-place)
I0328 08:10:54.580382  8977 net.cpp:150] Setting up relu6
I0328 08:10:54.580406  8977 net.cpp:157] Top shape: 1 4096 (4096)
I0328 08:10:54.580411  8977 net.cpp:165] Memory required for data: 21904708
I0328 08:10:54.580416  8977 layer_factory.hpp:77] Creating layer drop6
I0328 08:10:54.580431  8977 net.cpp:106] Creating Layer drop6
I0328 08:10:54.580435  8977 net.cpp:454] drop6 <- fc6
I0328 08:10:54.580441  8977 net.cpp:397] drop6 -> fc6 (in-place)
I0328 08:10:54.580468  8977 net.cpp:150] Setting up drop6
I0328 08:10:54.580474  8977 net.cpp:157] Top shape: 1 4096 (4096)
I0328 08:10:54.580477  8977 net.cpp:165] Memory required for data: 21921092
I0328 08:10:54.580480  8977 layer_factory.hpp:77] Creating layer fc7
I0328 08:10:54.580487  8977 net.cpp:106] Creating Layer fc7
I0328 08:10:54.580492  8977 net.cpp:454] fc7 <- fc6
I0328 08:10:54.580497  8977 net.cpp:411] fc7 -> fc7
I0328 08:10:54.623116  8977 net.cpp:150] Setting up fc7
I0328 08:10:54.623142  8977 net.cpp:157] Top shape: 1 4096 (4096)
I0328 08:10:54.623147  8977 net.cpp:165] Memory required for data: 21937476
I0328 08:10:54.623157  8977 layer_factory.hpp:77] Creating layer relu7
I0328 08:10:54.623167  8977 net.cpp:106] Creating Layer relu7
I0328 08:10:54.623172  8977 net.cpp:454] relu7 <- fc7
I0328 08:10:54.623179  8977 net.cpp:397] relu7 -> fc7 (in-place)
I0328 08:10:54.623188  8977 net.cpp:150] Setting up relu7
I0328 08:10:54.623193  8977 net.cpp:157] Top shape: 1 4096 (4096)
I0328 08:10:54.623195  8977 net.cpp:165] Memory required for data: 21953860
I0328 08:10:54.623199  8977 layer_factory.hpp:77] Creating layer drop7
I0328 08:10:54.623206  8977 net.cpp:106] Creating Layer drop7
I0328 08:10:54.623209  8977 net.cpp:454] drop7 <- fc7
I0328 08:10:54.623214  8977 net.cpp:397] drop7 -> fc7 (in-place)
I0328 08:10:54.623234  8977 net.cpp:150] Setting up drop7
I0328 08:10:54.623239  8977 net.cpp:157] Top shape: 1 4096 (4096)
I0328 08:10:54.623242  8977 net.cpp:165] Memory required for data: 21970244
I0328 08:10:54.623245  8977 layer_factory.hpp:77] Creating layer fc7_drop7_0_split
I0328 08:10:54.623251  8977 net.cpp:106] Creating Layer fc7_drop7_0_split
I0328 08:10:54.623255  8977 net.cpp:454] fc7_drop7_0_split <- fc7
I0328 08:10:54.623261  8977 net.cpp:411] fc7_drop7_0_split -> fc7_drop7_0_split_0
I0328 08:10:54.623267  8977 net.cpp:411] fc7_drop7_0_split -> fc7_drop7_0_split_1
I0328 08:10:54.623299  8977 net.cpp:150] Setting up fc7_drop7_0_split
I0328 08:10:54.623304  8977 net.cpp:157] Top shape: 1 4096 (4096)
I0328 08:10:54.623309  8977 net.cpp:157] Top shape: 1 4096 (4096)
I0328 08:10:54.623312  8977 net.cpp:165] Memory required for data: 22003012
I0328 08:10:54.623316  8977 layer_factory.hpp:77] Creating layer cls_score
I0328 08:10:54.623327  8977 net.cpp:106] Creating Layer cls_score
I0328 08:10:54.623330  8977 net.cpp:454] cls_score <- fc7_drop7_0_split_0
I0328 08:10:54.623337  8977 net.cpp:411] cls_score -> cls_score
I0328 08:10:54.623421  8977 net.cpp:150] Setting up cls_score
I0328 08:10:54.623427  8977 net.cpp:157] Top shape: 1 2 (2)
I0328 08:10:54.623431  8977 net.cpp:165] Memory required for data: 22003020
I0328 08:10:54.623436  8977 layer_factory.hpp:77] Creating layer bbox_pred
I0328 08:10:54.623442  8977 net.cpp:106] Creating Layer bbox_pred
I0328 08:10:54.623446  8977 net.cpp:454] bbox_pred <- fc7_drop7_0_split_1
I0328 08:10:54.623451  8977 net.cpp:411] bbox_pred -> bbox_pred
I0328 08:10:54.624267  8977 net.cpp:150] Setting up bbox_pred
I0328 08:10:54.624279  8977 net.cpp:157] Top shape: 1 8 (8)
I0328 08:10:54.624282  8977 net.cpp:165] Memory required for data: 22003052
I0328 08:10:54.624289  8977 layer_factory.hpp:77] Creating layer cls_prob
I0328 08:10:54.624297  8977 net.cpp:106] Creating Layer cls_prob
I0328 08:10:54.624301  8977 net.cpp:454] cls_prob <- cls_score
I0328 08:10:54.624307  8977 net.cpp:411] cls_prob -> cls_prob
I0328 08:10:54.624356  8977 net.cpp:150] Setting up cls_prob
I0328 08:10:54.624364  8977 net.cpp:157] Top shape: 1 2 (2)
I0328 08:10:54.624368  8977 net.cpp:165] Memory required for data: 22003060
I0328 08:10:54.624373  8977 net.cpp:228] cls_prob does not need backward computation.
I0328 08:10:54.624378  8977 net.cpp:228] bbox_pred does not need backward computation.
I0328 08:10:54.624384  8977 net.cpp:228] cls_score does not need backward computation.
I0328 08:10:54.624389  8977 net.cpp:228] fc7_drop7_0_split does not need backward computation.
…
