…
snapshot_prefix: "zf_faster_rcnn"
average_loss: 100
iter_size: 2
I0328 23:48:57.899605 27848 solver.cpp:81] Creating training net from train_net file: /home/sgabriel/py-faster-rcnn/models/pascal_voc/ZF/faster_rcnn_end2end/train.prototxt
I0328 23:48:57.901718 27848 net.cpp:49] Initializing net from parameters: 
name: "ZF"
state {
  phase: TRAIN
}
layer {
  name: "input-data"
  type: "Python"
  top: "data"
  top: "im_info"
  top: "gt_boxes"
  python_param {
    module: "roi_data_layer.layer"
    layer: "RoIDataLayer"
    param_str: "\'num_classes\': 2"
  }
}
layer {
  name: "conv1"
  type: "Convolution"
  bottom: "data"
  top: "conv1"
  param {
    lr_mult: 0
  }
  param {
    lr_mult: 0
  }
  convolution_param {
    num_output: 96
    pad: 3
    kernel_size: 7
    stride: 2
  }
}
layer {
  name: "relu1"
  type: "ReLU"
  bottom: "conv1"
  top: "conv1"
}
layer {
  name: "norm1"
  type: "LRN"
  bottom: "conv1"
  top: "norm1"
  lrn_param {
    local_size: 3
    alpha: 5e-05
    beta: 0.75
    norm_region: WITHIN_CHANNEL
    engine: CAFFE
  }
}
layer {
  name: "pool1"
  type: "Pooling"
  bottom: "norm1"
  top: "pool1"
  pooling_param {
    pool: MAX
    kernel_size: 3
    stride: 2
    pad: 1
  }
}
layer {
  name: "conv2"
  type: "Convolution"
  bottom: "pool1"
  top: "conv2"
  param {
    lr_mult: 0
  }
  param {
    lr_mult: 0
  }
  convolution_param {
    num_output: 256
    pad: 2
    kernel_size: 5
    stride: 2
  }
}
layer {
  name: "relu2"
  type: "ReLU"
  bottom: "conv2"
  top: "conv2"
}
layer {
  name: "norm2"
  type: "LRN"
  bottom: "conv2"
  top: "norm2"
  lrn_param {
    local_size: 3
    alpha: 5e-05
    beta: 0.75
    norm_region: WITHIN_CHANNEL
    engine: CAFFE
  }
}
layer {
  name: "pool2"
  type: "Pooling"
  bottom: "norm2"
  top: "pool2"
  pooling_param {
    pool: MAX
    kernel_size: 3
    stride: 2
    pad: 1
  }
}
layer {
  name: "conv3"
  type: "Convolution"
  bottom: "pool2"
  top: "conv3"
  param {
    lr_mult: 0
  }
  param {
    lr_mult: 0
  }
  convolution_param {
    num_output: 384
    pad: 1
    kernel_size: 3
    stride: 1
  }
}
layer {
  name: "relu3"
  type: "ReLU"
  bottom: "conv3"
  top: "conv3"
}
layer {
  name: "conv4"
  type: "Convolution"
  bottom: "conv3"
  top: "conv4"
  param {
    lr_mult: 0
  }
  param {
    lr_mult: 0
  }
  convolution_param {
    num_output: 384
    pad: 1
    kernel_size: 3
    stride: 1
  }
}
layer {
  name: "relu4"
  type: "ReLU"
  bottom: "conv4"
  top: "conv4"
}
layer {
  name: "conv5"
  type: "Convolution"
  bottom: "conv4"
  top: "conv5"
  param {
    lr_mult: 0
  }
  param {
    lr_mult: 0
  }
  convolution_param {
    num_output: 256
    pad: 1
    kernel_size: 3
    stride: 1
  }
}
layer {
  name: "relu5"
  type: "ReLU"
  bottom: "conv5"
  top: "conv5"
}
layer {
  name: "rpn_conv/3x3"
  type: "Convolution"
  bottom: "conv5"
  top: "rpn/output"
  param {
    lr_mult: 1
  }
  param {
    lr_mult: 2
  }
  convolution_param {
    num_output: 256
    pad: 1
    kernel_size: 3
    stride: 1
    weight_filler {
      type: "gaussian"
      std: 0.01
    }
    bias_filler {
      type: "constant"
      value: 0
    }
  }
}
layer {
  name: "rpn_relu/3x3"
  type: "ReLU"
  bottom: "rpn/output"
  top: "rpn/output"
}
layer {
  name: "rpn_cls_score"
  type: "Convolution"
  bottom: "rpn/output"
  top: "rpn_cls_score"
  param {
    lr_mult: 1
  }
  param {
    lr_mult: 2
  }
  convolution_param {
    num_output: 18
    pad: 0
    kernel_size: 1
    stride: 1
    weight_filler {
      type: "gaussian"
      std: 0.01
    }
    bias_filler {
      type: "constant"
      value: 0
    }
  }
}
layer {
  name: "rpn_bbox_pred"
  type: "Convolution"
  bottom: "rpn/output"
  top: "rpn_bbox_pred"
  param {
    lr_mult: 1
  }
  param {
    lr_mult: 2
  }
  convolution_param {
    num_output: 36
    pad: 0
    kernel_size: 1
    stride: 1
    weight_filler {
      type: "gaussian"
      std: 0.01
    }
    bias_filler {
      type: "constant"
      value: 0
    }
  }
}
layer {
  name: "rpn_cls_score_reshape"
  type: "Reshape"
  bottom: "rpn_cls_score"
  top: "rpn_cls_score_reshape"
  reshape_param {
    shape {
      dim: 0
      dim: 2
      dim: -1
      dim: 0
    }
  }
}
layer {
  name: "rpn-data"
  type: "Python"
  bottom: "rpn_cls_score"
  bottom: "gt_boxes"
  bottom: "im_info"
  bottom: "data"
  top: "rpn_labels"
  top: "rpn_bbox_targets"
  top: "rpn_bbox_inside_weights"
  top: "rpn_bbox_outside_weights"
  python_param {
    module: "rpn.anchor_target_layer"
    layer: "AnchorTargetLayer"
    param_str: "\'feat_stride\': 16"
  }
}
layer {
  name: "rpn_loss_cls"
  type: "SoftmaxWithLoss"
  bottom: "rpn_cls_score_reshape"
  bottom: "rpn_labels"
  top: "rpn_cls_loss"
  loss_weight: 1
  propagate_down: true
  propagate_down: false
  loss_param {
    ignore_label: -1
    normalize: true
  }
}
layer {
  name: "rpn_loss_bbox"
  type: "SmoothL1Loss"
  bottom: "rpn_bbox_pred"
  bottom: "rpn_bbox_targets"
  bottom: "rpn_bbox_inside_weights"
  bottom: "rpn_bbox_outside_weights"
  top: "rpn_loss_bbox"
  loss_weight: 1
  smooth_l1_loss_param {
    sigma: 3
  }
}
layer {
  name: "rpn_cls_prob"
  type: "Softmax"
  bottom: "rpn_cls_score_reshape"
  top: "rpn_cls_prob"
}
layer {
  name: "rpn_cls_prob_reshape"
  type: "Reshape"
  bottom: "rpn_cls_prob"
  top: "rpn_cls_prob_reshape"
  reshape_param {
    shape {
      dim: 0
      dim: 18
      dim: -1
      dim: 0
    }
  }
}
layer {
  name: "proposal"
  type: "Python"
  bottom: "rpn_cls_prob_reshape"
  bottom: "rpn_bbox_pred"
  bottom: "im_info"
  top: "rpn_rois"
  python_param {
    module: "rpn.proposal_layer"
    layer: "ProposalLayer"
    param_str: "\'feat_stride\': 16"
  }
}
layer {
  name: "roi-data"
  type: "Python"
  bottom: "rpn_rois"
  bottom: "gt_boxes"
  top: "rois"
  top: "labels"
  top: "bbox_targets"
  top: "bbox_inside_weights"
  top: "bbox_outside_weights"
  python_param {
    module: "rpn.proposal_target_layer"
    layer: "ProposalTargetLayer"
    param_str: "\'num_classes\': 2"
  }
}
layer {
  name: "roi_pool_conv5"
  type: "ROIPooling"
  bottom: "conv5"
  bottom: "rois"
  top: "roi_pool_conv5"
  roi_pooling_param {
    pooled_h: 6
    pooled_w: 6
    spatial_scale: 0.0625
  }
}
layer {
  name: "fc6"
  type: "InnerProduct"
  bottom: "roi_pool_conv5"
  top: "fc6"
  param {
    lr_mult: 1
  }
  param {
    lr_mult: 2
  }
  inner_product_param {
    num_output: 4096
  }
}
layer {
  name: "relu6"
  type: "ReLU"
  bottom: "fc6"
  top: "fc6"
}
layer {
  name: "drop6"
  type: "Dropout"
  bottom: "fc6"
  top: "fc6"
  dropout_param {
    dropout_ratio: 0.5
    scale_train: false
  }
}
layer {
  name: "fc7"
  type: "InnerProduct"
  bottom: "fc6"
  top: "fc7"
  param {
    lr_mult: 0
  }
  param {
    lr_mult: 0
  }
  inner_product_param {
    num_output: 4096
  }
}
layer {
  name: "relu7"
  type: "ReLU"
  bottom: "fc7"
  top: "fc7"
}
layer {
  name: "drop7"
  type: "Dropout"
  bottom: "fc7"
  top: "fc7"
  dropout_param {
    dropout_ratio: 0.5
    scale_train: false
  }
}
layer {
  name: "cls_score"
  type: "InnerProduct"
  bottom: "fc7"
  top: "cls_score"
  param {
    lr_mult: 1
  }
  param {
    lr_mult: 2
  }
  inner_product_param {
    num_output: 2
    weight_filler {
      type: "gaussian"
      std: 0.01
    }
    bias_filler {
      type: "constant"
      value: 0
    }
  }
}
layer {
  name: "bbox_pred"
  type: "InnerProduct"
  bottom: "fc7"
  top: "bbox_pred"
  param {
    lr_mult: 1
  }
  param {
    lr_mult: 2
  }
  inner_product_param {
    num_output: 8
    weight_filler {
      type: "gaussian"
      std: 0.001
    }
    bias_filler {
      type: "constant"
      value: 0
    }
  }
}
layer {
  name: "loss_cls"
  type: "SoftmaxWithLoss"
  bottom: "cls_score"
  bottom: "labels"
  top: "cls_loss"
  loss_weight: 1
  propagate_down: true
  propagate_down: false
  loss_param {
    ignore_label: -1
    normalize: true
  }
}
layer {
  name: "loss_bbox"
  type: "SmoothL1Loss"
  bottom: "bbox_pred"
  bottom: "bbox_targets"
  bottom: "bbox_inside_weights"
  bottom: "bbox_outside_weights"
  top: "bbox_loss"
  loss_weight: 1
}
I0328 23:48:57.901968 27848 layer_factory.hpp:77] Creating layer input-data
I0328 23:48:57.927337 27848 net.cpp:106] Creating Layer input-data
I0328 23:48:57.927374 27848 net.cpp:411] input-data -> data
I0328 23:48:57.927403 27848 net.cpp:411] input-data -> im_info
I0328 23:48:57.927412 27848 net.cpp:411] input-data -> gt_boxes
RoiDataLayer: name_to_top: {'gt_boxes': 2, 'data': 0, 'im_info': 1}
I0328 23:48:57.946177 27848 net.cpp:150] Setting up input-data
I0328 23:48:57.946208 27848 net.cpp:157] Top shape: 1 3 600 600 (1080000)
I0328 23:48:57.946218 27848 net.cpp:157] Top shape: 1 3 (3)
I0328 23:48:57.946225 27848 net.cpp:157] Top shape: 1 4 (4)
I0328 23:48:57.946231 27848 net.cpp:165] Memory required for data: 4320028
I0328 23:48:57.946241 27848 layer_factory.hpp:77] Creating layer data_input-data_0_split
I0328 23:48:57.946257 27848 net.cpp:106] Creating Layer data_input-data_0_split
I0328 23:48:57.946262 27848 net.cpp:454] data_input-data_0_split <- data
I0328 23:48:57.946275 27848 net.cpp:411] data_input-data_0_split -> data_input-data_0_split_0
I0328 23:48:57.946291 27848 net.cpp:411] data_input-data_0_split -> data_input-data_0_split_1
I0328 23:48:57.946354 27848 net.cpp:150] Setting up data_input-data_0_split
I0328 23:48:57.946367 27848 net.cpp:157] Top shape: 1 3 600 600 (1080000)
I0328 23:48:57.946377 27848 net.cpp:157] Top shape: 1 3 600 600 (1080000)
I0328 23:48:57.946382 27848 net.cpp:165] Memory required for data: 12960028
I0328 23:48:57.946388 27848 layer_factory.hpp:77] Creating layer im_info_input-data_1_split
I0328 23:48:57.946399 27848 net.cpp:106] Creating Layer im_info_input-data_1_split
I0328 23:48:57.946409 27848 net.cpp:454] im_info_input-data_1_split <- im_info
I0328 23:48:57.946419 27848 net.cpp:411] im_info_input-data_1_split -> im_info_input-data_1_split_0
I0328 23:48:57.946430 27848 net.cpp:411] im_info_input-data_1_split -> im_info_input-data_1_split_1
I0328 23:48:57.946485 27848 net.cpp:150] Setting up im_info_input-data_1_split
I0328 23:48:57.946497 27848 net.cpp:157] Top shape: 1 3 (3)
I0328 23:48:57.946503 27848 net.cpp:157] Top shape: 1 3 (3)
I0328 23:48:57.946507 27848 net.cpp:165] Memory required for data: 12960052
I0328 23:48:57.946511 27848 layer_factory.hpp:77] Creating layer gt_boxes_input-data_2_split
I0328 23:48:57.946521 27848 net.cpp:106] Creating Layer gt_boxes_input-data_2_split
I0328 23:48:57.946527 27848 net.cpp:454] gt_boxes_input-data_2_split <- gt_boxes
I0328 23:48:57.946537 27848 net.cpp:411] gt_boxes_input-data_2_split -> gt_boxes_input-data_2_split_0
I0328 23:48:57.946547 27848 net.cpp:411] gt_boxes_input-data_2_split -> gt_boxes_input-data_2_split_1
I0328 23:48:57.946614 27848 net.cpp:150] Setting up gt_boxes_input-data_2_split
I0328 23:48:57.946625 27848 net.cpp:157] Top shape: 1 4 (4)
I0328 23:48:57.946635 27848 net.cpp:157] Top shape: 1 4 (4)
I0328 23:48:57.946640 27848 net.cpp:165] Memory required for data: 12960084
I0328 23:48:57.946646 27848 layer_factory.hpp:77] Creating layer conv1
I0328 23:48:57.946669 27848 net.cpp:106] Creating Layer conv1
I0328 23:48:57.946676 27848 net.cpp:454] conv1 <- data_input-data_0_split_0
I0328 23:48:57.946696 27848 net.cpp:411] conv1 -> conv1
I0328 23:48:57.948480 27848 net.cpp:150] Setting up conv1
I0328 23:48:57.948498 27848 net.cpp:157] Top shape: 1 96 300 300 (8640000)
I0328 23:48:57.948504 27848 net.cpp:165] Memory required for data: 47520084
I0328 23:48:57.948529 27848 layer_factory.hpp:77] Creating layer relu1
I0328 23:48:57.948542 27848 net.cpp:106] Creating Layer relu1
I0328 23:48:57.948549 27848 net.cpp:454] relu1 <- conv1
I0328 23:48:57.948560 27848 net.cpp:397] relu1 -> conv1 (in-place)
I0328 23:48:57.948571 27848 net.cpp:150] Setting up relu1
I0328 23:48:57.948585 27848 net.cpp:157] Top shape: 1 96 300 300 (8640000)
I0328 23:48:57.948591 27848 net.cpp:165] Memory required for data: 82080084
I0328 23:48:57.948597 27848 layer_factory.hpp:77] Creating layer norm1
I0328 23:48:57.948607 27848 net.cpp:106] Creating Layer norm1
I0328 23:48:57.948612 27848 net.cpp:454] norm1 <- conv1
I0328 23:48:57.948622 27848 net.cpp:411] norm1 -> norm1
I0328 23:48:57.948740 27848 net.cpp:150] Setting up norm1
I0328 23:48:57.948750 27848 net.cpp:157] Top shape: 1 96 300 300 (8640000)
I0328 23:48:57.948756 27848 net.cpp:165] Memory required for data: 116640084
I0328 23:48:57.948761 27848 layer_factory.hpp:77] Creating layer pool1
I0328 23:48:57.948774 27848 net.cpp:106] Creating Layer pool1
I0328 23:48:57.948779 27848 net.cpp:454] pool1 <- norm1
I0328 23:48:57.948787 27848 net.cpp:411] pool1 -> pool1
I0328 23:48:57.948828 27848 net.cpp:150] Setting up pool1
I0328 23:48:57.948837 27848 net.cpp:157] Top shape: 1 96 151 151 (2188896)
I0328 23:48:57.948843 27848 net.cpp:165] Memory required for data: 125395668
I0328 23:48:57.948848 27848 layer_factory.hpp:77] Creating layer conv2
I0328 23:48:57.948859 27848 net.cpp:106] Creating Layer conv2
I0328 23:48:57.948864 27848 net.cpp:454] conv2 <- pool1
I0328 23:48:57.948873 27848 net.cpp:411] conv2 -> conv2
I0328 23:48:57.950784 27848 net.cpp:150] Setting up conv2
I0328 23:48:57.950799 27848 net.cpp:157] Top shape: 1 256 76 76 (1478656)
I0328 23:48:57.950806 27848 net.cpp:165] Memory required for data: 131310292
I0328 23:48:57.950819 27848 layer_factory.hpp:77] Creating layer relu2
I0328 23:48:57.950832 27848 net.cpp:106] Creating Layer relu2
I0328 23:48:57.950839 27848 net.cpp:454] relu2 <- conv2
I0328 23:48:57.950846 27848 net.cpp:397] relu2 -> conv2 (in-place)
I0328 23:48:57.950856 27848 net.cpp:150] Setting up relu2
I0328 23:48:57.950862 27848 net.cpp:157] Top shape: 1 256 76 76 (1478656)
I0328 23:48:57.950867 27848 net.cpp:165] Memory required for data: 137224916
I0328 23:48:57.950872 27848 layer_factory.hpp:77] Creating layer norm2
I0328 23:48:57.950883 27848 net.cpp:106] Creating Layer norm2
I0328 23:48:57.950887 27848 net.cpp:454] norm2 <- conv2
I0328 23:48:57.950896 27848 net.cpp:411] norm2 -> norm2
I0328 23:48:57.950989 27848 net.cpp:150] Setting up norm2
I0328 23:48:57.950999 27848 net.cpp:157] Top shape: 1 256 76 76 (1478656)
I0328 23:48:57.951004 27848 net.cpp:165] Memory required for data: 143139540
I0328 23:48:57.951009 27848 layer_factory.hpp:77] Creating layer pool2
I0328 23:48:57.951019 27848 net.cpp:106] Creating Layer pool2
I0328 23:48:57.951022 27848 net.cpp:454] pool2 <- norm2
I0328 23:48:57.951030 27848 net.cpp:411] pool2 -> pool2
I0328 23:48:57.951066 27848 net.cpp:150] Setting up pool2
I0328 23:48:57.951073 27848 net.cpp:157] Top shape: 1 256 39 39 (389376)
I0328 23:48:57.951081 27848 net.cpp:165] Memory required for data: 144697044
I0328 23:48:57.951086 27848 layer_factory.hpp:77] Creating layer conv3
I0328 23:48:57.951100 27848 net.cpp:106] Creating Layer conv3
I0328 23:48:57.951107 27848 net.cpp:454] conv3 <- pool2
I0328 23:48:57.951117 27848 net.cpp:411] conv3 -> conv3
I0328 23:48:57.955137 27848 net.cpp:150] Setting up conv3
I0328 23:48:57.955157 27848 net.cpp:157] Top shape: 1 384 39 39 (584064)
I0328 23:48:57.955163 27848 net.cpp:165] Memory required for data: 147033300
I0328 23:48:57.955179 27848 layer_factory.hpp:77] Creating layer relu3
I0328 23:48:57.955195 27848 net.cpp:106] Creating Layer relu3
I0328 23:48:57.955214 27848 net.cpp:454] relu3 <- conv3
I0328 23:48:57.955230 27848 net.cpp:397] relu3 -> conv3 (in-place)
I0328 23:48:57.955245 27848 net.cpp:150] Setting up relu3
I0328 23:48:57.955252 27848 net.cpp:157] Top shape: 1 384 39 39 (584064)
I0328 23:48:57.955256 27848 net.cpp:165] Memory required for data: 149369556
I0328 23:48:57.955262 27848 layer_factory.hpp:77] Creating layer conv4
I0328 23:48:57.955279 27848 net.cpp:106] Creating Layer conv4
I0328 23:48:57.955296 27848 net.cpp:454] conv4 <- conv3
I0328 23:48:57.955307 27848 net.cpp:411] conv4 -> conv4
I0328 23:48:57.959003 27848 net.cpp:150] Setting up conv4
I0328 23:48:57.959024 27848 net.cpp:157] Top shape: 1 384 39 39 (584064)
I0328 23:48:57.959029 27848 net.cpp:165] Memory required for data: 151705812
I0328 23:48:57.959048 27848 layer_factory.hpp:77] Creating layer relu4
I0328 23:48:57.959064 27848 net.cpp:106] Creating Layer relu4
I0328 23:48:57.959074 27848 net.cpp:454] relu4 <- conv4
I0328 23:48:57.959082 27848 net.cpp:397] relu4 -> conv4 (in-place)
I0328 23:48:57.959094 27848 net.cpp:150] Setting up relu4
I0328 23:48:57.959105 27848 net.cpp:157] Top shape: 1 384 39 39 (584064)
I0328 23:48:57.959110 27848 net.cpp:165] Memory required for data: 154042068
I0328 23:48:57.959113 27848 layer_factory.hpp:77] Creating layer conv5
I0328 23:48:57.959131 27848 net.cpp:106] Creating Layer conv5
I0328 23:48:57.959136 27848 net.cpp:454] conv5 <- conv4
I0328 23:48:57.959143 27848 net.cpp:411] conv5 -> conv5
I0328 23:48:57.962018 27848 net.cpp:150] Setting up conv5
I0328 23:48:57.962038 27848 net.cpp:157] Top shape: 1 256 39 39 (389376)
I0328 23:48:57.962044 27848 net.cpp:165] Memory required for data: 155599572
I0328 23:48:57.962064 27848 layer_factory.hpp:77] Creating layer relu5
I0328 23:48:57.962074 27848 net.cpp:106] Creating Layer relu5
I0328 23:48:57.962080 27848 net.cpp:454] relu5 <- conv5
I0328 23:48:57.962088 27848 net.cpp:397] relu5 -> conv5 (in-place)
I0328 23:48:57.962100 27848 net.cpp:150] Setting up relu5
I0328 23:48:57.962106 27848 net.cpp:157] Top shape: 1 256 39 39 (389376)
I0328 23:48:57.962111 27848 net.cpp:165] Memory required for data: 157157076
I0328 23:48:57.962116 27848 layer_factory.hpp:77] Creating layer conv5_relu5_0_split
I0328 23:48:57.962126 27848 net.cpp:106] Creating Layer conv5_relu5_0_split
I0328 23:48:57.962129 27848 net.cpp:454] conv5_relu5_0_split <- conv5
I0328 23:48:57.962142 27848 net.cpp:411] conv5_relu5_0_split -> conv5_relu5_0_split_0
I0328 23:48:57.962152 27848 net.cpp:411] conv5_relu5_0_split -> conv5_relu5_0_split_1
I0328 23:48:57.962199 27848 net.cpp:150] Setting up conv5_relu5_0_split
I0328 23:48:57.962208 27848 net.cpp:157] Top shape: 1 256 39 39 (389376)
I0328 23:48:57.962213 27848 net.cpp:157] Top shape: 1 256 39 39 (389376)
I0328 23:48:57.962229 27848 net.cpp:165] Memory required for data: 160272084
I0328 23:48:57.962235 27848 layer_factory.hpp:77] Creating layer rpn_conv/3x3
I0328 23:48:57.962257 27848 net.cpp:106] Creating Layer rpn_conv/3x3
I0328 23:48:57.962265 27848 net.cpp:454] rpn_conv/3x3 <- conv5_relu5_0_split_0
I0328 23:48:57.962285 27848 net.cpp:411] rpn_conv/3x3 -> rpn/output
I0328 23:48:57.975093 27848 net.cpp:150] Setting up rpn_conv/3x3
I0328 23:48:57.975123 27848 net.cpp:157] Top shape: 1 256 39 39 (389376)
I0328 23:48:57.975127 27848 net.cpp:165] Memory required for data: 161829588
I0328 23:48:57.975137 27848 layer_factory.hpp:77] Creating layer rpn_relu/3x3
I0328 23:48:57.975153 27848 net.cpp:106] Creating Layer rpn_relu/3x3
I0328 23:48:57.975162 27848 net.cpp:454] rpn_relu/3x3 <- rpn/output
I0328 23:48:57.975172 27848 net.cpp:397] rpn_relu/3x3 -> rpn/output (in-place)
I0328 23:48:57.975184 27848 net.cpp:150] Setting up rpn_relu/3x3
I0328 23:48:57.975191 27848 net.cpp:157] Top shape: 1 256 39 39 (389376)
I0328 23:48:57.975196 27848 net.cpp:165] Memory required for data: 163387092
I0328 23:48:57.975203 27848 layer_factory.hpp:77] Creating layer rpn/output_rpn_relu/3x3_0_split
I0328 23:48:57.975211 27848 net.cpp:106] Creating Layer rpn/output_rpn_relu/3x3_0_split
I0328 23:48:57.975216 27848 net.cpp:454] rpn/output_rpn_relu/3x3_0_split <- rpn/output
I0328 23:48:57.975227 27848 net.cpp:411] rpn/output_rpn_relu/3x3_0_split -> rpn/output_rpn_relu/3x3_0_split_0
I0328 23:48:57.975236 27848 net.cpp:411] rpn/output_rpn_relu/3x3_0_split -> rpn/output_rpn_relu/3x3_0_split_1
I0328 23:48:57.975275 27848 net.cpp:150] Setting up rpn/output_rpn_relu/3x3_0_split
I0328 23:48:57.975282 27848 net.cpp:157] Top shape: 1 256 39 39 (389376)
I0328 23:48:57.975291 27848 net.cpp:157] Top shape: 1 256 39 39 (389376)
I0328 23:48:57.975296 27848 net.cpp:165] Memory required for data: 166502100
I0328 23:48:57.975301 27848 layer_factory.hpp:77] Creating layer rpn_cls_score
I0328 23:48:57.975323 27848 net.cpp:106] Creating Layer rpn_cls_score
I0328 23:48:57.975329 27848 net.cpp:454] rpn_cls_score <- rpn/output_rpn_relu/3x3_0_split_0
I0328 23:48:57.975338 27848 net.cpp:411] rpn_cls_score -> rpn_cls_score
I0328 23:48:57.975700 27848 net.cpp:150] Setting up rpn_cls_score
I0328 23:48:57.975718 27848 net.cpp:157] Top shape: 1 18 39 39 (27378)
I0328 23:48:57.975730 27848 net.cpp:165] Memory required for data: 166611612
I0328 23:48:57.975744 27848 layer_factory.hpp:77] Creating layer rpn_cls_score_rpn_cls_score_0_split
I0328 23:48:57.975755 27848 net.cpp:106] Creating Layer rpn_cls_score_rpn_cls_score_0_split
I0328 23:48:57.975762 27848 net.cpp:454] rpn_cls_score_rpn_cls_score_0_split <- rpn_cls_score
I0328 23:48:57.975772 27848 net.cpp:411] rpn_cls_score_rpn_cls_score_0_split -> rpn_cls_score_rpn_cls_score_0_split_0
I0328 23:48:57.975783 27848 net.cpp:411] rpn_cls_score_rpn_cls_score_0_split -> rpn_cls_score_rpn_cls_score_0_split_1
I0328 23:48:57.975832 27848 net.cpp:150] Setting up rpn_cls_score_rpn_cls_score_0_split
I0328 23:48:57.975841 27848 net.cpp:157] Top shape: 1 18 39 39 (27378)
I0328 23:48:57.975848 27848 net.cpp:157] Top shape: 1 18 39 39 (27378)
I0328 23:48:57.975853 27848 net.cpp:165] Memory required for data: 166830636
I0328 23:48:57.975860 27848 layer_factory.hpp:77] Creating layer rpn_bbox_pred
I0328 23:48:57.975878 27848 net.cpp:106] Creating Layer rpn_bbox_pred
I0328 23:48:57.975884 27848 net.cpp:454] rpn_bbox_pred <- rpn/output_rpn_relu/3x3_0_split_1
I0328 23:48:57.975898 27848 net.cpp:411] rpn_bbox_pred -> rpn_bbox_pred
I0328 23:48:57.976301 27848 net.cpp:150] Setting up rpn_bbox_pred
I0328 23:48:57.976311 27848 net.cpp:157] Top shape: 1 36 39 39 (54756)
I0328 23:48:57.976315 27848 net.cpp:165] Memory required for data: 167049660
I0328 23:48:57.976326 27848 layer_factory.hpp:77] Creating layer rpn_bbox_pred_rpn_bbox_pred_0_split
I0328 23:48:57.976339 27848 net.cpp:106] Creating Layer rpn_bbox_pred_rpn_bbox_pred_0_split
I0328 23:48:57.976356 27848 net.cpp:454] rpn_bbox_pred_rpn_bbox_pred_0_split <- rpn_bbox_pred
I0328 23:48:57.976368 27848 net.cpp:411] rpn_bbox_pred_rpn_bbox_pred_0_split -> rpn_bbox_pred_rpn_bbox_pred_0_split_0
I0328 23:48:57.976378 27848 net.cpp:411] rpn_bbox_pred_rpn_bbox_pred_0_split -> rpn_bbox_pred_rpn_bbox_pred_0_split_1
I0328 23:48:57.976428 27848 net.cpp:150] Setting up rpn_bbox_pred_rpn_bbox_pred_0_split
I0328 23:48:57.976436 27848 net.cpp:157] Top shape: 1 36 39 39 (54756)
I0328 23:48:57.976444 27848 net.cpp:157] Top shape: 1 36 39 39 (54756)
I0328 23:48:57.976450 27848 net.cpp:165] Memory required for data: 167487708
I0328 23:48:57.976456 27848 layer_factory.hpp:77] Creating layer rpn_cls_score_reshape
I0328 23:48:57.976480 27848 net.cpp:106] Creating Layer rpn_cls_score_reshape
I0328 23:48:57.976488 27848 net.cpp:454] rpn_cls_score_reshape <- rpn_cls_score_rpn_cls_score_0_split_0
I0328 23:48:57.976498 27848 net.cpp:411] rpn_cls_score_reshape -> rpn_cls_score_reshape
I0328 23:48:57.976542 27848 net.cpp:150] Setting up rpn_cls_score_reshape
I0328 23:48:57.976552 27848 net.cpp:157] Top shape: 1 2 351 39 (27378)
I0328 23:48:57.976554 27848 net.cpp:165] Memory required for data: 167597220
I0328 23:48:57.976559 27848 layer_factory.hpp:77] Creating layer rpn_cls_score_reshape_rpn_cls_score_reshape_0_split
I0328 23:48:57.976568 27848 net.cpp:106] Creating Layer rpn_cls_score_reshape_rpn_cls_score_reshape_0_split
I0328 23:48:57.976575 27848 net.cpp:454] rpn_cls_score_reshape_rpn_cls_score_reshape_0_split <- rpn_cls_score_reshape
I0328 23:48:57.976591 27848 net.cpp:411] rpn_cls_score_reshape_rpn_cls_score_reshape_0_split -> rpn_cls_score_reshape_rpn_cls_score_reshape_0_split_0
I0328 23:48:57.976608 27848 net.cpp:411] rpn_cls_score_reshape_rpn_cls_score_reshape_0_split -> rpn_cls_score_reshape_rpn_cls_score_reshape_0_split_1
I0328 23:48:57.976653 27848 net.cpp:150] Setting up rpn_cls_score_reshape_rpn_cls_score_reshape_0_split
I0328 23:48:57.976661 27848 net.cpp:157] Top shape: 1 2 351 39 (27378)
I0328 23:48:57.976667 27848 net.cpp:157] Top shape: 1 2 351 39 (27378)
I0328 23:48:57.976681 27848 net.cpp:165] Memory required for data: 167816244
I0328 23:48:57.976694 27848 layer_factory.hpp:77] Creating layer rpn-data
I0328 23:48:57.990764 27848 net.cpp:106] Creating Layer rpn-data
I0328 23:48:57.990784 27848 net.cpp:454] rpn-data <- rpn_cls_score_rpn_cls_score_0_split_1
I0328 23:48:57.990792 27848 net.cpp:454] rpn-data <- gt_boxes_input-data_2_split_0
I0328 23:48:57.990798 27848 net.cpp:454] rpn-data <- im_info_input-data_1_split_0
I0328 23:48:57.990803 27848 net.cpp:454] rpn-data <- data_input-data_0_split_1
I0328 23:48:57.990810 27848 net.cpp:411] rpn-data -> rpn_labels
I0328 23:48:57.990825 27848 net.cpp:411] rpn-data -> rpn_bbox_targets
I0328 23:48:57.990833 27848 net.cpp:411] rpn-data -> rpn_bbox_inside_weights
I0328 23:48:57.990840 27848 net.cpp:411] rpn-data -> rpn_bbox_outside_weights
I0328 23:48:57.992493 27848 net.cpp:150] Setting up rpn-data
I0328 23:48:57.992509 27848 net.cpp:157] Top shape: 1 1 351 39 (13689)
I0328 23:48:57.992516 27848 net.cpp:157] Top shape: 1 36 39 39 (54756)
I0328 23:48:57.992525 27848 net.cpp:157] Top shape: 1 36 39 39 (54756)
I0328 23:48:57.992529 27848 net.cpp:157] Top shape: 1 36 39 39 (54756)
I0328 23:48:57.992532 27848 net.cpp:165] Memory required for data: 168528072
I0328 23:48:57.992537 27848 layer_factory.hpp:77] Creating layer rpn_loss_cls
I0328 23:48:57.992552 27848 net.cpp:106] Creating Layer rpn_loss_cls
I0328 23:48:57.992557 27848 net.cpp:454] rpn_loss_cls <- rpn_cls_score_reshape_rpn_cls_score_reshape_0_split_0
I0328 23:48:57.992563 27848 net.cpp:454] rpn_loss_cls <- rpn_labels
…
I0328 23:48:57.993202 27848 net.cpp:157] Top shape: (1)
I0328 23:48:57.993206 27848 net.cpp:160]     with loss weight 1
I0328 23:48:57.993211 27848 net.cpp:165] Memory required for data: 168528080
I0328 23:48:57.993214 27848 layer_factory.hpp:77] Creating layer rpn_cls_prob
I0328 23:48:57.993221 27848 net.cpp:106] Creating Layer rpn_cls_prob
I0328 23:48:57.993224 27848 net.cpp:454] rpn_cls_prob <- rpn_cls_score_reshape_rpn_cls_score_reshape_0_split_1
I0328 23:48:57.993232 27848 net.cpp:411] rpn_cls_prob -> rpn_cls_prob
I0328 23:48:57.993286 27848 net.cpp:150] Setting up rpn_cls_prob
I0328 23:48:57.993293 27848 net.cpp:157] Top shape: 1 2 351 39 (27378)
I0328 23:48:57.993295 27848 net.cpp:165] Memory required for data: 168637592
I0328 23:48:57.993299 27848 layer_factory.hpp:77] Creating layer rpn_cls_prob_reshape
I0328 23:48:57.993314 27848 net.cpp:106] Creating Layer rpn_cls_prob_reshape
I0328 23:48:57.993317 27848 net.cpp:454] rpn_cls_prob_reshape <- rpn_cls_prob
I0328 23:48:57.993324 27848 net.cpp:411] rpn_cls_prob_reshape -> rpn_cls_prob_reshape
I0328 23:48:57.993348 27848 net.cpp:150] Setting up rpn_cls_prob_reshape
I0328 23:48:57.993355 27848 net.cpp:157] Top shape: 1 18 39 39 (27378)
I0328 23:48:57.993357 27848 net.cpp:165] Memory required for data: 168747104
I0328 23:48:57.993360 27848 layer_factory.hpp:77] Creating layer proposal
I0328 23:48:58.000998 27848 net.cpp:106] Creating Layer proposal
I0328 23:48:58.001011 27848 net.cpp:454] proposal <- rpn_cls_prob_reshape
I0328 23:48:58.001019 27848 net.cpp:454] proposal <- rpn_bbox_pred_rpn_bbox_pred_0_split_1
I0328 23:48:58.001024 27848 net.cpp:454] proposal <- im_info_input-data_1_split_1
I0328 23:48:58.001030 27848 net.cpp:411] proposal -> rpn_rois
I0328 23:48:58.017146 27848 net.cpp:150] Setting up proposal
I0328 23:48:58.017168 27848 net.cpp:157] Top shape: 1 5 (5)
I0328 23:48:58.017172 27848 net.cpp:165] Memory required for data: 168747124
I0328 23:48:58.017181 27848 layer_factory.hpp:77] Creating layer roi-data
I0328 23:48:58.019388 27848 net.cpp:106] Creating Layer roi-data
I0328 23:48:58.019402 27848 net.cpp:454] roi-data <- rpn_rois
I0328 23:48:58.019408 27848 net.cpp:454] roi-data <- gt_boxes_input-data_2_split_1
I0328 23:48:58.019424 27848 net.cpp:411] roi-data -> rois
I0328 23:48:58.019433 27848 net.cpp:411] roi-data -> labels
I0328 23:48:58.019440 27848 net.cpp:411] roi-data -> bbox_targets
I0328 23:48:58.019448 27848 net.cpp:411] roi-data -> bbox_inside_weights
I0328 23:48:58.019454 27848 net.cpp:411] roi-data -> bbox_outside_weights
I0328 23:48:58.020252 27848 net.cpp:150] Setting up roi-data
I0328 23:48:58.020267 27848 net.cpp:157] Top shape: 1 5 (5)
I0328 23:48:58.020272 27848 net.cpp:157] Top shape: 1 1 (1)
I0328 23:48:58.020277 27848 net.cpp:157] Top shape: 1 8 (8)
I0328 23:48:58.020280 27848 net.cpp:157] Top shape: 1 8 (8)
I0328 23:48:58.020285 27848 net.cpp:157] Top shape: 1 8 (8)
I0328 23:48:58.020288 27848 net.cpp:165] Memory required for data: 168747244
I0328 23:48:58.020293 27848 layer_factory.hpp:77] Creating layer roi_pool_conv5
I0328 23:48:58.020308 27848 net.cpp:106] Creating Layer roi_pool_conv5
I0328 23:48:58.020313 27848 net.cpp:454] roi_pool_conv5 <- conv5_relu5_0_split_1
I0328 23:48:58.020321 27848 net.cpp:454] roi_pool_conv5 <- rois
I0328 23:48:58.020328 27848 net.cpp:411] roi_pool_conv5 -> roi_pool_conv5
I0328 23:48:58.020339 27848 roi_pooling_layer.cpp:30] Spatial scale: 0.0625
I0328 23:48:58.020381 27848 net.cpp:150] Setting up roi_pool_conv5
I0328 23:48:58.020387 27848 net.cpp:157] Top shape: 1 256 6 6 (9216)
I0328 23:48:58.020390 27848 net.cpp:165] Memory required for data: 168784108
I0328 23:48:58.020393 27848 layer_factory.hpp:77] Creating layer fc6
I0328 23:48:58.020403 27848 net.cpp:106] Creating Layer fc6
I0328 23:48:58.020407 27848 net.cpp:454] fc6 <- roi_pool_conv5
I0328 23:48:58.020414 27848 net.cpp:411] fc6 -> fc6
I0328 23:48:58.128932 27848 net.cpp:150] Setting up fc6
I0328 23:48:58.128968 27848 net.cpp:157] Top shape: 1 4096 (4096)
I0328 23:48:58.128973 27848 net.cpp:165] Memory required for data: 168800492
I0328 23:48:58.128991 27848 layer_factory.hpp:77] Creating layer relu6
I0328 23:48:58.129004 27848 net.cpp:106] Creating Layer relu6
I0328 23:48:58.129009 27848 net.cpp:454] relu6 <- fc6
I0328 23:48:58.129017 27848 net.cpp:397] relu6 -> fc6 (in-place)
I0328 23:48:58.129029 27848 net.cpp:150] Setting up relu6
I0328 23:48:58.129034 27848 net.cpp:157] Top shape: 1 4096 (4096)
I0328 23:48:58.129037 27848 net.cpp:165] Memory required for data: 168816876
I0328 23:48:58.129041 27848 layer_factory.hpp:77] Creating layer drop6
I0328 23:48:58.129055 27848 net.cpp:106] Creating Layer drop6
I0328 23:48:58.129058 27848 net.cpp:454] drop6 <- fc6
I0328 23:48:58.129065 27848 net.cpp:397] drop6 -> fc6 (in-place)
I0328 23:48:58.129091 27848 net.cpp:150] Setting up drop6
I0328 23:48:58.129097 27848 net.cpp:157] Top shape: 1 4096 (4096)
I0328 23:48:58.129101 27848 net.cpp:165] Memory required for data: 168833260
I0328 23:48:58.129104 27848 layer_factory.hpp:77] Creating layer fc7
I0328 23:48:58.129113 27848 net.cpp:106] Creating Layer fc7
I0328 23:48:58.129117 27848 net.cpp:454] fc7 <- fc6
I0328 23:48:58.129124 27848 net.cpp:411] fc7 -> fc7
I0328 23:48:58.171999 27848 net.cpp:150] Setting up fc7
I0328 23:48:58.172032 27848 net.cpp:157] Top shape: 1 4096 (4096)
I0328 23:48:58.172039 27848 net.cpp:165] Memory required for data: 168849644
I0328 23:48:58.172051 27848 layer_factory.hpp:77] Creating layer relu7
I0328 23:48:58.172065 27848 net.cpp:106] Creating Layer relu7
I0328 23:48:58.172070 27848 net.cpp:454] relu7 <- fc7
I0328 23:48:58.172078 27848 net.cpp:397] relu7 -> fc7 (in-place)
I0328 23:48:58.172088 27848 net.cpp:150] Setting up relu7
I0328 23:48:58.172093 27848 net.cpp:157] Top shape: 1 4096 (4096)
I0328 23:48:58.172096 27848 net.cpp:165] Memory required for data: 168866028
I0328 23:48:58.172099 27848 layer_factory.hpp:77] Creating layer drop7
I0328 23:48:58.172107 27848 net.cpp:106] Creating Layer drop7
I0328 23:48:58.172111 27848 net.cpp:454] drop7 <- fc7
I0328 23:48:58.172116 27848 net.cpp:397] drop7 -> fc7 (in-place)
I0328 23:48:58.172137 27848 net.cpp:150] Setting up drop7
I0328 23:48:58.172142 27848 net.cpp:157] Top shape: 1 4096 (4096)
I0328 23:48:58.172145 27848 net.cpp:165] Memory required for data: 168882412
I0328 23:48:58.172149 27848 layer_factory.hpp:77] Creating layer fc7_drop7_0_split
I0328 23:48:58.172154 27848 net.cpp:106] Creating Layer fc7_drop7_0_split
I0328 23:48:58.172158 27848 net.cpp:454] fc7_drop7_0_split <- fc7
I0328 23:48:58.172163 27848 net.cpp:411] fc7_drop7_0_split -> fc7_drop7_0_split_0
I0328 23:48:58.172170 27848 net.cpp:411] fc7_drop7_0_split -> fc7_drop7_0_split_1
I0328 23:48:58.172204 27848 net.cpp:150] Setting up fc7_drop7_0_split
I0328 23:48:58.172209 27848 net.cpp:157] Top shape: 1 4096 (4096)
I0328 23:48:58.172214 27848 net.cpp:157] Top shape: 1 4096 (4096)
I0328 23:48:58.172217 27848 net.cpp:165] Memory required for data: 168915180
I0328 23:48:58.172220 27848 layer_factory.hpp:77] Creating layer cls_score
I0328 23:48:58.172229 27848 net.cpp:106] Creating Layer cls_score
I0328 23:48:58.172232 27848 net.cpp:454] cls_score <- fc7_drop7_0_split_0
I0328 23:48:58.172240 27848 net.cpp:411] cls_score -> cls_score
I0328 23:48:58.172461 27848 net.cpp:150] Setting up cls_score
I0328 23:48:58.172466 27848 net.cpp:157] Top shape: 1 2 (2)
I0328 23:48:58.172469 27848 net.cpp:165] Memory required for data: 168915188
I0328 23:48:58.172475 27848 layer_factory.hpp:77] Creating layer bbox_pred
I0328 23:48:58.172482 27848 net.cpp:106] Creating Layer bbox_pred
I0328 23:48:58.172487 27848 net.cpp:454] bbox_pred <- fc7_drop7_0_split_1
I0328 23:48:58.172493 27848 net.cpp:411] bbox_pred -> bbox_pred
I0328 23:48:58.173128 27848 net.cpp:150] Setting up bbox_pred
I0328 23:48:58.173135 27848 net.cpp:157] Top shape: 1 8 (8)
I0328 23:48:58.173140 27848 net.cpp:165] Memory required for data: 168915220
I0328 23:48:58.173146 27848 layer_factory.hpp:77] Creating layer loss_cls
I0328 23:48:58.173152 27848 net.cpp:106] Creating Layer loss_cls
I0328 23:48:58.173156 27848 net.cpp:454] loss_cls <- cls_score
I0328 23:48:58.173162 27848 net.cpp:454] loss_cls <- labels
I0328 23:48:58.173167 27848 net.cpp:411] loss_cls -> cls_loss
…
           'USE_FLIPPED': True,
           'USE_PREFETCH': False},
 'USE_GPU_NMS': False}
../../tools/test_net.py:80: RuntimeWarning: to-Python converter for boost::shared_ptr<caffe::Blob<float> > already registered; second conversion method ignored.
  caffe.set_mode_gpu()
WARNING: Logging before InitGoogleLogging() is written to STDERR
I0328 23:49:05.305297 27882 net.cpp:49] Initializing net from parameters: 
name: "ZF"
input: "data"
input: "im_info"
state {
  phase: TEST
}
input_shape {
  dim: 1
  dim: 3
  dim: 224
  dim: 224
}
input_shape {
  dim: 1
  dim: 3
}
layer {
  name: "conv1"
  type: "Convolution"
  bottom: "data"
  top: "conv1"
  convolution_param {
    num_output: 96
    pad: 3
    kernel_size: 7
    stride: 2
  }
}
layer {
  name: "relu1"
  type: "ReLU"
  bottom: "conv1"
  top: "conv1"
}
layer {
  name: "norm1"
  type: "LRN"
  bottom: "conv1"
  top: "norm1"
  lrn_param {
    local_size: 3
    alpha: 5e-05
    beta: 0.75
    norm_region: WITHIN_CHANNEL
    engine: CAFFE
  }
}
layer {
  name: "pool1"
  type: "Pooling"
  bottom: "norm1"
  top: "pool1"
  pooling_param {
    pool: MAX
    kernel_size: 3
    stride: 2
    pad: 1
  }
}
layer {
  name: "conv2"
  type: "Convolution"
  bottom: "pool1"
  top: "conv2"
  convolution_param {
    num_output: 256
    pad: 2
    kernel_size: 5
    stride: 2
  }
}
layer {
  name: "relu2"
  type: "ReLU"
  bottom: "conv2"
  top: "conv2"
}
layer {
  name: "norm2"
  type: "LRN"
  bottom: "conv2"
  top: "norm2"
  lrn_param {
    local_size: 3
    alpha: 5e-05
    beta: 0.75
    norm_region: WITHIN_CHANNEL
    engine: CAFFE
  }
}
layer {
  name: "pool2"
  type: "Pooling"
  bottom: "norm2"
  top: "pool2"
  pooling_param {
    pool: MAX
    kernel_size: 3
    stride: 2
    pad: 1
  }
}
layer {
  name: "conv3"
  type: "Convolution"
  bottom: "pool2"
  top: "conv3"
  convolution_param {
    num_output: 384
    pad: 1
    kernel_size: 3
    stride: 1
  }
}
layer {
  name: "relu3"
  type: "ReLU"
  bottom: "conv3"
  top: "conv3"
}
layer {
  name: "conv4"
  type: "Convolution"
  bottom: "conv3"
  top: "conv4"
  convolution_param {
    num_output: 384
    pad: 1
    kernel_size: 3
    stride: 1
  }
}
layer {
  name: "relu4"
  type: "ReLU"
  bottom: "conv4"
  top: "conv4"
}
layer {
  name: "conv5"
  type: "Convolution"
  bottom: "conv4"
  top: "conv5"
  convolution_param {
    num_output: 256
    pad: 1
    kernel_size: 3
    stride: 1
  }
}
layer {
  name: "relu5"
  type: "ReLU"
  bottom: "conv5"
  top: "conv5"
}
layer {
  name: "rpn_conv/3x3"
  type: "Convolution"
  bottom: "conv5"
  top: "rpn/output"
  convolution_param {
    num_output: 256
    pad: 1
    kernel_size: 3
    stride: 1
    weight_filler {
      type: "gaussian"
      std: 0.01
    }
    bias_filler {
      type: "constant"
      value: 0
    }
  }
}
layer {
  name: "rpn_relu/3x3"
  type: "ReLU"
  bottom: "rpn/output"
  top: "rpn/output"
}
layer {
  name: "rpn_cls_score"
  type: "Convolution"
  bottom: "rpn/output"
  top: "rpn_cls_score"
  convolution_param {
    num_output: 18
    pad: 0
    kernel_size: 1
    stride: 1
    weight_filler {
      type: "gaussian"
      std: 0.01
    }
    bias_filler {
      type: "constant"
      value: 0
    }
  }
}
layer {
  name: "rpn_bbox_pred"
  type: "Convolution"
  bottom: "rpn/output"
  top: "rpn_bbox_pred"
  convolution_param {
    num_output: 36
    pad: 0
    kernel_size: 1
    stride: 1
    weight_filler {
      type: "gaussian"
      std: 0.01
    }
    bias_filler {
      type: "constant"
      value: 0
    }
  }
}
layer {
  name: "rpn_cls_score_reshape"
  type: "Reshape"
  bottom: "rpn_cls_score"
  top: "rpn_cls_score_reshape"
  reshape_param {
    shape {
      dim: 0
      dim: 2
      dim: -1
      dim: 0
    }
  }
}
layer {
  name: "rpn_cls_prob"
  type: "Softmax"
  bottom: "rpn_cls_score_reshape"
  top: "rpn_cls_prob"
}
layer {
  name: "rpn_cls_prob_reshape"
  type: "Reshape"
  bottom: "rpn_cls_prob"
  top: "rpn_cls_prob_reshape"
  reshape_param {
    shape {
      dim: 0
      dim: 18
      dim: -1
      dim: 0
    }
  }
}
layer {
  name: "proposal"
  type: "Python"
  bottom: "rpn_cls_prob_reshape"
  bottom: "rpn_bbox_pred"
  bottom: "im_info"
  top: "rois"
  python_param {
    module: "rpn.proposal_layer"
    layer: "ProposalLayer"
    param_str: "\'feat_stride\': 16"
  }
}
layer {
  name: "roi_pool_conv5"
  type: "ROIPooling"
  bottom: "conv5"
  bottom: "rois"
  top: "roi_pool_conv5"
  roi_pooling_param {
    pooled_h: 6
    pooled_w: 6
    spatial_scale: 0.0625
  }
}
layer {
  name: "fc6"
  type: "InnerProduct"
  bottom: "roi_pool_conv5"
  top: "fc6"
  inner_product_param {
    num_output: 4096
  }
}
layer {
  name: "relu6"
  type: "ReLU"
  bottom: "fc6"
  top: "fc6"
}
layer {
  name: "drop6"
  type: "Dropout"
  bottom: "fc6"
  top: "fc6"
  dropout_param {
    dropout_ratio: 0.5
    scale_train: false
  }
}
layer {
  name: "fc7"
  type: "InnerProduct"
  bottom: "fc6"
  top: "fc7"
  inner_product_param {
    num_output: 4096
  }
}
layer {
  name: "relu7"
  type: "ReLU"
  bottom: "fc7"
  top: "fc7"
}
layer {
  name: "drop7"
  type: "Dropout"
  bottom: "fc7"
  top: "fc7"
  dropout_param {
    dropout_ratio: 0.5
    scale_train: false
  }
}
layer {
  name: "cls_score"
  type: "InnerProduct"
  bottom: "fc7"
  top: "cls_score"
  inner_product_param {
    num_output: 2
  }
}
layer {
  name: "bbox_pred"
  type: "InnerProduct"
  bottom: "fc7"
  top: "bbox_pred"
  inner_product_param {
    num_output: 8
  }
}
layer {
  name: "cls_prob"
  type: "Softmax"
  bottom: "cls_score"
  top: "cls_prob"
  loss_param {
    ignore_label: -1
    normalize: true
  }
}
I0328 23:49:05.305605 27882 net.cpp:413] Input 0 -> data
I0328 23:49:05.346619 27882 net.cpp:413] Input 1 -> im_info
I0328 23:49:05.346688 27882 layer_factory.hpp:77] Creating layer conv1
I0328 23:49:05.346719 27882 net.cpp:106] Creating Layer conv1
I0328 23:49:05.346725 27882 net.cpp:454] conv1 <- data
I0328 23:49:05.346735 27882 net.cpp:411] conv1 -> conv1
I0328 23:49:05.347888 27882 net.cpp:150] Setting up conv1
I0328 23:49:05.347908 27882 net.cpp:157] Top shape: 1 96 112 112 (1204224)
I0328 23:49:05.347913 27882 net.cpp:165] Memory required for data: 4816896
I0328 23:49:05.347934 27882 layer_factory.hpp:77] Creating layer relu1
I0328 23:49:05.347946 27882 net.cpp:106] Creating Layer relu1
I0328 23:49:05.347951 27882 net.cpp:454] relu1 <- conv1
I0328 23:49:05.347959 27882 net.cpp:397] relu1 -> conv1 (in-place)
I0328 23:49:05.347970 27882 net.cpp:150] Setting up relu1
I0328 23:49:05.347976 27882 net.cpp:157] Top shape: 1 96 112 112 (1204224)
I0328 23:49:05.347980 27882 net.cpp:165] Memory required for data: 9633792
I0328 23:49:05.347985 27882 layer_factory.hpp:77] Creating layer norm1
I0328 23:49:05.347993 27882 net.cpp:106] Creating Layer norm1
I0328 23:49:05.347998 27882 net.cpp:454] norm1 <- conv1
I0328 23:49:05.348004 27882 net.cpp:411] norm1 -> norm1
I0328 23:49:05.348126 27882 net.cpp:150] Setting up norm1
I0328 23:49:05.348135 27882 net.cpp:157] Top shape: 1 96 112 112 (1204224)
I0328 23:49:05.348140 27882 net.cpp:165] Memory required for data: 14450688
I0328 23:49:05.348145 27882 layer_factory.hpp:77] Creating layer pool1
I0328 23:49:05.348155 27882 net.cpp:106] Creating Layer pool1
I0328 23:49:05.348163 27882 net.cpp:454] pool1 <- norm1
I0328 23:49:05.348176 27882 net.cpp:411] pool1 -> pool1
I0328 23:49:05.348238 27882 net.cpp:150] Setting up pool1
I0328 23:49:05.348253 27882 net.cpp:157] Top shape: 1 96 57 57 (311904)
I0328 23:49:05.348259 27882 net.cpp:165] Memory required for data: 15698304
I0328 23:49:05.348268 27882 layer_factory.hpp:77] Creating layer conv2
I0328 23:49:05.348282 27882 net.cpp:106] Creating Layer conv2
I0328 23:49:05.348289 27882 net.cpp:454] conv2 <- pool1
I0328 23:49:05.348296 27882 net.cpp:411] conv2 -> conv2
I0328 23:49:05.351429 27882 net.cpp:150] Setting up conv2
I0328 23:49:05.351450 27882 net.cpp:157] Top shape: 1 256 29 29 (215296)
I0328 23:49:05.351459 27882 net.cpp:165] Memory required for data: 16559488
I0328 23:49:05.351480 27882 layer_factory.hpp:77] Creating layer relu2
I0328 23:49:05.351491 27882 net.cpp:106] Creating Layer relu2
I0328 23:49:05.351500 27882 net.cpp:454] relu2 <- conv2
I0328 23:49:05.351511 27882 net.cpp:397] relu2 -> conv2 (in-place)
I0328 23:49:05.351524 27882 net.cpp:150] Setting up relu2
I0328 23:49:05.351533 27882 net.cpp:157] Top shape: 1 256 29 29 (215296)
I0328 23:49:05.351541 27882 net.cpp:165] Memory required for data: 17420672
I0328 23:49:05.351555 27882 layer_factory.hpp:77] Creating layer norm2
I0328 23:49:05.351567 27882 net.cpp:106] Creating Layer norm2
I0328 23:49:05.351573 27882 net.cpp:454] norm2 <- conv2
I0328 23:49:05.351590 27882 net.cpp:411] norm2 -> norm2
I0328 23:49:05.351716 27882 net.cpp:150] Setting up norm2
I0328 23:49:05.351725 27882 net.cpp:157] Top shape: 1 256 29 29 (215296)
I0328 23:49:05.351730 27882 net.cpp:165] Memory required for data: 18281856
I0328 23:49:05.351734 27882 layer_factory.hpp:77] Creating layer pool2
I0328 23:49:05.351742 27882 net.cpp:106] Creating Layer pool2
I0328 23:49:05.351747 27882 net.cpp:454] pool2 <- norm2
I0328 23:49:05.351752 27882 net.cpp:411] pool2 -> pool2
I0328 23:49:05.351788 27882 net.cpp:150] Setting up pool2
I0328 23:49:05.351794 27882 net.cpp:157] Top shape: 1 256 15 15 (57600)
I0328 23:49:05.351799 27882 net.cpp:165] Memory required for data: 18512256
I0328 23:49:05.351802 27882 layer_factory.hpp:77] Creating layer conv3
I0328 23:49:05.351814 27882 net.cpp:106] Creating Layer conv3
I0328 23:49:05.351817 27882 net.cpp:454] conv3 <- pool2
I0328 23:49:05.351830 27882 net.cpp:411] conv3 -> conv3
I0328 23:49:05.355082 27882 net.cpp:150] Setting up conv3
I0328 23:49:05.355100 27882 net.cpp:157] Top shape: 1 384 15 15 (86400)
I0328 23:49:05.355105 27882 net.cpp:165] Memory required for data: 18857856
I0328 23:49:05.355119 27882 layer_factory.hpp:77] Creating layer relu3
I0328 23:49:05.355129 27882 net.cpp:106] Creating Layer relu3
I0328 23:49:05.355134 27882 net.cpp:454] relu3 <- conv3
I0328 23:49:05.355141 27882 net.cpp:397] relu3 -> conv3 (in-place)
I0328 23:49:05.355149 27882 net.cpp:150] Setting up relu3
I0328 23:49:05.355156 27882 net.cpp:157] Top shape: 1 384 15 15 (86400)
I0328 23:49:05.355160 27882 net.cpp:165] Memory required for data: 19203456
I0328 23:49:05.355165 27882 layer_factory.hpp:77] Creating layer conv4
I0328 23:49:05.355173 27882 net.cpp:106] Creating Layer conv4
I0328 23:49:05.355177 27882 net.cpp:454] conv4 <- conv3
I0328 23:49:05.355185 27882 net.cpp:411] conv4 -> conv4
I0328 23:49:05.360358 27882 net.cpp:150] Setting up conv4
I0328 23:49:05.360385 27882 net.cpp:157] Top shape: 1 384 15 15 (86400)
I0328 23:49:05.360393 27882 net.cpp:165] Memory required for data: 19549056
I0328 23:49:05.360407 27882 layer_factory.hpp:77] Creating layer relu4
I0328 23:49:05.360421 27882 net.cpp:106] Creating Layer relu4
I0328 23:49:05.360430 27882 net.cpp:454] relu4 <- conv4
I0328 23:49:05.360438 27882 net.cpp:397] relu4 -> conv4 (in-place)
I0328 23:49:05.360448 27882 net.cpp:150] Setting up relu4
I0328 23:49:05.360455 27882 net.cpp:157] Top shape: 1 384 15 15 (86400)
I0328 23:49:05.360460 27882 net.cpp:165] Memory required for data: 19894656
I0328 23:49:05.360466 27882 layer_factory.hpp:77] Creating layer conv5
I0328 23:49:05.360477 27882 net.cpp:106] Creating Layer conv5
I0328 23:49:05.360482 27882 net.cpp:454] conv5 <- conv4
I0328 23:49:05.360492 27882 net.cpp:411] conv5 -> conv5
I0328 23:49:05.364181 27882 net.cpp:150] Setting up conv5
I0328 23:49:05.364213 27882 net.cpp:157] Top shape: 1 256 15 15 (57600)
I0328 23:49:05.364222 27882 net.cpp:165] Memory required for data: 20125056
I0328 23:49:05.364245 27882 layer_factory.hpp:77] Creating layer relu5
I0328 23:49:05.364262 27882 net.cpp:106] Creating Layer relu5
I0328 23:49:05.364271 27882 net.cpp:454] relu5 <- conv5
I0328 23:49:05.364284 27882 net.cpp:397] relu5 -> conv5 (in-place)
I0328 23:49:05.364297 27882 net.cpp:150] Setting up relu5
I0328 23:49:05.364313 27882 net.cpp:157] Top shape: 1 256 15 15 (57600)
I0328 23:49:05.364318 27882 net.cpp:165] Memory required for data: 20355456
I0328 23:49:05.364325 27882 layer_factory.hpp:77] Creating layer conv5_relu5_0_split
I0328 23:49:05.364341 27882 net.cpp:106] Creating Layer conv5_relu5_0_split
I0328 23:49:05.364347 27882 net.cpp:454] conv5_relu5_0_split <- conv5
I0328 23:49:05.364357 27882 net.cpp:411] conv5_relu5_0_split -> conv5_relu5_0_split_0
I0328 23:49:05.364370 27882 net.cpp:411] conv5_relu5_0_split -> conv5_relu5_0_split_1
I0328 23:49:05.364428 27882 net.cpp:150] Setting up conv5_relu5_0_split
I0328 23:49:05.364437 27882 net.cpp:157] Top shape: 1 256 15 15 (57600)
I0328 23:49:05.364446 27882 net.cpp:157] Top shape: 1 256 15 15 (57600)
I0328 23:49:05.364452 27882 net.cpp:165] Memory required for data: 20816256
I0328 23:49:05.364459 27882 layer_factory.hpp:77] Creating layer rpn_conv/3x3
I0328 23:49:05.364475 27882 net.cpp:106] Creating Layer rpn_conv/3x3
I0328 23:49:05.364482 27882 net.cpp:454] rpn_conv/3x3 <- conv5_relu5_0_split_0
I0328 23:49:05.364493 27882 net.cpp:411] rpn_conv/3x3 -> rpn/output
I0328 23:49:05.380743 27882 net.cpp:150] Setting up rpn_conv/3x3
I0328 23:49:05.380779 27882 net.cpp:157] Top shape: 1 256 15 15 (57600)
I0328 23:49:05.380785 27882 net.cpp:165] Memory required for data: 21046656
I0328 23:49:05.380805 27882 layer_factory.hpp:77] Creating layer rpn_relu/3x3
I0328 23:49:05.380826 27882 net.cpp:106] Creating Layer rpn_relu/3x3
I0328 23:49:05.380836 27882 net.cpp:454] rpn_relu/3x3 <- rpn/output
I0328 23:49:05.380848 27882 net.cpp:397] rpn_relu/3x3 -> rpn/output (in-place)
I0328 23:49:05.380861 27882 net.cpp:150] Setting up rpn_relu/3x3
I0328 23:49:05.380869 27882 net.cpp:157] Top shape: 1 256 15 15 (57600)
I0328 23:49:05.380875 27882 net.cpp:165] Memory required for data: 21277056
I0328 23:49:05.380882 27882 layer_factory.hpp:77] Creating layer rpn/output_rpn_relu/3x3_0_split
I0328 23:49:05.380892 27882 net.cpp:106] Creating Layer rpn/output_rpn_relu/3x3_0_split
I0328 23:49:05.380908 27882 net.cpp:454] rpn/output_rpn_relu/3x3_0_split <- rpn/output
I0328 23:49:05.380923 27882 net.cpp:411] rpn/output_rpn_relu/3x3_0_split -> rpn/output_rpn_relu/3x3_0_split_0
I0328 23:49:05.380939 27882 net.cpp:411] rpn/output_rpn_relu/3x3_0_split -> rpn/output_rpn_relu/3x3_0_split_1
I0328 23:49:05.380998 27882 net.cpp:150] Setting up rpn/output_rpn_relu/3x3_0_split
I0328 23:49:05.381009 27882 net.cpp:157] Top shape: 1 256 15 15 (57600)
I0328 23:49:05.381017 27882 net.cpp:157] Top shape: 1 256 15 15 (57600)
I0328 23:49:05.381024 27882 net.cpp:165] Memory required for data: 21737856
I0328 23:49:05.381029 27882 layer_factory.hpp:77] Creating layer rpn_cls_score
I0328 23:49:05.381047 27882 net.cpp:106] Creating Layer rpn_cls_score
I0328 23:49:05.381059 27882 net.cpp:454] rpn_cls_score <- rpn/output_rpn_relu/3x3_0_split_0
I0328 23:49:05.381073 27882 net.cpp:411] rpn_cls_score -> rpn_cls_score
I0328 23:49:05.381511 27882 net.cpp:150] Setting up rpn_cls_score
I0328 23:49:05.381523 27882 net.cpp:157] Top shape: 1 18 15 15 (4050)
I0328 23:49:05.381528 27882 net.cpp:165] Memory required for data: 21754056
I0328 23:49:05.381539 27882 layer_factory.hpp:77] Creating layer rpn_bbox_pred
I0328 23:49:05.381556 27882 net.cpp:106] Creating Layer rpn_bbox_pred
I0328 23:49:05.381561 27882 net.cpp:454] rpn_bbox_pred <- rpn/output_rpn_relu/3x3_0_split_1
I0328 23:49:05.381572 27882 net.cpp:411] rpn_bbox_pred -> rpn_bbox_pred
I0328 23:49:05.382097 27882 net.cpp:150] Setting up rpn_bbox_pred
I0328 23:49:05.382109 27882 net.cpp:157] Top shape: 1 36 15 15 (8100)
I0328 23:49:05.382117 27882 net.cpp:165] Memory required for data: 21786456
I0328 23:49:05.382127 27882 layer_factory.hpp:77] Creating layer rpn_cls_score_reshape
I0328 23:49:05.382144 27882 net.cpp:106] Creating Layer rpn_cls_score_reshape
I0328 23:49:05.382151 27882 net.cpp:454] rpn_cls_score_reshape <- rpn_cls_score
I0328 23:49:05.382160 27882 net.cpp:411] rpn_cls_score_reshape -> rpn_cls_score_reshape
I0328 23:49:05.382205 27882 net.cpp:150] Setting up rpn_cls_score_reshape
I0328 23:49:05.382215 27882 net.cpp:157] Top shape: 1 2 135 15 (4050)
I0328 23:49:05.382220 27882 net.cpp:165] Memory required for data: 21802656
I0328 23:49:05.382226 27882 layer_factory.hpp:77] Creating layer rpn_cls_prob
I0328 23:49:05.382237 27882 net.cpp:106] Creating Layer rpn_cls_prob
I0328 23:49:05.382243 27882 net.cpp:454] rpn_cls_prob <- rpn_cls_score_reshape
I0328 23:49:05.382253 27882 net.cpp:411] rpn_cls_prob -> rpn_cls_prob
I0328 23:49:05.382335 27882 net.cpp:150] Setting up rpn_cls_prob
I0328 23:49:05.382354 27882 net.cpp:157] Top shape: 1 2 135 15 (4050)
I0328 23:49:05.382365 27882 net.cpp:165] Memory required for data: 21818856
I0328 23:49:05.382375 27882 layer_factory.hpp:77] Creating layer rpn_cls_prob_reshape
I0328 23:49:05.382390 27882 net.cpp:106] Creating Layer rpn_cls_prob_reshape
I0328 23:49:05.382396 27882 net.cpp:454] rpn_cls_prob_reshape <- rpn_cls_prob
I0328 23:49:05.382407 27882 net.cpp:411] rpn_cls_prob_reshape -> rpn_cls_prob_reshape
I0328 23:49:05.382441 27882 net.cpp:150] Setting up rpn_cls_prob_reshape
I0328 23:49:05.382452 27882 net.cpp:157] Top shape: 1 18 15 15 (4050)
I0328 23:49:05.382458 27882 net.cpp:165] Memory required for data: 21835056
I0328 23:49:05.382463 27882 layer_factory.hpp:77] Creating layer proposal
I0328 23:49:05.385253 27882 net.cpp:106] Creating Layer proposal
I0328 23:49:05.385282 27882 net.cpp:454] proposal <- rpn_cls_prob_reshape
I0328 23:49:05.385298 27882 net.cpp:454] proposal <- rpn_bbox_pred
I0328 23:49:05.385304 27882 net.cpp:454] proposal <- im_info
I0328 23:49:05.385313 27882 net.cpp:411] proposal -> rois
I0328 23:49:05.386622 27882 net.cpp:150] Setting up proposal
I0328 23:49:05.386642 27882 net.cpp:157] Top shape: 1 5 (5)
I0328 23:49:05.386648 27882 net.cpp:165] Memory required for data: 21835076
I0328 23:49:05.386656 27882 layer_factory.hpp:77] Creating layer roi_pool_conv5
I0328 23:49:05.386672 27882 net.cpp:106] Creating Layer roi_pool_conv5
I0328 23:49:05.386680 27882 net.cpp:454] roi_pool_conv5 <- conv5_relu5_0_split_1
I0328 23:49:05.386687 27882 net.cpp:454] roi_pool_conv5 <- rois
I0328 23:49:05.386693 27882 net.cpp:411] roi_pool_conv5 -> roi_pool_conv5
I0328 23:49:05.386708 27882 roi_pooling_layer.cpp:30] Spatial scale: 0.0625
I0328 23:49:05.386773 27882 net.cpp:150] Setting up roi_pool_conv5
I0328 23:49:05.386780 27882 net.cpp:157] Top shape: 1 256 6 6 (9216)
I0328 23:49:05.386785 27882 net.cpp:165] Memory required for data: 21871940
I0328 23:49:05.386788 27882 layer_factory.hpp:77] Creating layer fc6
I0328 23:49:05.386797 27882 net.cpp:106] Creating Layer fc6
I0328 23:49:05.386802 27882 net.cpp:454] fc6 <- roi_pool_conv5
I0328 23:49:05.386811 27882 net.cpp:411] fc6 -> fc6
I0328 23:49:05.485558 27882 net.cpp:150] Setting up fc6
I0328 23:49:05.485595 27882 net.cpp:157] Top shape: 1 4096 (4096)
I0328 23:49:05.485601 27882 net.cpp:165] Memory required for data: 21888324
I0328 23:49:05.485618 27882 layer_factory.hpp:77] Creating layer relu6
I0328 23:49:05.485630 27882 net.cpp:106] Creating Layer relu6
I0328 23:49:05.485635 27882 net.cpp:454] relu6 <- fc6
I0328 23:49:05.485642 27882 net.cpp:397] relu6 -> fc6 (in-place)
I0328 23:49:05.485652 27882 net.cpp:150] Setting up relu6
I0328 23:49:05.485656 27882 net.cpp:157] Top shape: 1 4096 (4096)
I0328 23:49:05.485661 27882 net.cpp:165] Memory required for data: 21904708
I0328 23:49:05.485663 27882 layer_factory.hpp:77] Creating layer drop6
I0328 23:49:05.485674 27882 net.cpp:106] Creating Layer drop6
I0328 23:49:05.485678 27882 net.cpp:454] drop6 <- fc6
I0328 23:49:05.485682 27882 net.cpp:397] drop6 -> fc6 (in-place)
I0328 23:49:05.485705 27882 net.cpp:150] Setting up drop6
I0328 23:49:05.485710 27882 net.cpp:157] Top shape: 1 4096 (4096)
I0328 23:49:05.485713 27882 net.cpp:165] Memory required for data: 21921092
I0328 23:49:05.485718 27882 layer_factory.hpp:77] Creating layer fc7
I0328 23:49:05.485723 27882 net.cpp:106] Creating Layer fc7
I0328 23:49:05.485726 27882 net.cpp:454] fc7 <- fc6
I0328 23:49:05.485733 27882 net.cpp:411] fc7 -> fc7
I0328 23:49:05.536932 27882 net.cpp:150] Setting up fc7
I0328 23:49:05.536978 27882 net.cpp:157] Top shape: 1 4096 (4096)
I0328 23:49:05.536986 27882 net.cpp:165] Memory required for data: 21937476
I0328 23:49:05.537006 27882 layer_factory.hpp:77] Creating layer relu7
I0328 23:49:05.537025 27882 net.cpp:106] Creating Layer relu7
I0328 23:49:05.537039 27882 net.cpp:454] relu7 <- fc7
I0328 23:49:05.537060 27882 net.cpp:397] relu7 -> fc7 (in-place)
I0328 23:49:05.537083 27882 net.cpp:150] Setting up relu7
I0328 23:49:05.537097 27882 net.cpp:157] Top shape: 1 4096 (4096)
I0328 23:49:05.537104 27882 net.cpp:165] Memory required for data: 21953860
I0328 23:49:05.537112 27882 layer_factory.hpp:77] Creating layer drop7
I0328 23:49:05.537129 27882 net.cpp:106] Creating Layer drop7
I0328 23:49:05.537138 27882 net.cpp:454] drop7 <- fc7
I0328 23:49:05.537153 27882 net.cpp:397] drop7 -> fc7 (in-place)
I0328 23:49:05.537196 27882 net.cpp:150] Setting up drop7
I0328 23:49:05.537205 27882 net.cpp:157] Top shape: 1 4096 (4096)
I0328 23:49:05.537211 27882 net.cpp:165] Memory required for data: 21970244
I0328 23:49:05.537217 27882 layer_factory.hpp:77] Creating layer fc7_drop7_0_split
I0328 23:49:05.537230 27882 net.cpp:106] Creating Layer fc7_drop7_0_split
I0328 23:49:05.537256 27882 net.cpp:454] fc7_drop7_0_split <- fc7
I0328 23:49:05.537272 27882 net.cpp:411] fc7_drop7_0_split -> fc7_drop7_0_split_0
I0328 23:49:05.537286 27882 net.cpp:411] fc7_drop7_0_split -> fc7_drop7_0_split_1
I0328 23:49:05.537348 27882 net.cpp:150] Setting up fc7_drop7_0_split
I0328 23:49:05.537358 27882 net.cpp:157] Top shape: 1 4096 (4096)
I0328 23:49:05.537364 27882 net.cpp:157] Top shape: 1 4096 (4096)
I0328 23:49:05.537369 27882 net.cpp:165] Memory required for data: 22003012
I0328 23:49:05.537374 27882 layer_factory.hpp:77] Creating layer cls_score
I0328 23:49:05.537395 27882 net.cpp:106] Creating Layer cls_score
I0328 23:49:05.537400 27882 net.cpp:454] cls_score <- fc7_drop7_0_split_0
I0328 23:49:05.537410 27882 net.cpp:411] cls_score -> cls_score
I0328 23:49:05.537626 27882 net.cpp:150] Setting up cls_score
I0328 23:49:05.537643 27882 net.cpp:157] Top shape: 1 2 (2)
I0328 23:49:05.537649 27882 net.cpp:165] Memory required for data: 22003020
I0328 23:49:05.537662 27882 layer_factory.hpp:77] Creating layer bbox_pred
I0328 23:49:05.537673 27882 net.cpp:106] Creating Layer bbox_pred
I0328 23:49:05.537684 27882 net.cpp:454] bbox_pred <- fc7_drop7_0_split_1
I0328 23:49:05.537698 27882 net.cpp:411] bbox_pred -> bbox_pred
I0328 23:49:05.539041 27882 net.cpp:150] Setting up bbox_pred
I0328 23:49:05.539065 27882 net.cpp:157] Top shape: 1 8 (8)
I0328 23:49:05.539075 27882 net.cpp:165] Memory required for data: 22003052
I0328 23:49:05.539091 27882 layer_factory.hpp:77] Creating layer cls_prob
I0328 23:49:05.539109 27882 net.cpp:106] Creating Layer cls_prob
I0328 23:49:05.539121 27882 net.cpp:454] cls_prob <- cls_score
I0328 23:49:05.539136 27882 net.cpp:411] cls_prob -> cls_prob
I0328 23:49:05.539238 27882 net.cpp:150] Setting up cls_prob
I0328 23:49:05.539255 27882 net.cpp:157] Top shape: 1 2 (2)
I0328 23:49:05.539264 27882 net.cpp:165] Memory required for data: 22003060
I0328 23:49:05.539275 27882 net.cpp:228] cls_prob does not need backward computation.
I0328 23:49:05.539284 27882 net.cpp:228] bbox_pred does not need backward computation.
I0328 23:49:05.539294 27882 net.cpp:228] cls_score does not need backward computation.
I0328 23:49:05.539300 27882 net.cpp:228] fc7_drop7_0_split does not need backward computation.
…
