…
           'USE_FLIPPED': True,
           'USE_PREFETCH': False},
 'USE_GPU_NMS': False}
../../tools/test_net.py:80: RuntimeWarning: to-Python converter for boost::shared_ptr<caffe::Blob<float> > already registered; second conversion method ignored.
  caffe.set_mode_gpu()
WARNING: Logging before InitGoogleLogging() is written to STDERR
I0430 21:45:57.446372  9521 net.cpp:49] Initializing net from parameters: 
name: "ZF"
input: "data"
input: "im_info"
state {
  phase: TEST
}
input_shape {
  dim: 1
  dim: 3
  dim: 224
  dim: 224
}
input_shape {
  dim: 1
  dim: 3
}
layer {
  name: "conv1"
  type: "Convolution"
  bottom: "data"
  top: "conv1"
  convolution_param {
    num_output: 96
    pad: 3
    kernel_size: 7
    stride: 2
  }
}
layer {
  name: "relu1"
  type: "ReLU"
  bottom: "conv1"
  top: "conv1"
}
layer {
  name: "norm1"
  type: "LRN"
  bottom: "conv1"
  top: "norm1"
  lrn_param {
    local_size: 3
    alpha: 5e-05
    beta: 0.75
    norm_region: WITHIN_CHANNEL
    engine: CAFFE
  }
}
layer {
  name: "pool1"
  type: "Pooling"
  bottom: "norm1"
  top: "pool1"
  pooling_param {
    pool: MAX
    kernel_size: 3
    stride: 2
    pad: 1
  }
}
layer {
  name: "conv2"
  type: "Convolution"
  bottom: "pool1"
  top: "conv2"
  convolution_param {
    num_output: 256
    pad: 2
    kernel_size: 5
    stride: 2
  }
}
layer {
  name: "relu2"
  type: "ReLU"
  bottom: "conv2"
  top: "conv2"
}
layer {
  name: "norm2"
  type: "LRN"
  bottom: "conv2"
  top: "norm2"
  lrn_param {
    local_size: 3
    alpha: 5e-05
    beta: 0.75
    norm_region: WITHIN_CHANNEL
    engine: CAFFE
  }
}
layer {
  name: "pool2"
  type: "Pooling"
  bottom: "norm2"
  top: "pool2"
  pooling_param {
    pool: MAX
    kernel_size: 3
    stride: 2
    pad: 1
  }
}
layer {
  name: "conv3"
  type: "Convolution"
  bottom: "pool2"
  top: "conv3"
  convolution_param {
    num_output: 384
    pad: 1
    kernel_size: 3
    stride: 1
  }
}
layer {
  name: "relu3"
  type: "ReLU"
  bottom: "conv3"
  top: "conv3"
}
layer {
  name: "conv4"
  type: "Convolution"
  bottom: "conv3"
  top: "conv4"
  convolution_param {
    num_output: 384
    pad: 1
    kernel_size: 3
    stride: 1
  }
}
layer {
  name: "relu4"
  type: "ReLU"
  bottom: "conv4"
  top: "conv4"
}
layer {
  name: "conv5"
  type: "Convolution"
  bottom: "conv4"
  top: "conv5"
  convolution_param {
    num_output: 256
    pad: 1
    kernel_size: 3
    stride: 1
  }
}
layer {
  name: "relu5"
  type: "ReLU"
  bottom: "conv5"
  top: "conv5"
}
layer {
  name: "rpn_conv/3x3"
  type: "Convolution"
  bottom: "conv5"
  top: "rpn/output"
  convolution_param {
    num_output: 256
    pad: 1
    kernel_size: 3
    stride: 1
    weight_filler {
      type: "gaussian"
      std: 0.01
    }
    bias_filler {
      type: "constant"
      value: 0
    }
  }
}
layer {
  name: "rpn_relu/3x3"
  type: "ReLU"
  bottom: "rpn/output"
  top: "rpn/output"
}
layer {
  name: "rpn_cls_score"
  type: "Convolution"
  bottom: "rpn/output"
  top: "rpn_cls_score"
  convolution_param {
    num_output: 18
    pad: 0
    kernel_size: 1
    stride: 1
    weight_filler {
      type: "gaussian"
      std: 0.01
    }
    bias_filler {
      type: "constant"
      value: 0
    }
  }
}
layer {
  name: "rpn_bbox_pred"
  type: "Convolution"
  bottom: "rpn/output"
  top: "rpn_bbox_pred"
  convolution_param {
    num_output: 36
    pad: 0
    kernel_size: 1
    stride: 1
    weight_filler {
      type: "gaussian"
      std: 0.01
    }
    bias_filler {
      type: "constant"
      value: 0
    }
  }
}
layer {
  name: "rpn_cls_score_reshape"
  type: "Reshape"
  bottom: "rpn_cls_score"
  top: "rpn_cls_score_reshape"
  reshape_param {
    shape {
      dim: 0
      dim: 2
      dim: -1
      dim: 0
    }
  }
}
layer {
  name: "rpn_cls_prob"
  type: "Softmax"
  bottom: "rpn_cls_score_reshape"
  top: "rpn_cls_prob"
}
layer {
  name: "rpn_cls_prob_reshape"
  type: "Reshape"
  bottom: "rpn_cls_prob"
  top: "rpn_cls_prob_reshape"
  reshape_param {
    shape {
      dim: 0
      dim: 18
      dim: -1
      dim: 0
    }
  }
}
layer {
  name: "proposal"
  type: "Python"
  bottom: "rpn_cls_prob_reshape"
  bottom: "rpn_bbox_pred"
  bottom: "im_info"
  top: "rois"
  python_param {
    module: "rpn.proposal_layer"
    layer: "ProposalLayer"
    param_str: "\'feat_stride\': 16"
  }
}
layer {
  name: "roi_pool_conv5"
  type: "ROIPooling"
  bottom: "conv5"
  bottom: "rois"
  top: "roi_pool_conv5"
  roi_pooling_param {
    pooled_h: 6
    pooled_w: 6
    spatial_scale: 0.0625
  }
}
layer {
  name: "fc6"
  type: "InnerProduct"
  bottom: "roi_pool_conv5"
  top: "fc6"
  inner_product_param {
    num_output: 4096
  }
}
layer {
  name: "relu6"
  type: "ReLU"
  bottom: "fc6"
  top: "fc6"
}
layer {
  name: "drop6"
  type: "Dropout"
  bottom: "fc6"
  top: "fc6"
  dropout_param {
    dropout_ratio: 0.5
    scale_train: false
  }
}
layer {
  name: "fc7"
  type: "InnerProduct"
  bottom: "fc6"
  top: "fc7"
  inner_product_param {
    num_output: 4096
  }
}
layer {
  name: "relu7"
  type: "ReLU"
  bottom: "fc7"
  top: "fc7"
}
layer {
  name: "drop7"
  type: "Dropout"
  bottom: "fc7"
  top: "fc7"
  dropout_param {
    dropout_ratio: 0.5
    scale_train: false
  }
}
layer {
  name: "cls_score"
  type: "InnerProduct"
  bottom: "fc7"
  top: "cls_score"
  inner_product_param {
    num_output: 2
  }
}
layer {
  name: "bbox_pred"
  type: "InnerProduct"
  bottom: "fc7"
  top: "bbox_pred"
  inner_product_param {
    num_output: 8
  }
}
layer {
  name: "cls_prob"
  type: "Softmax"
  bottom: "cls_score"
  top: "cls_prob"
  loss_param {
    ignore_label: -1
    normalize: true
  }
}
I0430 21:45:57.446698  9521 net.cpp:413] Input 0 -> data
I0430 21:45:57.488076  9521 net.cpp:413] Input 1 -> im_info
I0430 21:45:57.488155  9521 layer_factory.hpp:77] Creating layer conv1
I0430 21:45:57.488185  9521 net.cpp:106] Creating Layer conv1
I0430 21:45:57.488193  9521 net.cpp:454] conv1 <- data
I0430 21:45:57.488200  9521 net.cpp:411] conv1 -> conv1
I0430 21:45:57.489481  9521 net.cpp:150] Setting up conv1
I0430 21:45:57.489503  9521 net.cpp:157] Top shape: 1 96 112 112 (1204224)
I0430 21:45:57.489507  9521 net.cpp:165] Memory required for data: 4816896
I0430 21:45:57.489531  9521 layer_factory.hpp:77] Creating layer relu1
I0430 21:45:57.489547  9521 net.cpp:106] Creating Layer relu1
I0430 21:45:57.489552  9521 net.cpp:454] relu1 <- conv1
I0430 21:45:57.489559  9521 net.cpp:397] relu1 -> conv1 (in-place)
I0430 21:45:57.489574  9521 net.cpp:150] Setting up relu1
I0430 21:45:57.489583  9521 net.cpp:157] Top shape: 1 96 112 112 (1204224)
I0430 21:45:57.489588  9521 net.cpp:165] Memory required for data: 9633792
I0430 21:45:57.489593  9521 layer_factory.hpp:77] Creating layer norm1
I0430 21:45:57.489603  9521 net.cpp:106] Creating Layer norm1
I0430 21:45:57.489608  9521 net.cpp:454] norm1 <- conv1
I0430 21:45:57.489614  9521 net.cpp:411] norm1 -> norm1
I0430 21:45:57.489765  9521 net.cpp:150] Setting up norm1
I0430 21:45:57.489775  9521 net.cpp:157] Top shape: 1 96 112 112 (1204224)
I0430 21:45:57.489780  9521 net.cpp:165] Memory required for data: 14450688
I0430 21:45:57.489784  9521 layer_factory.hpp:77] Creating layer pool1
I0430 21:45:57.489797  9521 net.cpp:106] Creating Layer pool1
I0430 21:45:57.489802  9521 net.cpp:454] pool1 <- norm1
I0430 21:45:57.489811  9521 net.cpp:411] pool1 -> pool1
I0430 21:45:57.489859  9521 net.cpp:150] Setting up pool1
I0430 21:45:57.489867  9521 net.cpp:157] Top shape: 1 96 57 57 (311904)
I0430 21:45:57.489872  9521 net.cpp:165] Memory required for data: 15698304
I0430 21:45:57.489876  9521 layer_factory.hpp:77] Creating layer conv2
I0430 21:45:57.489887  9521 net.cpp:106] Creating Layer conv2
I0430 21:45:57.489892  9521 net.cpp:454] conv2 <- pool1
I0430 21:45:57.489898  9521 net.cpp:411] conv2 -> conv2
I0430 21:45:57.493578  9521 net.cpp:150] Setting up conv2
I0430 21:45:57.493595  9521 net.cpp:157] Top shape: 1 256 29 29 (215296)
I0430 21:45:57.493600  9521 net.cpp:165] Memory required for data: 16559488
I0430 21:45:57.493613  9521 layer_factory.hpp:77] Creating layer relu2
I0430 21:45:57.493623  9521 net.cpp:106] Creating Layer relu2
I0430 21:45:57.493628  9521 net.cpp:454] relu2 <- conv2
I0430 21:45:57.493638  9521 net.cpp:397] relu2 -> conv2 (in-place)
I0430 21:45:57.493649  9521 net.cpp:150] Setting up relu2
I0430 21:45:57.493655  9521 net.cpp:157] Top shape: 1 256 29 29 (215296)
I0430 21:45:57.493660  9521 net.cpp:165] Memory required for data: 17420672
I0430 21:45:57.493664  9521 layer_factory.hpp:77] Creating layer norm2
I0430 21:45:57.493672  9521 net.cpp:106] Creating Layer norm2
I0430 21:45:57.493676  9521 net.cpp:454] norm2 <- conv2
I0430 21:45:57.493685  9521 net.cpp:411] norm2 -> norm2
I0430 21:45:57.493808  9521 net.cpp:150] Setting up norm2
I0430 21:45:57.493818  9521 net.cpp:157] Top shape: 1 256 29 29 (215296)
I0430 21:45:57.493823  9521 net.cpp:165] Memory required for data: 18281856
I0430 21:45:57.493825  9521 layer_factory.hpp:77] Creating layer pool2
I0430 21:45:57.493837  9521 net.cpp:106] Creating Layer pool2
I0430 21:45:57.493842  9521 net.cpp:454] pool2 <- norm2
I0430 21:45:57.493849  9521 net.cpp:411] pool2 -> pool2
I0430 21:45:57.493892  9521 net.cpp:150] Setting up pool2
I0430 21:45:57.493899  9521 net.cpp:157] Top shape: 1 256 15 15 (57600)
I0430 21:45:57.493903  9521 net.cpp:165] Memory required for data: 18512256
I0430 21:45:57.493908  9521 layer_factory.hpp:77] Creating layer conv3
I0430 21:45:57.493921  9521 net.cpp:106] Creating Layer conv3
I0430 21:45:57.493926  9521 net.cpp:454] conv3 <- pool2
I0430 21:45:57.493930  9521 net.cpp:411] conv3 -> conv3
I0430 21:45:57.497498  9521 net.cpp:150] Setting up conv3
I0430 21:45:57.497514  9521 net.cpp:157] Top shape: 1 384 15 15 (86400)
I0430 21:45:57.497519  9521 net.cpp:165] Memory required for data: 18857856
I0430 21:45:57.497534  9521 layer_factory.hpp:77] Creating layer relu3
I0430 21:45:57.497551  9521 net.cpp:106] Creating Layer relu3
I0430 21:45:57.497557  9521 net.cpp:454] relu3 <- conv3
I0430 21:45:57.497565  9521 net.cpp:397] relu3 -> conv3 (in-place)
I0430 21:45:57.497573  9521 net.cpp:150] Setting up relu3
I0430 21:45:57.497580  9521 net.cpp:157] Top shape: 1 384 15 15 (86400)
I0430 21:45:57.497584  9521 net.cpp:165] Memory required for data: 19203456
I0430 21:45:57.497588  9521 layer_factory.hpp:77] Creating layer conv4
I0430 21:45:57.497601  9521 net.cpp:106] Creating Layer conv4
I0430 21:45:57.497606  9521 net.cpp:454] conv4 <- conv3
I0430 21:45:57.497612  9521 net.cpp:411] conv4 -> conv4
I0430 21:45:57.502789  9521 net.cpp:150] Setting up conv4
I0430 21:45:57.502804  9521 net.cpp:157] Top shape: 1 384 15 15 (86400)
I0430 21:45:57.502809  9521 net.cpp:165] Memory required for data: 19549056
I0430 21:45:57.502817  9521 layer_factory.hpp:77] Creating layer relu4
I0430 21:45:57.502826  9521 net.cpp:106] Creating Layer relu4
I0430 21:45:57.502832  9521 net.cpp:454] relu4 <- conv4
I0430 21:45:57.502841  9521 net.cpp:397] relu4 -> conv4 (in-place)
I0430 21:45:57.502849  9521 net.cpp:150] Setting up relu4
I0430 21:45:57.502856  9521 net.cpp:157] Top shape: 1 384 15 15 (86400)
I0430 21:45:57.502861  9521 net.cpp:165] Memory required for data: 19894656
I0430 21:45:57.502864  9521 layer_factory.hpp:77] Creating layer conv5
I0430 21:45:57.502873  9521 net.cpp:106] Creating Layer conv5
I0430 21:45:57.502878  9521 net.cpp:454] conv5 <- conv4
I0430 21:45:57.502887  9521 net.cpp:411] conv5 -> conv5
I0430 21:45:57.506347  9521 net.cpp:150] Setting up conv5
I0430 21:45:57.506361  9521 net.cpp:157] Top shape: 1 256 15 15 (57600)
I0430 21:45:57.506366  9521 net.cpp:165] Memory required for data: 20125056
I0430 21:45:57.506384  9521 layer_factory.hpp:77] Creating layer relu5
I0430 21:45:57.506393  9521 net.cpp:106] Creating Layer relu5
I0430 21:45:57.506398  9521 net.cpp:454] relu5 <- conv5
I0430 21:45:57.506403  9521 net.cpp:397] relu5 -> conv5 (in-place)
I0430 21:45:57.506412  9521 net.cpp:150] Setting up relu5
I0430 21:45:57.506418  9521 net.cpp:157] Top shape: 1 256 15 15 (57600)
I0430 21:45:57.506422  9521 net.cpp:165] Memory required for data: 20355456
I0430 21:45:57.506425  9521 layer_factory.hpp:77] Creating layer conv5_relu5_0_split
I0430 21:45:57.506441  9521 net.cpp:106] Creating Layer conv5_relu5_0_split
I0430 21:45:57.506446  9521 net.cpp:454] conv5_relu5_0_split <- conv5
I0430 21:45:57.506451  9521 net.cpp:411] conv5_relu5_0_split -> conv5_relu5_0_split_0
I0430 21:45:57.506459  9521 net.cpp:411] conv5_relu5_0_split -> conv5_relu5_0_split_1
I0430 21:45:57.506505  9521 net.cpp:150] Setting up conv5_relu5_0_split
I0430 21:45:57.506513  9521 net.cpp:157] Top shape: 1 256 15 15 (57600)
I0430 21:45:57.506521  9521 net.cpp:157] Top shape: 1 256 15 15 (57600)
I0430 21:45:57.506525  9521 net.cpp:165] Memory required for data: 20816256
I0430 21:45:57.506530  9521 layer_factory.hpp:77] Creating layer rpn_conv/3x3
I0430 21:45:57.506543  9521 net.cpp:106] Creating Layer rpn_conv/3x3
I0430 21:45:57.506549  9521 net.cpp:454] rpn_conv/3x3 <- conv5_relu5_0_split_0
I0430 21:45:57.506556  9521 net.cpp:411] rpn_conv/3x3 -> rpn/output
I0430 21:45:57.528882  9521 net.cpp:150] Setting up rpn_conv/3x3
I0430 21:45:57.528928  9521 net.cpp:157] Top shape: 1 256 15 15 (57600)
I0430 21:45:57.528934  9521 net.cpp:165] Memory required for data: 21046656
I0430 21:45:57.528951  9521 layer_factory.hpp:77] Creating layer rpn_relu/3x3
I0430 21:45:57.529048  9521 net.cpp:106] Creating Layer rpn_relu/3x3
I0430 21:45:57.529060  9521 net.cpp:454] rpn_relu/3x3 <- rpn/output
I0430 21:45:57.529074  9521 net.cpp:397] rpn_relu/3x3 -> rpn/output (in-place)
I0430 21:45:57.529093  9521 net.cpp:150] Setting up rpn_relu/3x3
I0430 21:45:57.529103  9521 net.cpp:157] Top shape: 1 256 15 15 (57600)
I0430 21:45:57.529109  9521 net.cpp:165] Memory required for data: 21277056
I0430 21:45:57.529114  9521 layer_factory.hpp:77] Creating layer rpn/output_rpn_relu/3x3_0_split
I0430 21:45:57.529126  9521 net.cpp:106] Creating Layer rpn/output_rpn_relu/3x3_0_split
I0430 21:45:57.529134  9521 net.cpp:454] rpn/output_rpn_relu/3x3_0_split <- rpn/output
I0430 21:45:57.529147  9521 net.cpp:411] rpn/output_rpn_relu/3x3_0_split -> rpn/output_rpn_relu/3x3_0_split_0
I0430 21:45:57.529160  9521 net.cpp:411] rpn/output_rpn_relu/3x3_0_split -> rpn/output_rpn_relu/3x3_0_split_1
I0430 21:45:57.529227  9521 net.cpp:150] Setting up rpn/output_rpn_relu/3x3_0_split
I0430 21:45:57.529243  9521 net.cpp:157] Top shape: 1 256 15 15 (57600)
I0430 21:45:57.529253  9521 net.cpp:157] Top shape: 1 256 15 15 (57600)
I0430 21:45:57.529258  9521 net.cpp:165] Memory required for data: 21737856
I0430 21:45:57.529265  9521 layer_factory.hpp:77] Creating layer rpn_cls_score
I0430 21:45:57.529289  9521 net.cpp:106] Creating Layer rpn_cls_score
I0430 21:45:57.529295  9521 net.cpp:454] rpn_cls_score <- rpn/output_rpn_relu/3x3_0_split_0
I0430 21:45:57.529307  9521 net.cpp:411] rpn_cls_score -> rpn_cls_score
I0430 21:45:57.529875  9521 net.cpp:150] Setting up rpn_cls_score
I0430 21:45:57.529891  9521 net.cpp:157] Top shape: 1 18 15 15 (4050)
I0430 21:45:57.529896  9521 net.cpp:165] Memory required for data: 21754056
I0430 21:45:57.529908  9521 layer_factory.hpp:77] Creating layer rpn_bbox_pred
I0430 21:45:57.529927  9521 net.cpp:106] Creating Layer rpn_bbox_pred
I0430 21:45:57.529933  9521 net.cpp:454] rpn_bbox_pred <- rpn/output_rpn_relu/3x3_0_split_1
I0430 21:45:57.529947  9521 net.cpp:411] rpn_bbox_pred -> rpn_bbox_pred
I0430 21:45:57.530586  9521 net.cpp:150] Setting up rpn_bbox_pred
I0430 21:45:57.530601  9521 net.cpp:157] Top shape: 1 36 15 15 (8100)
I0430 21:45:57.530607  9521 net.cpp:165] Memory required for data: 21786456
I0430 21:45:57.530619  9521 layer_factory.hpp:77] Creating layer rpn_cls_score_reshape
I0430 21:45:57.530642  9521 net.cpp:106] Creating Layer rpn_cls_score_reshape
I0430 21:45:57.530648  9521 net.cpp:454] rpn_cls_score_reshape <- rpn_cls_score
I0430 21:45:57.530659  9521 net.cpp:411] rpn_cls_score_reshape -> rpn_cls_score_reshape
I0430 21:45:57.530714  9521 net.cpp:150] Setting up rpn_cls_score_reshape
I0430 21:45:57.530725  9521 net.cpp:157] Top shape: 1 2 135 15 (4050)
I0430 21:45:57.530730  9521 net.cpp:165] Memory required for data: 21802656
I0430 21:45:57.530736  9521 layer_factory.hpp:77] Creating layer rpn_cls_prob
I0430 21:45:57.530747  9521 net.cpp:106] Creating Layer rpn_cls_prob
I0430 21:45:57.530755  9521 net.cpp:454] rpn_cls_prob <- rpn_cls_score_reshape
I0430 21:45:57.530766  9521 net.cpp:411] rpn_cls_prob -> rpn_cls_prob
I0430 21:45:57.530869  9521 net.cpp:150] Setting up rpn_cls_prob
I0430 21:45:57.530877  9521 net.cpp:157] Top shape: 1 2 135 15 (4050)
I0430 21:45:57.530884  9521 net.cpp:165] Memory required for data: 21818856
I0430 21:45:57.530890  9521 layer_factory.hpp:77] Creating layer rpn_cls_prob_reshape
I0430 21:45:57.530903  9521 net.cpp:106] Creating Layer rpn_cls_prob_reshape
I0430 21:45:57.530910  9521 net.cpp:454] rpn_cls_prob_reshape <- rpn_cls_prob
I0430 21:45:57.530920  9521 net.cpp:411] rpn_cls_prob_reshape -> rpn_cls_prob_reshape
I0430 21:45:57.530956  9521 net.cpp:150] Setting up rpn_cls_prob_reshape
I0430 21:45:57.530966  9521 net.cpp:157] Top shape: 1 18 15 15 (4050)
I0430 21:45:57.530972  9521 net.cpp:165] Memory required for data: 21835056
I0430 21:45:57.530977  9521 layer_factory.hpp:77] Creating layer proposal
I0430 21:45:57.534368  9521 net.cpp:106] Creating Layer proposal
I0430 21:45:57.534385  9521 net.cpp:454] proposal <- rpn_cls_prob_reshape
I0430 21:45:57.534392  9521 net.cpp:454] proposal <- rpn_bbox_pred
I0430 21:45:57.534399  9521 net.cpp:454] proposal <- im_info
I0430 21:45:57.534405  9521 net.cpp:411] proposal -> rois
I0430 21:45:57.535460  9521 net.cpp:150] Setting up proposal
I0430 21:45:57.535476  9521 net.cpp:157] Top shape: 1 5 (5)
I0430 21:45:57.535481  9521 net.cpp:165] Memory required for data: 21835076
I0430 21:45:57.535485  9521 layer_factory.hpp:77] Creating layer roi_pool_conv5
I0430 21:45:57.535501  9521 net.cpp:106] Creating Layer roi_pool_conv5
I0430 21:45:57.535506  9521 net.cpp:454] roi_pool_conv5 <- conv5_relu5_0_split_1
I0430 21:45:57.535513  9521 net.cpp:454] roi_pool_conv5 <- rois
I0430 21:45:57.535521  9521 net.cpp:411] roi_pool_conv5 -> roi_pool_conv5
I0430 21:45:57.535533  9521 roi_pooling_layer.cpp:30] Spatial scale: 0.0625
I0430 21:45:57.535595  9521 net.cpp:150] Setting up roi_pool_conv5
I0430 21:45:57.535603  9521 net.cpp:157] Top shape: 1 256 6 6 (9216)
I0430 21:45:57.535609  9521 net.cpp:165] Memory required for data: 21871940
I0430 21:45:57.535611  9521 layer_factory.hpp:77] Creating layer fc6
I0430 21:45:57.535624  9521 net.cpp:106] Creating Layer fc6
I0430 21:45:57.535629  9521 net.cpp:454] fc6 <- roi_pool_conv5
I0430 21:45:57.535635  9521 net.cpp:411] fc6 -> fc6
I0430 21:45:57.735239  9521 net.cpp:150] Setting up fc6
I0430 21:45:57.735285  9521 net.cpp:157] Top shape: 1 4096 (4096)
I0430 21:45:57.735290  9521 net.cpp:165] Memory required for data: 21888324
I0430 21:45:57.735321  9521 layer_factory.hpp:77] Creating layer relu6
I0430 21:45:57.735342  9521 net.cpp:106] Creating Layer relu6
I0430 21:45:57.735349  9521 net.cpp:454] relu6 <- fc6
I0430 21:45:57.735359  9521 net.cpp:397] relu6 -> fc6 (in-place)
I0430 21:45:57.735373  9521 net.cpp:150] Setting up relu6
I0430 21:45:57.735378  9521 net.cpp:157] Top shape: 1 4096 (4096)
I0430 21:45:57.735380  9521 net.cpp:165] Memory required for data: 21904708
I0430 21:45:57.735385  9521 layer_factory.hpp:77] Creating layer drop6
I0430 21:45:57.735409  9521 net.cpp:106] Creating Layer drop6
I0430 21:45:57.735412  9521 net.cpp:454] drop6 <- fc6
I0430 21:45:57.735417  9521 net.cpp:397] drop6 -> fc6 (in-place)
I0430 21:45:57.735448  9521 net.cpp:150] Setting up drop6
I0430 21:45:57.735453  9521 net.cpp:157] Top shape: 1 4096 (4096)
I0430 21:45:57.735456  9521 net.cpp:165] Memory required for data: 21921092
I0430 21:45:57.735461  9521 layer_factory.hpp:77] Creating layer fc7
I0430 21:45:57.735471  9521 net.cpp:106] Creating Layer fc7
I0430 21:45:57.735476  9521 net.cpp:454] fc7 <- fc6
I0430 21:45:57.735483  9521 net.cpp:411] fc7 -> fc7
I0430 21:45:57.834580  9521 net.cpp:150] Setting up fc7
I0430 21:45:57.834616  9521 net.cpp:157] Top shape: 1 4096 (4096)
I0430 21:45:57.834620  9521 net.cpp:165] Memory required for data: 21937476
I0430 21:45:57.834635  9521 layer_factory.hpp:77] Creating layer relu7
I0430 21:45:57.834651  9521 net.cpp:106] Creating Layer relu7
I0430 21:45:57.834657  9521 net.cpp:454] relu7 <- fc7
I0430 21:45:57.834666  9521 net.cpp:397] relu7 -> fc7 (in-place)
I0430 21:45:57.834677  9521 net.cpp:150] Setting up relu7
I0430 21:45:57.834682  9521 net.cpp:157] Top shape: 1 4096 (4096)
I0430 21:45:57.834686  9521 net.cpp:165] Memory required for data: 21953860
I0430 21:45:57.834689  9521 layer_factory.hpp:77] Creating layer drop7
I0430 21:45:57.834699  9521 net.cpp:106] Creating Layer drop7
I0430 21:45:57.834702  9521 net.cpp:454] drop7 <- fc7
I0430 21:45:57.834709  9521 net.cpp:397] drop7 -> fc7 (in-place)
I0430 21:45:57.834733  9521 net.cpp:150] Setting up drop7
I0430 21:45:57.834738  9521 net.cpp:157] Top shape: 1 4096 (4096)
I0430 21:45:57.834744  9521 net.cpp:165] Memory required for data: 21970244
I0430 21:45:57.834748  9521 layer_factory.hpp:77] Creating layer fc7_drop7_0_split
I0430 21:45:57.834755  9521 net.cpp:106] Creating Layer fc7_drop7_0_split
I0430 21:45:57.834759  9521 net.cpp:454] fc7_drop7_0_split <- fc7
I0430 21:45:57.834765  9521 net.cpp:411] fc7_drop7_0_split -> fc7_drop7_0_split_0
I0430 21:45:57.834772  9521 net.cpp:411] fc7_drop7_0_split -> fc7_drop7_0_split_1
I0430 21:45:57.834817  9521 net.cpp:150] Setting up fc7_drop7_0_split
I0430 21:45:57.834823  9521 net.cpp:157] Top shape: 1 4096 (4096)
I0430 21:45:57.834827  9521 net.cpp:157] Top shape: 1 4096 (4096)
I0430 21:45:57.834830  9521 net.cpp:165] Memory required for data: 22003012
I0430 21:45:57.834834  9521 layer_factory.hpp:77] Creating layer cls_score
I0430 21:45:57.834853  9521 net.cpp:106] Creating Layer cls_score
I0430 21:45:57.834857  9521 net.cpp:454] cls_score <- fc7_drop7_0_split_0
I0430 21:45:57.834863  9521 net.cpp:411] cls_score -> cls_score
I0430 21:45:57.834977  9521 net.cpp:150] Setting up cls_score
I0430 21:45:57.834983  9521 net.cpp:157] Top shape: 1 2 (2)
I0430 21:45:57.834986  9521 net.cpp:165] Memory required for data: 22003020
I0430 21:45:57.834992  9521 layer_factory.hpp:77] Creating layer bbox_pred
I0430 21:45:57.834998  9521 net.cpp:106] Creating Layer bbox_pred
I0430 21:45:57.835005  9521 net.cpp:454] bbox_pred <- fc7_drop7_0_split_1
I0430 21:45:57.835011  9521 net.cpp:411] bbox_pred -> bbox_pred
I0430 21:45:57.836213  9521 net.cpp:150] Setting up bbox_pred
I0430 21:45:57.836225  9521 net.cpp:157] Top shape: 1 8 (8)
I0430 21:45:57.836230  9521 net.cpp:165] Memory required for data: 22003052
I0430 21:45:57.836236  9521 layer_factory.hpp:77] Creating layer cls_prob
I0430 21:45:57.836247  9521 net.cpp:106] Creating Layer cls_prob
I0430 21:45:57.836251  9521 net.cpp:454] cls_prob <- cls_score
I0430 21:45:57.836256  9521 net.cpp:411] cls_prob -> cls_prob
I0430 21:45:57.836314  9521 net.cpp:150] Setting up cls_prob
I0430 21:45:57.836320  9521 net.cpp:157] Top shape: 1 2 (2)
I0430 21:45:57.836323  9521 net.cpp:165] Memory required for data: 22003060
I0430 21:45:57.836328  9521 net.cpp:228] cls_prob does not need backward computation.
I0430 21:45:57.836336  9521 net.cpp:228] bbox_pred does not need backward computation.
I0430 21:45:57.836338  9521 net.cpp:228] cls_score does not need backward computation.
I0430 21:45:57.836344  9521 net.cpp:228] fc7_drop7_0_split does not need backward computation.
…
