…
           'USE_FLIPPED': True,
           'USE_PREFETCH': False},
 'USE_GPU_NMS': False}
../../tools/test_net.py:80: RuntimeWarning: to-Python converter for boost::shared_ptr<caffe::Blob<float> > already registered; second conversion method ignored.
  caffe.set_mode_gpu()
WARNING: Logging before InitGoogleLogging() is written to STDERR
I0504 14:25:47.558866  9327 net.cpp:49] Initializing net from parameters: 
name: "ZF"
input: "data"
input: "im_info"
state {
  phase: TEST
}
input_shape {
  dim: 1
  dim: 3
  dim: 224
  dim: 224
}
input_shape {
  dim: 1
  dim: 3
}
layer {
  name: "conv1"
  type: "Convolution"
  bottom: "data"
  top: "conv1"
  convolution_param {
    num_output: 96
    pad: 3
    kernel_size: 7
    stride: 2
  }
}
layer {
  name: "relu1"
  type: "ReLU"
  bottom: "conv1"
  top: "conv1"
}
layer {
  name: "norm1"
  type: "LRN"
  bottom: "conv1"
  top: "norm1"
  lrn_param {
    local_size: 3
    alpha: 5e-05
    beta: 0.75
    norm_region: WITHIN_CHANNEL
    engine: CAFFE
  }
}
layer {
  name: "pool1"
  type: "Pooling"
  bottom: "norm1"
  top: "pool1"
  pooling_param {
    pool: MAX
    kernel_size: 3
    stride: 2
    pad: 1
  }
}
layer {
  name: "conv2"
  type: "Convolution"
  bottom: "pool1"
  top: "conv2"
  convolution_param {
    num_output: 256
    pad: 2
    kernel_size: 5
    stride: 2
  }
}
layer {
  name: "relu2"
  type: "ReLU"
  bottom: "conv2"
  top: "conv2"
}
layer {
  name: "norm2"
  type: "LRN"
  bottom: "conv2"
  top: "norm2"
  lrn_param {
    local_size: 3
    alpha: 5e-05
    beta: 0.75
    norm_region: WITHIN_CHANNEL
    engine: CAFFE
  }
}
layer {
  name: "pool2"
  type: "Pooling"
  bottom: "norm2"
  top: "pool2"
  pooling_param {
    pool: MAX
    kernel_size: 3
    stride: 2
    pad: 1
  }
}
layer {
  name: "conv3"
  type: "Convolution"
  bottom: "pool2"
  top: "conv3"
  convolution_param {
    num_output: 384
    pad: 1
    kernel_size: 3
    stride: 1
  }
}
layer {
  name: "relu3"
  type: "ReLU"
  bottom: "conv3"
  top: "conv3"
}
layer {
  name: "conv4"
  type: "Convolution"
  bottom: "conv3"
  top: "conv4"
  convolution_param {
    num_output: 384
    pad: 1
    kernel_size: 3
    stride: 1
  }
}
layer {
  name: "relu4"
  type: "ReLU"
  bottom: "conv4"
  top: "conv4"
}
layer {
  name: "conv5"
  type: "Convolution"
  bottom: "conv4"
  top: "conv5"
  convolution_param {
    num_output: 256
    pad: 1
    kernel_size: 3
    stride: 1
  }
}
layer {
  name: "relu5"
  type: "ReLU"
  bottom: "conv5"
  top: "conv5"
}
layer {
  name: "rpn_conv/3x3"
  type: "Convolution"
  bottom: "conv5"
  top: "rpn/output"
  convolution_param {
    num_output: 256
    pad: 1
    kernel_size: 3
    stride: 1
    weight_filler {
      type: "gaussian"
      std: 0.01
    }
    bias_filler {
      type: "constant"
      value: 0
    }
  }
}
layer {
  name: "rpn_relu/3x3"
  type: "ReLU"
  bottom: "rpn/output"
  top: "rpn/output"
}
layer {
  name: "rpn_cls_score"
  type: "Convolution"
  bottom: "rpn/output"
  top: "rpn_cls_score"
  convolution_param {
    num_output: 18
    pad: 0
    kernel_size: 1
    stride: 1
    weight_filler {
      type: "gaussian"
      std: 0.01
    }
    bias_filler {
      type: "constant"
      value: 0
    }
  }
}
layer {
  name: "rpn_bbox_pred"
  type: "Convolution"
  bottom: "rpn/output"
  top: "rpn_bbox_pred"
  convolution_param {
    num_output: 36
    pad: 0
    kernel_size: 1
    stride: 1
    weight_filler {
      type: "gaussian"
      std: 0.01
    }
    bias_filler {
      type: "constant"
      value: 0
    }
  }
}
layer {
  name: "rpn_cls_score_reshape"
  type: "Reshape"
  bottom: "rpn_cls_score"
  top: "rpn_cls_score_reshape"
  reshape_param {
    shape {
      dim: 0
      dim: 2
      dim: -1
      dim: 0
    }
  }
}
layer {
  name: "rpn_cls_prob"
  type: "Softmax"
  bottom: "rpn_cls_score_reshape"
  top: "rpn_cls_prob"
}
layer {
  name: "rpn_cls_prob_reshape"
  type: "Reshape"
  bottom: "rpn_cls_prob"
  top: "rpn_cls_prob_reshape"
  reshape_param {
    shape {
      dim: 0
      dim: 18
      dim: -1
      dim: 0
    }
  }
}
layer {
  name: "proposal"
  type: "Python"
  bottom: "rpn_cls_prob_reshape"
  bottom: "rpn_bbox_pred"
  bottom: "im_info"
  top: "rois"
  python_param {
    module: "rpn.proposal_layer"
    layer: "ProposalLayer"
    param_str: "\'feat_stride\': 16"
  }
}
layer {
  name: "roi_pool_conv5"
  type: "ROIPooling"
  bottom: "conv5"
  bottom: "rois"
  top: "roi_pool_conv5"
  roi_pooling_param {
    pooled_h: 6
    pooled_w: 6
    spatial_scale: 0.0625
  }
}
layer {
  name: "fc6"
  type: "InnerProduct"
  bottom: "roi_pool_conv5"
  top: "fc6"
  inner_product_param {
    num_output: 4096
  }
}
layer {
  name: "relu6"
  type: "ReLU"
  bottom: "fc6"
  top: "fc6"
}
layer {
  name: "drop6"
  type: "Dropout"
  bottom: "fc6"
  top: "fc6"
  dropout_param {
    dropout_ratio: 0.5
    scale_train: false
  }
}
layer {
  name: "fc7"
  type: "InnerProduct"
  bottom: "fc6"
  top: "fc7"
  inner_product_param {
    num_output: 4096
  }
}
layer {
  name: "relu7"
  type: "ReLU"
  bottom: "fc7"
  top: "fc7"
}
layer {
  name: "drop7"
  type: "Dropout"
  bottom: "fc7"
  top: "fc7"
  dropout_param {
    dropout_ratio: 0.5
    scale_train: false
  }
}
layer {
  name: "cls_score"
  type: "InnerProduct"
  bottom: "fc7"
  top: "cls_score"
  inner_product_param {
    num_output: 2
  }
}
layer {
  name: "bbox_pred"
  type: "InnerProduct"
  bottom: "fc7"
  top: "bbox_pred"
  inner_product_param {
    num_output: 8
  }
}
layer {
  name: "cls_prob"
  type: "Softmax"
  bottom: "cls_score"
  top: "cls_prob"
  loss_param {
    ignore_label: -1
    normalize: true
  }
}
I0504 14:25:47.559134  9327 net.cpp:413] Input 0 -> data
I0504 14:25:47.586782  9327 net.cpp:413] Input 1 -> im_info
I0504 14:25:47.586850  9327 layer_factory.hpp:77] Creating layer conv1
I0504 14:25:47.586880  9327 net.cpp:106] Creating Layer conv1
I0504 14:25:47.586885  9327 net.cpp:454] conv1 <- data
I0504 14:25:47.586891  9327 net.cpp:411] conv1 -> conv1
I0504 14:25:47.587985  9327 net.cpp:150] Setting up conv1
I0504 14:25:47.587999  9327 net.cpp:157] Top shape: 1 96 112 112 (1204224)
I0504 14:25:47.588003  9327 net.cpp:165] Memory required for data: 4816896
I0504 14:25:47.588017  9327 layer_factory.hpp:77] Creating layer relu1
I0504 14:25:47.588029  9327 net.cpp:106] Creating Layer relu1
I0504 14:25:47.588034  9327 net.cpp:454] relu1 <- conv1
I0504 14:25:47.588039  9327 net.cpp:397] relu1 -> conv1 (in-place)
I0504 14:25:47.588049  9327 net.cpp:150] Setting up relu1
I0504 14:25:47.588055  9327 net.cpp:157] Top shape: 1 96 112 112 (1204224)
I0504 14:25:47.588057  9327 net.cpp:165] Memory required for data: 9633792
I0504 14:25:47.588060  9327 layer_factory.hpp:77] Creating layer norm1
I0504 14:25:47.588073  9327 net.cpp:106] Creating Layer norm1
I0504 14:25:47.588076  9327 net.cpp:454] norm1 <- conv1
I0504 14:25:47.588080  9327 net.cpp:411] norm1 -> norm1
I0504 14:25:47.588201  9327 net.cpp:150] Setting up norm1
I0504 14:25:47.588210  9327 net.cpp:157] Top shape: 1 96 112 112 (1204224)
I0504 14:25:47.588213  9327 net.cpp:165] Memory required for data: 14450688
I0504 14:25:47.588217  9327 layer_factory.hpp:77] Creating layer pool1
I0504 14:25:47.588222  9327 net.cpp:106] Creating Layer pool1
I0504 14:25:47.588225  9327 net.cpp:454] pool1 <- norm1
I0504 14:25:47.588234  9327 net.cpp:411] pool1 -> pool1
I0504 14:25:47.588279  9327 net.cpp:150] Setting up pool1
I0504 14:25:47.588285  9327 net.cpp:157] Top shape: 1 96 57 57 (311904)
I0504 14:25:47.588289  9327 net.cpp:165] Memory required for data: 15698304
I0504 14:25:47.588292  9327 layer_factory.hpp:77] Creating layer conv2
I0504 14:25:47.588300  9327 net.cpp:106] Creating Layer conv2
I0504 14:25:47.588304  9327 net.cpp:454] conv2 <- pool1
I0504 14:25:47.588310  9327 net.cpp:411] conv2 -> conv2
I0504 14:25:47.591505  9327 net.cpp:150] Setting up conv2
I0504 14:25:47.591516  9327 net.cpp:157] Top shape: 1 256 29 29 (215296)
I0504 14:25:47.591519  9327 net.cpp:165] Memory required for data: 16559488
I0504 14:25:47.591538  9327 layer_factory.hpp:77] Creating layer relu2
I0504 14:25:47.591547  9327 net.cpp:106] Creating Layer relu2
I0504 14:25:47.591550  9327 net.cpp:454] relu2 <- conv2
I0504 14:25:47.591558  9327 net.cpp:397] relu2 -> conv2 (in-place)
I0504 14:25:47.591567  9327 net.cpp:150] Setting up relu2
I0504 14:25:47.591572  9327 net.cpp:157] Top shape: 1 256 29 29 (215296)
I0504 14:25:47.591574  9327 net.cpp:165] Memory required for data: 17420672
I0504 14:25:47.591578  9327 layer_factory.hpp:77] Creating layer norm2
I0504 14:25:47.591584  9327 net.cpp:106] Creating Layer norm2
I0504 14:25:47.591588  9327 net.cpp:454] norm2 <- conv2
I0504 14:25:47.591593  9327 net.cpp:411] norm2 -> norm2
I0504 14:25:47.591687  9327 net.cpp:150] Setting up norm2
I0504 14:25:47.591694  9327 net.cpp:157] Top shape: 1 256 29 29 (215296)
I0504 14:25:47.591698  9327 net.cpp:165] Memory required for data: 18281856
I0504 14:25:47.591701  9327 layer_factory.hpp:77] Creating layer pool2
I0504 14:25:47.591711  9327 net.cpp:106] Creating Layer pool2
I0504 14:25:47.591714  9327 net.cpp:454] pool2 <- norm2
I0504 14:25:47.591719  9327 net.cpp:411] pool2 -> pool2
I0504 14:25:47.591754  9327 net.cpp:150] Setting up pool2
I0504 14:25:47.591760  9327 net.cpp:157] Top shape: 1 256 15 15 (57600)
I0504 14:25:47.591763  9327 net.cpp:165] Memory required for data: 18512256
I0504 14:25:47.591768  9327 layer_factory.hpp:77] Creating layer conv3
I0504 14:25:47.591776  9327 net.cpp:106] Creating Layer conv3
I0504 14:25:47.591779  9327 net.cpp:454] conv3 <- pool2
I0504 14:25:47.591785  9327 net.cpp:411] conv3 -> conv3
I0504 14:25:47.594921  9327 net.cpp:150] Setting up conv3
I0504 14:25:47.594934  9327 net.cpp:157] Top shape: 1 384 15 15 (86400)
I0504 14:25:47.594938  9327 net.cpp:165] Memory required for data: 18857856
I0504 14:25:47.594949  9327 layer_factory.hpp:77] Creating layer relu3
I0504 14:25:47.594959  9327 net.cpp:106] Creating Layer relu3
I0504 14:25:47.594962  9327 net.cpp:454] relu3 <- conv3
I0504 14:25:47.594969  9327 net.cpp:397] relu3 -> conv3 (in-place)
I0504 14:25:47.594975  9327 net.cpp:150] Setting up relu3
I0504 14:25:47.594980  9327 net.cpp:157] Top shape: 1 384 15 15 (86400)
I0504 14:25:47.594983  9327 net.cpp:165] Memory required for data: 19203456
I0504 14:25:47.594987  9327 layer_factory.hpp:77] Creating layer conv4
I0504 14:25:47.594996  9327 net.cpp:106] Creating Layer conv4
I0504 14:25:47.595000  9327 net.cpp:454] conv4 <- conv3
I0504 14:25:47.595005  9327 net.cpp:411] conv4 -> conv4
I0504 14:25:47.599748  9327 net.cpp:150] Setting up conv4
I0504 14:25:47.599761  9327 net.cpp:157] Top shape: 1 384 15 15 (86400)
I0504 14:25:47.599766  9327 net.cpp:165] Memory required for data: 19549056
I0504 14:25:47.599773  9327 layer_factory.hpp:77] Creating layer relu4
I0504 14:25:47.599781  9327 net.cpp:106] Creating Layer relu4
I0504 14:25:47.599784  9327 net.cpp:454] relu4 <- conv4
I0504 14:25:47.599789  9327 net.cpp:397] relu4 -> conv4 (in-place)
I0504 14:25:47.599797  9327 net.cpp:150] Setting up relu4
I0504 14:25:47.599802  9327 net.cpp:157] Top shape: 1 384 15 15 (86400)
I0504 14:25:47.599804  9327 net.cpp:165] Memory required for data: 19894656
I0504 14:25:47.599808  9327 layer_factory.hpp:77] Creating layer conv5
I0504 14:25:47.599818  9327 net.cpp:106] Creating Layer conv5
I0504 14:25:47.599822  9327 net.cpp:454] conv5 <- conv4
I0504 14:25:47.599834  9327 net.cpp:411] conv5 -> conv5
I0504 14:25:47.604920  9327 net.cpp:150] Setting up conv5
I0504 14:25:47.604935  9327 net.cpp:157] Top shape: 1 256 15 15 (57600)
I0504 14:25:47.604939  9327 net.cpp:165] Memory required for data: 20125056
I0504 14:25:47.604949  9327 layer_factory.hpp:77] Creating layer relu5
I0504 14:25:47.604956  9327 net.cpp:106] Creating Layer relu5
I0504 14:25:47.604960  9327 net.cpp:454] relu5 <- conv5
I0504 14:25:47.604966  9327 net.cpp:397] relu5 -> conv5 (in-place)
I0504 14:25:47.604974  9327 net.cpp:150] Setting up relu5
I0504 14:25:47.604979  9327 net.cpp:157] Top shape: 1 256 15 15 (57600)
I0504 14:25:47.604982  9327 net.cpp:165] Memory required for data: 20355456
I0504 14:25:47.604985  9327 layer_factory.hpp:77] Creating layer conv5_relu5_0_split
I0504 14:25:47.604996  9327 net.cpp:106] Creating Layer conv5_relu5_0_split
I0504 14:25:47.605000  9327 net.cpp:454] conv5_relu5_0_split <- conv5
I0504 14:25:47.605008  9327 net.cpp:411] conv5_relu5_0_split -> conv5_relu5_0_split_0
I0504 14:25:47.605015  9327 net.cpp:411] conv5_relu5_0_split -> conv5_relu5_0_split_1
I0504 14:25:47.605053  9327 net.cpp:150] Setting up conv5_relu5_0_split
I0504 14:25:47.605059  9327 net.cpp:157] Top shape: 1 256 15 15 (57600)
I0504 14:25:47.605064  9327 net.cpp:157] Top shape: 1 256 15 15 (57600)
I0504 14:25:47.605068  9327 net.cpp:165] Memory required for data: 20816256
I0504 14:25:47.605072  9327 layer_factory.hpp:77] Creating layer rpn_conv/3x3
I0504 14:25:47.605083  9327 net.cpp:106] Creating Layer rpn_conv/3x3
I0504 14:25:47.605087  9327 net.cpp:454] rpn_conv/3x3 <- conv5_relu5_0_split_0
I0504 14:25:47.605093  9327 net.cpp:411] rpn_conv/3x3 -> rpn/output
I0504 14:25:47.617655  9327 net.cpp:150] Setting up rpn_conv/3x3
I0504 14:25:47.617666  9327 net.cpp:157] Top shape: 1 256 15 15 (57600)
I0504 14:25:47.617669  9327 net.cpp:165] Memory required for data: 21046656
I0504 14:25:47.617681  9327 layer_factory.hpp:77] Creating layer rpn_relu/3x3
I0504 14:25:47.617692  9327 net.cpp:106] Creating Layer rpn_relu/3x3
I0504 14:25:47.617697  9327 net.cpp:454] rpn_relu/3x3 <- rpn/output
I0504 14:25:47.617703  9327 net.cpp:397] rpn_relu/3x3 -> rpn/output (in-place)
I0504 14:25:47.617710  9327 net.cpp:150] Setting up rpn_relu/3x3
I0504 14:25:47.617715  9327 net.cpp:157] Top shape: 1 256 15 15 (57600)
I0504 14:25:47.617718  9327 net.cpp:165] Memory required for data: 21277056
I0504 14:25:47.617722  9327 layer_factory.hpp:77] Creating layer rpn/output_rpn_relu/3x3_0_split
I0504 14:25:47.617728  9327 net.cpp:106] Creating Layer rpn/output_rpn_relu/3x3_0_split
I0504 14:25:47.617732  9327 net.cpp:454] rpn/output_rpn_relu/3x3_0_split <- rpn/output
I0504 14:25:47.617736  9327 net.cpp:411] rpn/output_rpn_relu/3x3_0_split -> rpn/output_rpn_relu/3x3_0_split_0
I0504 14:25:47.617746  9327 net.cpp:411] rpn/output_rpn_relu/3x3_0_split -> rpn/output_rpn_relu/3x3_0_split_1
I0504 14:25:47.617780  9327 net.cpp:150] Setting up rpn/output_rpn_relu/3x3_0_split
I0504 14:25:47.617786  9327 net.cpp:157] Top shape: 1 256 15 15 (57600)
I0504 14:25:47.617791  9327 net.cpp:157] Top shape: 1 256 15 15 (57600)
I0504 14:25:47.617794  9327 net.cpp:165] Memory required for data: 21737856
I0504 14:25:47.617797  9327 layer_factory.hpp:77] Creating layer rpn_cls_score
I0504 14:25:47.617808  9327 net.cpp:106] Creating Layer rpn_cls_score
I0504 14:25:47.617812  9327 net.cpp:454] rpn_cls_score <- rpn/output_rpn_relu/3x3_0_split_0
I0504 14:25:47.617821  9327 net.cpp:411] rpn_cls_score -> rpn_cls_score
I0504 14:25:47.618124  9327 net.cpp:150] Setting up rpn_cls_score
I0504 14:25:47.618132  9327 net.cpp:157] Top shape: 1 18 15 15 (4050)
I0504 14:25:47.618135  9327 net.cpp:165] Memory required for data: 21754056
I0504 14:25:47.618142  9327 layer_factory.hpp:77] Creating layer rpn_bbox_pred
I0504 14:25:47.618154  9327 net.cpp:106] Creating Layer rpn_bbox_pred
I0504 14:25:47.618157  9327 net.cpp:454] rpn_bbox_pred <- rpn/output_rpn_relu/3x3_0_split_1
I0504 14:25:47.618163  9327 net.cpp:411] rpn_bbox_pred -> rpn_bbox_pred
I0504 14:25:47.618566  9327 net.cpp:150] Setting up rpn_bbox_pred
I0504 14:25:47.618574  9327 net.cpp:157] Top shape: 1 36 15 15 (8100)
I0504 14:25:47.618577  9327 net.cpp:165] Memory required for data: 21786456
I0504 14:25:47.618584  9327 layer_factory.hpp:77] Creating layer rpn_cls_score_reshape
I0504 14:25:47.618598  9327 net.cpp:106] Creating Layer rpn_cls_score_reshape
I0504 14:25:47.618602  9327 net.cpp:454] rpn_cls_score_reshape <- rpn_cls_score
I0504 14:25:47.618608  9327 net.cpp:411] rpn_cls_score_reshape -> rpn_cls_score_reshape
I0504 14:25:47.618641  9327 net.cpp:150] Setting up rpn_cls_score_reshape
I0504 14:25:47.618647  9327 net.cpp:157] Top shape: 1 2 135 15 (4050)
I0504 14:25:47.618650  9327 net.cpp:165] Memory required for data: 21802656
I0504 14:25:47.618654  9327 layer_factory.hpp:77] Creating layer rpn_cls_prob
I0504 14:25:47.618660  9327 net.cpp:106] Creating Layer rpn_cls_prob
I0504 14:25:47.618664  9327 net.cpp:454] rpn_cls_prob <- rpn_cls_score_reshape
I0504 14:25:47.618674  9327 net.cpp:411] rpn_cls_prob -> rpn_cls_prob
I0504 14:25:47.618731  9327 net.cpp:150] Setting up rpn_cls_prob
I0504 14:25:47.618737  9327 net.cpp:157] Top shape: 1 2 135 15 (4050)
I0504 14:25:47.618741  9327 net.cpp:165] Memory required for data: 21818856
I0504 14:25:47.618744  9327 layer_factory.hpp:77] Creating layer rpn_cls_prob_reshape
I0504 14:25:47.618753  9327 net.cpp:106] Creating Layer rpn_cls_prob_reshape
I0504 14:25:47.618757  9327 net.cpp:454] rpn_cls_prob_reshape <- rpn_cls_prob
I0504 14:25:47.618762  9327 net.cpp:411] rpn_cls_prob_reshape -> rpn_cls_prob_reshape
I0504 14:25:47.618782  9327 net.cpp:150] Setting up rpn_cls_prob_reshape
I0504 14:25:47.618788  9327 net.cpp:157] Top shape: 1 18 15 15 (4050)
I0504 14:25:47.618790  9327 net.cpp:165] Memory required for data: 21835056
I0504 14:25:47.618794  9327 layer_factory.hpp:77] Creating layer proposal
I0504 14:25:47.621490  9327 net.cpp:106] Creating Layer proposal
I0504 14:25:47.621502  9327 net.cpp:454] proposal <- rpn_cls_prob_reshape
I0504 14:25:47.621510  9327 net.cpp:454] proposal <- rpn_bbox_pred
I0504 14:25:47.621515  9327 net.cpp:454] proposal <- im_info
I0504 14:25:47.621520  9327 net.cpp:411] proposal -> rois
I0504 14:25:47.622571  9327 net.cpp:150] Setting up proposal
I0504 14:25:47.622586  9327 net.cpp:157] Top shape: 1 5 (5)
I0504 14:25:47.622589  9327 net.cpp:165] Memory required for data: 21835076
I0504 14:25:47.622594  9327 layer_factory.hpp:77] Creating layer roi_pool_conv5
I0504 14:25:47.622606  9327 net.cpp:106] Creating Layer roi_pool_conv5
I0504 14:25:47.622611  9327 net.cpp:454] roi_pool_conv5 <- conv5_relu5_0_split_1
I0504 14:25:47.622617  9327 net.cpp:454] roi_pool_conv5 <- rois
I0504 14:25:47.622622  9327 net.cpp:411] roi_pool_conv5 -> roi_pool_conv5
I0504 14:25:47.622633  9327 roi_pooling_layer.cpp:30] Spatial scale: 0.0625
I0504 14:25:47.622683  9327 net.cpp:150] Setting up roi_pool_conv5
I0504 14:25:47.622689  9327 net.cpp:157] Top shape: 1 256 6 6 (9216)
I0504 14:25:47.622692  9327 net.cpp:165] Memory required for data: 21871940
I0504 14:25:47.622695  9327 layer_factory.hpp:77] Creating layer fc6
I0504 14:25:47.622704  9327 net.cpp:106] Creating Layer fc6
I0504 14:25:47.622709  9327 net.cpp:454] fc6 <- roi_pool_conv5
I0504 14:25:47.622714  9327 net.cpp:411] fc6 -> fc6
I0504 14:25:47.874584  9327 net.cpp:150] Setting up fc6
I0504 14:25:47.874613  9327 net.cpp:157] Top shape: 1 4096 (4096)
I0504 14:25:47.874616  9327 net.cpp:165] Memory required for data: 21888324
I0504 14:25:47.874639  9327 layer_factory.hpp:77] Creating layer relu6
I0504 14:25:47.874650  9327 net.cpp:106] Creating Layer relu6
I0504 14:25:47.874656  9327 net.cpp:454] relu6 <- fc6
I0504 14:25:47.874663  9327 net.cpp:397] relu6 -> fc6 (in-place)
I0504 14:25:47.874675  9327 net.cpp:150] Setting up relu6
I0504 14:25:47.874680  9327 net.cpp:157] Top shape: 1 4096 (4096)
I0504 14:25:47.874682  9327 net.cpp:165] Memory required for data: 21904708
I0504 14:25:47.874686  9327 layer_factory.hpp:77] Creating layer drop6
I0504 14:25:47.874701  9327 net.cpp:106] Creating Layer drop6
I0504 14:25:47.874708  9327 net.cpp:454] drop6 <- fc6
I0504 14:25:47.874716  9327 net.cpp:397] drop6 -> fc6 (in-place)
I0504 14:25:47.874749  9327 net.cpp:150] Setting up drop6
I0504 14:25:47.874758  9327 net.cpp:157] Top shape: 1 4096 (4096)
I0504 14:25:47.874763  9327 net.cpp:165] Memory required for data: 21921092
I0504 14:25:47.874768  9327 layer_factory.hpp:77] Creating layer fc7
I0504 14:25:47.874778  9327 net.cpp:106] Creating Layer fc7
I0504 14:25:47.874783  9327 net.cpp:454] fc7 <- fc6
I0504 14:25:47.874791  9327 net.cpp:411] fc7 -> fc7
I0504 14:25:47.989473  9327 net.cpp:150] Setting up fc7
I0504 14:25:47.989506  9327 net.cpp:157] Top shape: 1 4096 (4096)
I0504 14:25:47.989511  9327 net.cpp:165] Memory required for data: 21937476
I0504 14:25:47.989526  9327 layer_factory.hpp:77] Creating layer relu7
I0504 14:25:47.989538  9327 net.cpp:106] Creating Layer relu7
I0504 14:25:47.989549  9327 net.cpp:454] relu7 <- fc7
I0504 14:25:47.989559  9327 net.cpp:397] relu7 -> fc7 (in-place)
I0504 14:25:47.989569  9327 net.cpp:150] Setting up relu7
I0504 14:25:47.989576  9327 net.cpp:157] Top shape: 1 4096 (4096)
I0504 14:25:47.989580  9327 net.cpp:165] Memory required for data: 21953860
I0504 14:25:47.989585  9327 layer_factory.hpp:77] Creating layer drop7
I0504 14:25:47.989595  9327 net.cpp:106] Creating Layer drop7
I0504 14:25:47.989599  9327 net.cpp:454] drop7 <- fc7
I0504 14:25:47.989606  9327 net.cpp:397] drop7 -> fc7 (in-place)
I0504 14:25:47.989635  9327 net.cpp:150] Setting up drop7
I0504 14:25:47.989641  9327 net.cpp:157] Top shape: 1 4096 (4096)
I0504 14:25:47.989646  9327 net.cpp:165] Memory required for data: 21970244
I0504 14:25:47.989651  9327 layer_factory.hpp:77] Creating layer fc7_drop7_0_split
I0504 14:25:47.989660  9327 net.cpp:106] Creating Layer fc7_drop7_0_split
I0504 14:25:47.989665  9327 net.cpp:454] fc7_drop7_0_split <- fc7
I0504 14:25:47.989672  9327 net.cpp:411] fc7_drop7_0_split -> fc7_drop7_0_split_0
I0504 14:25:47.989681  9327 net.cpp:411] fc7_drop7_0_split -> fc7_drop7_0_split_1
I0504 14:25:47.989729  9327 net.cpp:150] Setting up fc7_drop7_0_split
I0504 14:25:47.989737  9327 net.cpp:157] Top shape: 1 4096 (4096)
I0504 14:25:47.989743  9327 net.cpp:157] Top shape: 1 4096 (4096)
I0504 14:25:47.989748  9327 net.cpp:165] Memory required for data: 22003012
I0504 14:25:47.989753  9327 layer_factory.hpp:77] Creating layer cls_score
I0504 14:25:47.989784  9327 net.cpp:106] Creating Layer cls_score
I0504 14:25:47.989789  9327 net.cpp:454] cls_score <- fc7_drop7_0_split_0
I0504 14:25:47.989797  9327 net.cpp:411] cls_score -> cls_score
I0504 14:25:47.989923  9327 net.cpp:150] Setting up cls_score
I0504 14:25:47.989931  9327 net.cpp:157] Top shape: 1 2 (2)
I0504 14:25:47.989935  9327 net.cpp:165] Memory required for data: 22003020
I0504 14:25:47.989945  9327 layer_factory.hpp:77] Creating layer bbox_pred
I0504 14:25:47.989953  9327 net.cpp:106] Creating Layer bbox_pred
I0504 14:25:47.989956  9327 net.cpp:454] bbox_pred <- fc7_drop7_0_split_1
I0504 14:25:47.989967  9327 net.cpp:411] bbox_pred -> bbox_pred
I0504 14:25:47.991267  9327 net.cpp:150] Setting up bbox_pred
I0504 14:25:47.991279  9327 net.cpp:157] Top shape: 1 8 (8)
I0504 14:25:47.991286  9327 net.cpp:165] Memory required for data: 22003052
I0504 14:25:47.991295  9327 layer_factory.hpp:77] Creating layer cls_prob
I0504 14:25:47.991308  9327 net.cpp:106] Creating Layer cls_prob
I0504 14:25:47.991313  9327 net.cpp:454] cls_prob <- cls_score
I0504 14:25:47.991322  9327 net.cpp:411] cls_prob -> cls_prob
I0504 14:25:47.991379  9327 net.cpp:150] Setting up cls_prob
I0504 14:25:47.991386  9327 net.cpp:157] Top shape: 1 2 (2)
I0504 14:25:47.991391  9327 net.cpp:165] Memory required for data: 22003060
I0504 14:25:47.991396  9327 net.cpp:228] cls_prob does not need backward computation.
I0504 14:25:47.991402  9327 net.cpp:228] bbox_pred does not need backward computation.
I0504 14:25:47.991406  9327 net.cpp:228] cls_score does not need backward computation.
I0504 14:25:47.991412  9327 net.cpp:228] fc7_drop7_0_split does not need backward computation.
…
