…
snapshot_prefix: "zf_faster_rcnn"
average_loss: 100
iter_size: 2
I0406 18:19:33.541324 24310 solver.cpp:81] Creating training net from train_net file: /home/sgabriel/py-faster-rcnn/models/pascal_voc/ZF/faster_rcnn_end2end/train.prototxt
I0406 18:19:33.542728 24310 net.cpp:49] Initializing net from parameters: 
name: "ZF"
state {
  phase: TRAIN
}
layer {
  name: "input-data"
  type: "Python"
  top: "data"
  top: "im_info"
  top: "gt_boxes"
  python_param {
    module: "roi_data_layer.layer"
    layer: "RoIDataLayer"
    param_str: "\'num_classes\': 2"
  }
}
layer {
  name: "conv1"
  type: "Convolution"
  bottom: "data"
  top: "conv1"
  param {
    lr_mult: 0
  }
  param {
    lr_mult: 0
  }
  convolution_param {
    num_output: 96
    pad: 3
    kernel_size: 7
    stride: 2
  }
}
layer {
  name: "relu1"
  type: "ReLU"
  bottom: "conv1"
  top: "conv1"
}
layer {
  name: "norm1"
  type: "LRN"
  bottom: "conv1"
  top: "norm1"
  lrn_param {
    local_size: 3
    alpha: 5e-05
    beta: 0.75
    norm_region: WITHIN_CHANNEL
    engine: CAFFE
  }
}
layer {
  name: "pool1"
  type: "Pooling"
  bottom: "norm1"
  top: "pool1"
  pooling_param {
    pool: MAX
    kernel_size: 3
    stride: 2
    pad: 1
  }
}
layer {
  name: "conv2"
  type: "Convolution"
  bottom: "pool1"
  top: "conv2"
  param {
    lr_mult: 0
  }
  param {
    lr_mult: 0
  }
  convolution_param {
    num_output: 256
    pad: 2
    kernel_size: 5
    stride: 2
  }
}
layer {
  name: "relu2"
  type: "ReLU"
  bottom: "conv2"
  top: "conv2"
}
layer {
  name: "norm2"
  type: "LRN"
  bottom: "conv2"
  top: "norm2"
  lrn_param {
    local_size: 3
    alpha: 5e-05
    beta: 0.75
    norm_region: WITHIN_CHANNEL
    engine: CAFFE
  }
}
layer {
  name: "pool2"
  type: "Pooling"
  bottom: "norm2"
  top: "pool2"
  pooling_param {
    pool: MAX
    kernel_size: 3
    stride: 2
    pad: 1
  }
}
layer {
  name: "conv3"
  type: "Convolution"
  bottom: "pool2"
  top: "conv3"
  param {
    lr_mult: 0
  }
  param {
    lr_mult: 0
  }
  convolution_param {
    num_output: 384
    pad: 1
    kernel_size: 3
    stride: 1
  }
}
layer {
  name: "relu3"
  type: "ReLU"
  bottom: "conv3"
  top: "conv3"
}
layer {
  name: "conv4"
  type: "Convolution"
  bottom: "conv3"
  top: "conv4"
  param {
    lr_mult: 0
  }
  param {
    lr_mult: 0
  }
  convolution_param {
    num_output: 384
    pad: 1
    kernel_size: 3
    stride: 1
  }
}
layer {
  name: "relu4"
  type: "ReLU"
  bottom: "conv4"
  top: "conv4"
}
layer {
  name: "conv5"
  type: "Convolution"
  bottom: "conv4"
  top: "conv5"
  param {
    lr_mult: 0
  }
  param {
    lr_mult: 0
  }
  convolution_param {
    num_output: 256
    pad: 1
    kernel_size: 3
    stride: 1
  }
}
layer {
  name: "relu5"
  type: "ReLU"
  bottom: "conv5"
  top: "conv5"
}
layer {
  name: "rpn_conv/3x3"
  type: "Convolution"
  bottom: "conv5"
  top: "rpn/output"
  param {
    lr_mult: 1
  }
  param {
    lr_mult: 2
  }
  convolution_param {
    num_output: 256
    pad: 1
    kernel_size: 3
    stride: 1
    weight_filler {
      type: "gaussian"
      std: 0.01
    }
    bias_filler {
      type: "constant"
      value: 0
    }
  }
}
layer {
  name: "rpn_relu/3x3"
  type: "ReLU"
  bottom: "rpn/output"
  top: "rpn/output"
}
layer {
  name: "rpn_cls_score"
  type: "Convolution"
  bottom: "rpn/output"
  top: "rpn_cls_score"
  param {
    lr_mult: 1
  }
  param {
    lr_mult: 2
  }
  convolution_param {
    num_output: 18
    pad: 0
    kernel_size: 1
    stride: 1
    weight_filler {
      type: "gaussian"
      std: 0.01
    }
    bias_filler {
      type: "constant"
      value: 0
    }
  }
}
layer {
  name: "rpn_bbox_pred"
  type: "Convolution"
  bottom: "rpn/output"
  top: "rpn_bbox_pred"
  param {
    lr_mult: 1
  }
  param {
    lr_mult: 2
  }
  convolution_param {
    num_output: 36
    pad: 0
    kernel_size: 1
    stride: 1
    weight_filler {
      type: "gaussian"
      std: 0.01
    }
    bias_filler {
      type: "constant"
      value: 0
    }
  }
}
layer {
  name: "rpn_cls_score_reshape"
  type: "Reshape"
  bottom: "rpn_cls_score"
  top: "rpn_cls_score_reshape"
  reshape_param {
    shape {
      dim: 0
      dim: 2
      dim: -1
      dim: 0
    }
  }
}
layer {
  name: "rpn-data"
  type: "Python"
  bottom: "rpn_cls_score"
  bottom: "gt_boxes"
  bottom: "im_info"
  bottom: "data"
  top: "rpn_labels"
  top: "rpn_bbox_targets"
  top: "rpn_bbox_inside_weights"
  top: "rpn_bbox_outside_weights"
  python_param {
    module: "rpn.anchor_target_layer"
    layer: "AnchorTargetLayer"
    param_str: "\'feat_stride\': 16"
  }
}
layer {
  name: "rpn_loss_cls"
  type: "SoftmaxWithLoss"
  bottom: "rpn_cls_score_reshape"
  bottom: "rpn_labels"
  top: "rpn_cls_loss"
  loss_weight: 1
  propagate_down: true
  propagate_down: false
  loss_param {
    ignore_label: -1
    normalize: true
  }
}
layer {
  name: "rpn_loss_bbox"
  type: "SmoothL1Loss"
  bottom: "rpn_bbox_pred"
  bottom: "rpn_bbox_targets"
  bottom: "rpn_bbox_inside_weights"
  bottom: "rpn_bbox_outside_weights"
  top: "rpn_loss_bbox"
  loss_weight: 1
  smooth_l1_loss_param {
    sigma: 3
  }
}
layer {
  name: "rpn_cls_prob"
  type: "Softmax"
  bottom: "rpn_cls_score_reshape"
  top: "rpn_cls_prob"
}
layer {
  name: "rpn_cls_prob_reshape"
  type: "Reshape"
  bottom: "rpn_cls_prob"
  top: "rpn_cls_prob_reshape"
  reshape_param {
    shape {
      dim: 0
      dim: 18
      dim: -1
      dim: 0
    }
  }
}
layer {
  name: "proposal"
  type: "Python"
  bottom: "rpn_cls_prob_reshape"
  bottom: "rpn_bbox_pred"
  bottom: "im_info"
  top: "rpn_rois"
  python_param {
    module: "rpn.proposal_layer"
    layer: "ProposalLayer"
    param_str: "\'feat_stride\': 16"
  }
}
layer {
  name: "roi-data"
  type: "Python"
  bottom: "rpn_rois"
  bottom: "gt_boxes"
  top: "rois"
  top: "labels"
  top: "bbox_targets"
  top: "bbox_inside_weights"
  top: "bbox_outside_weights"
  python_param {
    module: "rpn.proposal_target_layer"
    layer: "ProposalTargetLayer"
    param_str: "\'num_classes\': 2"
  }
}
layer {
  name: "roi_pool_conv5"
  type: "ROIPooling"
  bottom: "conv5"
  bottom: "rois"
  top: "roi_pool_conv5"
  roi_pooling_param {
    pooled_h: 6
    pooled_w: 6
    spatial_scale: 0.0625
  }
}
layer {
  name: "fc6"
  type: "InnerProduct"
  bottom: "roi_pool_conv5"
  top: "fc6"
  param {
    lr_mult: 1
  }
  param {
    lr_mult: 2
  }
  inner_product_param {
    num_output: 4096
  }
}
layer {
  name: "relu6"
  type: "ReLU"
  bottom: "fc6"
  top: "fc6"
}
layer {
  name: "drop6"
  type: "Dropout"
  bottom: "fc6"
  top: "fc6"
  dropout_param {
    dropout_ratio: 0.5
    scale_train: false
  }
}
layer {
  name: "fc7"
  type: "InnerProduct"
  bottom: "fc6"
  top: "fc7"
  param {
    lr_mult: 0
  }
  param {
    lr_mult: 0
  }
  inner_product_param {
    num_output: 4096
  }
}
layer {
  name: "relu7"
  type: "ReLU"
  bottom: "fc7"
  top: "fc7"
}
layer {
  name: "drop7"
  type: "Dropout"
  bottom: "fc7"
  top: "fc7"
  dropout_param {
    dropout_ratio: 0.5
    scale_train: false
  }
}
layer {
  name: "cls_score"
  type: "InnerProduct"
  bottom: "fc7"
  top: "cls_score"
  param {
    lr_mult: 1
  }
  param {
    lr_mult: 2
  }
  inner_product_param {
    num_output: 2
    weight_filler {
      type: "gaussian"
      std: 0.01
    }
    bias_filler {
      type: "constant"
      value: 0
    }
  }
}
layer {
  name: "bbox_pred"
  type: "InnerProduct"
  bottom: "fc7"
  top: "bbox_pred"
  param {
    lr_mult: 1
  }
  param {
    lr_mult: 2
  }
  inner_product_param {
    num_output: 8
    weight_filler {
      type: "gaussian"
      std: 0.001
    }
    bias_filler {
      type: "constant"
      value: 0
    }
  }
}
layer {
  name: "loss_cls"
  type: "SoftmaxWithLoss"
  bottom: "cls_score"
  bottom: "labels"
  top: "cls_loss"
  loss_weight: 1
  propagate_down: true
  propagate_down: false
  loss_param {
    ignore_label: -1
    normalize: true
  }
}
layer {
  name: "loss_bbox"
  type: "SmoothL1Loss"
  bottom: "bbox_pred"
  bottom: "bbox_targets"
  bottom: "bbox_inside_weights"
  bottom: "bbox_outside_weights"
  top: "bbox_loss"
  loss_weight: 1
}
I0406 18:19:33.542959 24310 layer_factory.hpp:77] Creating layer input-data
I0406 18:19:33.695999 24310 net.cpp:106] Creating Layer input-data
I0406 18:19:33.696032 24310 net.cpp:411] input-data -> data
I0406 18:19:33.696061 24310 net.cpp:411] input-data -> im_info
I0406 18:19:33.696076 24310 net.cpp:411] input-data -> gt_boxes
RoiDataLayer: name_to_top: {'gt_boxes': 2, 'data': 0, 'im_info': 1}
I0406 18:19:33.753743 24310 net.cpp:150] Setting up input-data
I0406 18:19:33.753779 24310 net.cpp:157] Top shape: 1 3 600 600 (1080000)
I0406 18:19:33.753790 24310 net.cpp:157] Top shape: 1 3 (3)
I0406 18:19:33.753800 24310 net.cpp:157] Top shape: 1 4 (4)
I0406 18:19:33.753806 24310 net.cpp:165] Memory required for data: 4320028
I0406 18:19:33.753818 24310 layer_factory.hpp:77] Creating layer data_input-data_0_split
I0406 18:19:33.754981 24310 net.cpp:106] Creating Layer data_input-data_0_split
I0406 18:19:33.755000 24310 net.cpp:454] data_input-data_0_split <- data
I0406 18:19:33.755013 24310 net.cpp:411] data_input-data_0_split -> data_input-data_0_split_0
I0406 18:19:33.755030 24310 net.cpp:411] data_input-data_0_split -> data_input-data_0_split_1
I0406 18:19:33.755117 24310 net.cpp:150] Setting up data_input-data_0_split
I0406 18:19:33.755131 24310 net.cpp:157] Top shape: 1 3 600 600 (1080000)
I0406 18:19:33.755146 24310 net.cpp:157] Top shape: 1 3 600 600 (1080000)
I0406 18:19:33.755153 24310 net.cpp:165] Memory required for data: 12960028
I0406 18:19:33.755173 24310 layer_factory.hpp:77] Creating layer im_info_input-data_1_split
I0406 18:19:33.755185 24310 net.cpp:106] Creating Layer im_info_input-data_1_split
I0406 18:19:33.755192 24310 net.cpp:454] im_info_input-data_1_split <- im_info
I0406 18:19:33.755200 24310 net.cpp:411] im_info_input-data_1_split -> im_info_input-data_1_split_0
I0406 18:19:33.755216 24310 net.cpp:411] im_info_input-data_1_split -> im_info_input-data_1_split_1
I0406 18:19:33.755270 24310 net.cpp:150] Setting up im_info_input-data_1_split
I0406 18:19:33.755280 24310 net.cpp:157] Top shape: 1 3 (3)
I0406 18:19:33.755287 24310 net.cpp:157] Top shape: 1 3 (3)
I0406 18:19:33.755293 24310 net.cpp:165] Memory required for data: 12960052
I0406 18:19:33.755298 24310 layer_factory.hpp:77] Creating layer gt_boxes_input-data_2_split
I0406 18:19:33.755311 24310 net.cpp:106] Creating Layer gt_boxes_input-data_2_split
I0406 18:19:33.755316 24310 net.cpp:454] gt_boxes_input-data_2_split <- gt_boxes
I0406 18:19:33.755326 24310 net.cpp:411] gt_boxes_input-data_2_split -> gt_boxes_input-data_2_split_0
I0406 18:19:33.755336 24310 net.cpp:411] gt_boxes_input-data_2_split -> gt_boxes_input-data_2_split_1
I0406 18:19:33.755390 24310 net.cpp:150] Setting up gt_boxes_input-data_2_split
I0406 18:19:33.755400 24310 net.cpp:157] Top shape: 1 4 (4)
I0406 18:19:33.755409 24310 net.cpp:157] Top shape: 1 4 (4)
I0406 18:19:33.755415 24310 net.cpp:165] Memory required for data: 12960084
I0406 18:19:33.755419 24310 layer_factory.hpp:77] Creating layer conv1
I0406 18:19:33.755455 24310 net.cpp:106] Creating Layer conv1
I0406 18:19:33.755465 24310 net.cpp:454] conv1 <- data_input-data_0_split_0
I0406 18:19:33.755480 24310 net.cpp:411] conv1 -> conv1
I0406 18:19:33.758054 24310 net.cpp:150] Setting up conv1
I0406 18:19:33.758076 24310 net.cpp:157] Top shape: 1 96 300 300 (8640000)
I0406 18:19:33.758083 24310 net.cpp:165] Memory required for data: 47520084
I0406 18:19:33.758110 24310 layer_factory.hpp:77] Creating layer relu1
I0406 18:19:33.758133 24310 net.cpp:106] Creating Layer relu1
I0406 18:19:33.758142 24310 net.cpp:454] relu1 <- conv1
I0406 18:19:33.758152 24310 net.cpp:397] relu1 -> conv1 (in-place)
I0406 18:19:33.758168 24310 net.cpp:150] Setting up relu1
I0406 18:19:33.758178 24310 net.cpp:157] Top shape: 1 96 300 300 (8640000)
I0406 18:19:33.758185 24310 net.cpp:165] Memory required for data: 82080084
I0406 18:19:33.758190 24310 layer_factory.hpp:77] Creating layer norm1
I0406 18:19:33.758205 24310 net.cpp:106] Creating Layer norm1
I0406 18:19:33.758213 24310 net.cpp:454] norm1 <- conv1
I0406 18:19:33.758220 24310 net.cpp:411] norm1 -> norm1
I0406 18:19:33.758409 24310 net.cpp:150] Setting up norm1
I0406 18:19:33.758421 24310 net.cpp:157] Top shape: 1 96 300 300 (8640000)
I0406 18:19:33.758427 24310 net.cpp:165] Memory required for data: 116640084
I0406 18:19:33.758433 24310 layer_factory.hpp:77] Creating layer pool1
I0406 18:19:33.758456 24310 net.cpp:106] Creating Layer pool1
I0406 18:19:33.758466 24310 net.cpp:454] pool1 <- norm1
I0406 18:19:33.758478 24310 net.cpp:411] pool1 -> pool1
I0406 18:19:33.758538 24310 net.cpp:150] Setting up pool1
I0406 18:19:33.758548 24310 net.cpp:157] Top shape: 1 96 151 151 (2188896)
I0406 18:19:33.758554 24310 net.cpp:165] Memory required for data: 125395668
I0406 18:19:33.758559 24310 layer_factory.hpp:77] Creating layer conv2
I0406 18:19:33.758579 24310 net.cpp:106] Creating Layer conv2
I0406 18:19:33.758586 24310 net.cpp:454] conv2 <- pool1
I0406 18:19:33.758595 24310 net.cpp:411] conv2 -> conv2
I0406 18:19:33.761762 24310 net.cpp:150] Setting up conv2
I0406 18:19:33.761783 24310 net.cpp:157] Top shape: 1 256 76 76 (1478656)
I0406 18:19:33.761790 24310 net.cpp:165] Memory required for data: 131310292
I0406 18:19:33.761808 24310 layer_factory.hpp:77] Creating layer relu2
I0406 18:19:33.761821 24310 net.cpp:106] Creating Layer relu2
I0406 18:19:33.761831 24310 net.cpp:454] relu2 <- conv2
I0406 18:19:33.761842 24310 net.cpp:397] relu2 -> conv2 (in-place)
I0406 18:19:33.761855 24310 net.cpp:150] Setting up relu2
I0406 18:19:33.761864 24310 net.cpp:157] Top shape: 1 256 76 76 (1478656)
I0406 18:19:33.761870 24310 net.cpp:165] Memory required for data: 137224916
I0406 18:19:33.761875 24310 layer_factory.hpp:77] Creating layer norm2
I0406 18:19:33.761893 24310 net.cpp:106] Creating Layer norm2
I0406 18:19:33.761899 24310 net.cpp:454] norm2 <- conv2
I0406 18:19:33.761910 24310 net.cpp:411] norm2 -> norm2
I0406 18:19:33.762063 24310 net.cpp:150] Setting up norm2
I0406 18:19:33.762075 24310 net.cpp:157] Top shape: 1 256 76 76 (1478656)
I0406 18:19:33.762082 24310 net.cpp:165] Memory required for data: 143139540
I0406 18:19:33.762089 24310 layer_factory.hpp:77] Creating layer pool2
I0406 18:19:33.762101 24310 net.cpp:106] Creating Layer pool2
I0406 18:19:33.762109 24310 net.cpp:454] pool2 <- norm2
I0406 18:19:33.762118 24310 net.cpp:411] pool2 -> pool2
I0406 18:19:33.762174 24310 net.cpp:150] Setting up pool2
I0406 18:19:33.762184 24310 net.cpp:157] Top shape: 1 256 39 39 (389376)
I0406 18:19:33.762190 24310 net.cpp:165] Memory required for data: 144697044
I0406 18:19:33.762197 24310 layer_factory.hpp:77] Creating layer conv3
I0406 18:19:33.762213 24310 net.cpp:106] Creating Layer conv3
I0406 18:19:33.762220 24310 net.cpp:454] conv3 <- pool2
I0406 18:19:33.762231 24310 net.cpp:411] conv3 -> conv3
I0406 18:19:33.768390 24310 net.cpp:150] Setting up conv3
I0406 18:19:33.768412 24310 net.cpp:157] Top shape: 1 384 39 39 (584064)
I0406 18:19:33.768419 24310 net.cpp:165] Memory required for data: 147033300
I0406 18:19:33.768435 24310 layer_factory.hpp:77] Creating layer relu3
I0406 18:19:33.768455 24310 net.cpp:106] Creating Layer relu3
I0406 18:19:33.768463 24310 net.cpp:454] relu3 <- conv3
I0406 18:19:33.768477 24310 net.cpp:397] relu3 -> conv3 (in-place)
I0406 18:19:33.768491 24310 net.cpp:150] Setting up relu3
I0406 18:19:33.768498 24310 net.cpp:157] Top shape: 1 384 39 39 (584064)
I0406 18:19:33.768504 24310 net.cpp:165] Memory required for data: 149369556
I0406 18:19:33.768509 24310 layer_factory.hpp:77] Creating layer conv4
I0406 18:19:33.768522 24310 net.cpp:106] Creating Layer conv4
I0406 18:19:33.768528 24310 net.cpp:454] conv4 <- conv3
I0406 18:19:33.768538 24310 net.cpp:411] conv4 -> conv4
I0406 18:19:33.774453 24310 net.cpp:150] Setting up conv4
I0406 18:19:33.774476 24310 net.cpp:157] Top shape: 1 384 39 39 (584064)
I0406 18:19:33.774482 24310 net.cpp:165] Memory required for data: 151705812
I0406 18:19:33.774493 24310 layer_factory.hpp:77] Creating layer relu4
I0406 18:19:33.774507 24310 net.cpp:106] Creating Layer relu4
I0406 18:19:33.774513 24310 net.cpp:454] relu4 <- conv4
I0406 18:19:33.774528 24310 net.cpp:397] relu4 -> conv4 (in-place)
I0406 18:19:33.774539 24310 net.cpp:150] Setting up relu4
I0406 18:19:33.774549 24310 net.cpp:157] Top shape: 1 384 39 39 (584064)
I0406 18:19:33.774554 24310 net.cpp:165] Memory required for data: 154042068
I0406 18:19:33.774559 24310 layer_factory.hpp:77] Creating layer conv5
I0406 18:19:33.774575 24310 net.cpp:106] Creating Layer conv5
I0406 18:19:33.774582 24310 net.cpp:454] conv5 <- conv4
I0406 18:19:33.774593 24310 net.cpp:411] conv5 -> conv5
I0406 18:19:33.778579 24310 net.cpp:150] Setting up conv5
I0406 18:19:33.778597 24310 net.cpp:157] Top shape: 1 256 39 39 (389376)
I0406 18:19:33.778604 24310 net.cpp:165] Memory required for data: 155599572
I0406 18:19:33.778621 24310 layer_factory.hpp:77] Creating layer relu5
I0406 18:19:33.778632 24310 net.cpp:106] Creating Layer relu5
I0406 18:19:33.778642 24310 net.cpp:454] relu5 <- conv5
I0406 18:19:33.778652 24310 net.cpp:397] relu5 -> conv5 (in-place)
I0406 18:19:33.778663 24310 net.cpp:150] Setting up relu5
I0406 18:19:33.778671 24310 net.cpp:157] Top shape: 1 256 39 39 (389376)
I0406 18:19:33.778676 24310 net.cpp:165] Memory required for data: 157157076
I0406 18:19:33.778681 24310 layer_factory.hpp:77] Creating layer conv5_relu5_0_split
I0406 18:19:33.778690 24310 net.cpp:106] Creating Layer conv5_relu5_0_split
I0406 18:19:33.778697 24310 net.cpp:454] conv5_relu5_0_split <- conv5
I0406 18:19:33.778703 24310 net.cpp:411] conv5_relu5_0_split -> conv5_relu5_0_split_0
I0406 18:19:33.778713 24310 net.cpp:411] conv5_relu5_0_split -> conv5_relu5_0_split_1
I0406 18:19:33.778769 24310 net.cpp:150] Setting up conv5_relu5_0_split
I0406 18:19:33.778779 24310 net.cpp:157] Top shape: 1 256 39 39 (389376)
I0406 18:19:33.778786 24310 net.cpp:157] Top shape: 1 256 39 39 (389376)
I0406 18:19:33.778792 24310 net.cpp:165] Memory required for data: 160272084
I0406 18:19:33.778796 24310 layer_factory.hpp:77] Creating layer rpn_conv/3x3
I0406 18:19:33.778815 24310 net.cpp:106] Creating Layer rpn_conv/3x3
I0406 18:19:33.778821 24310 net.cpp:454] rpn_conv/3x3 <- conv5_relu5_0_split_0
I0406 18:19:33.778834 24310 net.cpp:411] rpn_conv/3x3 -> rpn/output
I0406 18:19:33.795749 24310 net.cpp:150] Setting up rpn_conv/3x3
I0406 18:19:33.795766 24310 net.cpp:157] Top shape: 1 256 39 39 (389376)
I0406 18:19:33.795770 24310 net.cpp:165] Memory required for data: 161829588
I0406 18:19:33.795779 24310 layer_factory.hpp:77] Creating layer rpn_relu/3x3
I0406 18:19:33.795790 24310 net.cpp:106] Creating Layer rpn_relu/3x3
I0406 18:19:33.795795 24310 net.cpp:454] rpn_relu/3x3 <- rpn/output
I0406 18:19:33.795802 24310 net.cpp:397] rpn_relu/3x3 -> rpn/output (in-place)
I0406 18:19:33.795815 24310 net.cpp:150] Setting up rpn_relu/3x3
I0406 18:19:33.795824 24310 net.cpp:157] Top shape: 1 256 39 39 (389376)
I0406 18:19:33.795828 24310 net.cpp:165] Memory required for data: 163387092
I0406 18:19:33.795832 24310 layer_factory.hpp:77] Creating layer rpn/output_rpn_relu/3x3_0_split
I0406 18:19:33.795840 24310 net.cpp:106] Creating Layer rpn/output_rpn_relu/3x3_0_split
I0406 18:19:33.795845 24310 net.cpp:454] rpn/output_rpn_relu/3x3_0_split <- rpn/output
I0406 18:19:33.795852 24310 net.cpp:411] rpn/output_rpn_relu/3x3_0_split -> rpn/output_rpn_relu/3x3_0_split_0
I0406 18:19:33.795861 24310 net.cpp:411] rpn/output_rpn_relu/3x3_0_split -> rpn/output_rpn_relu/3x3_0_split_1
I0406 18:19:33.795908 24310 net.cpp:150] Setting up rpn/output_rpn_relu/3x3_0_split
I0406 18:19:33.795917 24310 net.cpp:157] Top shape: 1 256 39 39 (389376)
I0406 18:19:33.795922 24310 net.cpp:157] Top shape: 1 256 39 39 (389376)
I0406 18:19:33.795928 24310 net.cpp:165] Memory required for data: 166502100
I0406 18:19:33.795931 24310 layer_factory.hpp:77] Creating layer rpn_cls_score
I0406 18:19:33.795946 24310 net.cpp:106] Creating Layer rpn_cls_score
I0406 18:19:33.795953 24310 net.cpp:454] rpn_cls_score <- rpn/output_rpn_relu/3x3_0_split_0
I0406 18:19:33.795963 24310 net.cpp:411] rpn_cls_score -> rpn_cls_score
I0406 18:19:33.796368 24310 net.cpp:150] Setting up rpn_cls_score
I0406 18:19:33.796380 24310 net.cpp:157] Top shape: 1 18 39 39 (27378)
I0406 18:19:33.796386 24310 net.cpp:165] Memory required for data: 166611612
I0406 18:19:33.796393 24310 layer_factory.hpp:77] Creating layer rpn_cls_score_rpn_cls_score_0_split
I0406 18:19:33.796401 24310 net.cpp:106] Creating Layer rpn_cls_score_rpn_cls_score_0_split
I0406 18:19:33.796407 24310 net.cpp:454] rpn_cls_score_rpn_cls_score_0_split <- rpn_cls_score
I0406 18:19:33.796417 24310 net.cpp:411] rpn_cls_score_rpn_cls_score_0_split -> rpn_cls_score_rpn_cls_score_0_split_0
I0406 18:19:33.796427 24310 net.cpp:411] rpn_cls_score_rpn_cls_score_0_split -> rpn_cls_score_rpn_cls_score_0_split_1
I0406 18:19:33.796480 24310 net.cpp:150] Setting up rpn_cls_score_rpn_cls_score_0_split
I0406 18:19:33.796490 24310 net.cpp:157] Top shape: 1 18 39 39 (27378)
I0406 18:19:33.796495 24310 net.cpp:157] Top shape: 1 18 39 39 (27378)
I0406 18:19:33.796500 24310 net.cpp:165] Memory required for data: 166830636
I0406 18:19:33.796504 24310 layer_factory.hpp:77] Creating layer rpn_bbox_pred
I0406 18:19:33.796522 24310 net.cpp:106] Creating Layer rpn_bbox_pred
I0406 18:19:33.796530 24310 net.cpp:454] rpn_bbox_pred <- rpn/output_rpn_relu/3x3_0_split_1
I0406 18:19:33.796536 24310 net.cpp:411] rpn_bbox_pred -> rpn_bbox_pred
I0406 18:19:33.797049 24310 net.cpp:150] Setting up rpn_bbox_pred
I0406 18:19:33.797060 24310 net.cpp:157] Top shape: 1 36 39 39 (54756)
I0406 18:19:33.797065 24310 net.cpp:165] Memory required for data: 167049660
I0406 18:19:33.797072 24310 layer_factory.hpp:77] Creating layer rpn_bbox_pred_rpn_bbox_pred_0_split
I0406 18:19:33.797081 24310 net.cpp:106] Creating Layer rpn_bbox_pred_rpn_bbox_pred_0_split
I0406 18:19:33.797087 24310 net.cpp:454] rpn_bbox_pred_rpn_bbox_pred_0_split <- rpn_bbox_pred
I0406 18:19:33.797096 24310 net.cpp:411] rpn_bbox_pred_rpn_bbox_pred_0_split -> rpn_bbox_pred_rpn_bbox_pred_0_split_0
I0406 18:19:33.797106 24310 net.cpp:411] rpn_bbox_pred_rpn_bbox_pred_0_split -> rpn_bbox_pred_rpn_bbox_pred_0_split_1
I0406 18:19:33.797149 24310 net.cpp:150] Setting up rpn_bbox_pred_rpn_bbox_pred_0_split
I0406 18:19:33.797158 24310 net.cpp:157] Top shape: 1 36 39 39 (54756)
I0406 18:19:33.797163 24310 net.cpp:157] Top shape: 1 36 39 39 (54756)
I0406 18:19:33.797168 24310 net.cpp:165] Memory required for data: 167487708
I0406 18:19:33.797171 24310 layer_factory.hpp:77] Creating layer rpn_cls_score_reshape
I0406 18:19:33.797194 24310 net.cpp:106] Creating Layer rpn_cls_score_reshape
I0406 18:19:33.797200 24310 net.cpp:454] rpn_cls_score_reshape <- rpn_cls_score_rpn_cls_score_0_split_0
I0406 18:19:33.797210 24310 net.cpp:411] rpn_cls_score_reshape -> rpn_cls_score_reshape
I0406 18:19:33.797248 24310 net.cpp:150] Setting up rpn_cls_score_reshape
I0406 18:19:33.797256 24310 net.cpp:157] Top shape: 1 2 351 39 (27378)
I0406 18:19:33.797260 24310 net.cpp:165] Memory required for data: 167597220
I0406 18:19:33.797266 24310 layer_factory.hpp:77] Creating layer rpn_cls_score_reshape_rpn_cls_score_reshape_0_split
I0406 18:19:33.797276 24310 net.cpp:106] Creating Layer rpn_cls_score_reshape_rpn_cls_score_reshape_0_split
I0406 18:19:33.797281 24310 net.cpp:454] rpn_cls_score_reshape_rpn_cls_score_reshape_0_split <- rpn_cls_score_reshape
I0406 18:19:33.797287 24310 net.cpp:411] rpn_cls_score_reshape_rpn_cls_score_reshape_0_split -> rpn_cls_score_reshape_rpn_cls_score_reshape_0_split_0
I0406 18:19:33.797297 24310 net.cpp:411] rpn_cls_score_reshape_rpn_cls_score_reshape_0_split -> rpn_cls_score_reshape_rpn_cls_score_reshape_0_split_1
I0406 18:19:33.797340 24310 net.cpp:150] Setting up rpn_cls_score_reshape_rpn_cls_score_reshape_0_split
I0406 18:19:33.797348 24310 net.cpp:157] Top shape: 1 2 351 39 (27378)
I0406 18:19:33.797353 24310 net.cpp:157] Top shape: 1 2 351 39 (27378)
I0406 18:19:33.797358 24310 net.cpp:165] Memory required for data: 167816244
I0406 18:19:33.797363 24310 layer_factory.hpp:77] Creating layer rpn-data
I0406 18:19:33.805285 24310 net.cpp:106] Creating Layer rpn-data
I0406 18:19:33.805308 24310 net.cpp:454] rpn-data <- rpn_cls_score_rpn_cls_score_0_split_1
I0406 18:19:33.805320 24310 net.cpp:454] rpn-data <- gt_boxes_input-data_2_split_0
I0406 18:19:33.805328 24310 net.cpp:454] rpn-data <- im_info_input-data_1_split_0
I0406 18:19:33.805335 24310 net.cpp:454] rpn-data <- data_input-data_0_split_1
I0406 18:19:33.805344 24310 net.cpp:411] rpn-data -> rpn_labels
I0406 18:19:33.805366 24310 net.cpp:411] rpn-data -> rpn_bbox_targets
I0406 18:19:33.805380 24310 net.cpp:411] rpn-data -> rpn_bbox_inside_weights
I0406 18:19:33.805392 24310 net.cpp:411] rpn-data -> rpn_bbox_outside_weights
I0406 18:19:33.807858 24310 net.cpp:150] Setting up rpn-data
I0406 18:19:33.807885 24310 net.cpp:157] Top shape: 1 1 351 39 (13689)
I0406 18:19:33.807893 24310 net.cpp:157] Top shape: 1 36 39 39 (54756)
I0406 18:19:33.807899 24310 net.cpp:157] Top shape: 1 36 39 39 (54756)
I0406 18:19:33.807906 24310 net.cpp:157] Top shape: 1 36 39 39 (54756)
I0406 18:19:33.807911 24310 net.cpp:165] Memory required for data: 168528072
I0406 18:19:33.807919 24310 layer_factory.hpp:77] Creating layer rpn_loss_cls
I0406 18:19:33.807940 24310 net.cpp:106] Creating Layer rpn_loss_cls
I0406 18:19:33.807947 24310 net.cpp:454] rpn_loss_cls <- rpn_cls_score_reshape_rpn_cls_score_reshape_0_split_0
I0406 18:19:33.807958 24310 net.cpp:454] rpn_loss_cls <- rpn_labels
…
I0406 18:19:33.809048 24310 net.cpp:157] Top shape: (1)
I0406 18:19:33.809056 24310 net.cpp:160]     with loss weight 1
I0406 18:19:33.809067 24310 net.cpp:165] Memory required for data: 168528080
I0406 18:19:33.809073 24310 layer_factory.hpp:77] Creating layer rpn_cls_prob
I0406 18:19:33.809087 24310 net.cpp:106] Creating Layer rpn_cls_prob
I0406 18:19:33.809101 24310 net.cpp:454] rpn_cls_prob <- rpn_cls_score_reshape_rpn_cls_score_reshape_0_split_1
I0406 18:19:33.809111 24310 net.cpp:411] rpn_cls_prob -> rpn_cls_prob
I0406 18:19:33.809212 24310 net.cpp:150] Setting up rpn_cls_prob
I0406 18:19:33.809247 24310 net.cpp:157] Top shape: 1 2 351 39 (27378)
I0406 18:19:33.809257 24310 net.cpp:165] Memory required for data: 168637592
I0406 18:19:33.809262 24310 layer_factory.hpp:77] Creating layer rpn_cls_prob_reshape
I0406 18:19:33.809281 24310 net.cpp:106] Creating Layer rpn_cls_prob_reshape
I0406 18:19:33.809288 24310 net.cpp:454] rpn_cls_prob_reshape <- rpn_cls_prob
I0406 18:19:33.809298 24310 net.cpp:411] rpn_cls_prob_reshape -> rpn_cls_prob_reshape
I0406 18:19:33.809345 24310 net.cpp:150] Setting up rpn_cls_prob_reshape
I0406 18:19:33.809357 24310 net.cpp:157] Top shape: 1 18 39 39 (27378)
I0406 18:19:33.809363 24310 net.cpp:165] Memory required for data: 168747104
I0406 18:19:33.809370 24310 layer_factory.hpp:77] Creating layer proposal
I0406 18:19:33.836225 24310 net.cpp:106] Creating Layer proposal
I0406 18:19:33.836251 24310 net.cpp:454] proposal <- rpn_cls_prob_reshape
I0406 18:19:33.836262 24310 net.cpp:454] proposal <- rpn_bbox_pred_rpn_bbox_pred_0_split_1
I0406 18:19:33.836272 24310 net.cpp:454] proposal <- im_info_input-data_1_split_1
I0406 18:19:33.836283 24310 net.cpp:411] proposal -> rpn_rois
I0406 18:19:33.864969 24310 net.cpp:150] Setting up proposal
I0406 18:19:33.864998 24310 net.cpp:157] Top shape: 1 5 (5)
I0406 18:19:33.865005 24310 net.cpp:165] Memory required for data: 168747124
I0406 18:19:33.865012 24310 layer_factory.hpp:77] Creating layer roi-data
I0406 18:19:33.866489 24310 net.cpp:106] Creating Layer roi-data
I0406 18:19:33.866509 24310 net.cpp:454] roi-data <- rpn_rois
I0406 18:19:33.866519 24310 net.cpp:454] roi-data <- gt_boxes_input-data_2_split_1
I0406 18:19:33.866528 24310 net.cpp:411] roi-data -> rois
I0406 18:19:33.866541 24310 net.cpp:411] roi-data -> labels
I0406 18:19:33.866552 24310 net.cpp:411] roi-data -> bbox_targets
I0406 18:19:33.866564 24310 net.cpp:411] roi-data -> bbox_inside_weights
I0406 18:19:33.866575 24310 net.cpp:411] roi-data -> bbox_outside_weights
I0406 18:19:33.867369 24310 net.cpp:150] Setting up roi-data
I0406 18:19:33.867394 24310 net.cpp:157] Top shape: 1 5 (5)
I0406 18:19:33.867401 24310 net.cpp:157] Top shape: 1 1 (1)
I0406 18:19:33.867408 24310 net.cpp:157] Top shape: 1 8 (8)
I0406 18:19:33.867413 24310 net.cpp:157] Top shape: 1 8 (8)
I0406 18:19:33.867419 24310 net.cpp:157] Top shape: 1 8 (8)
I0406 18:19:33.867422 24310 net.cpp:165] Memory required for data: 168747244
I0406 18:19:33.867430 24310 layer_factory.hpp:77] Creating layer roi_pool_conv5
I0406 18:19:33.867463 24310 net.cpp:106] Creating Layer roi_pool_conv5
I0406 18:19:33.867475 24310 net.cpp:454] roi_pool_conv5 <- conv5_relu5_0_split_1
I0406 18:19:33.867486 24310 net.cpp:454] roi_pool_conv5 <- rois
I0406 18:19:33.867496 24310 net.cpp:411] roi_pool_conv5 -> roi_pool_conv5
I0406 18:19:33.867516 24310 roi_pooling_layer.cpp:30] Spatial scale: 0.0625
I0406 18:19:33.867593 24310 net.cpp:150] Setting up roi_pool_conv5
I0406 18:19:33.867605 24310 net.cpp:157] Top shape: 1 256 6 6 (9216)
I0406 18:19:33.867611 24310 net.cpp:165] Memory required for data: 168784108
I0406 18:19:33.867617 24310 layer_factory.hpp:77] Creating layer fc6
I0406 18:19:33.867633 24310 net.cpp:106] Creating Layer fc6
I0406 18:19:33.867641 24310 net.cpp:454] fc6 <- roi_pool_conv5
I0406 18:19:33.867653 24310 net.cpp:411] fc6 -> fc6
I0406 18:19:33.992921 24310 net.cpp:150] Setting up fc6
I0406 18:19:33.992951 24310 net.cpp:157] Top shape: 1 4096 (4096)
I0406 18:19:33.992954 24310 net.cpp:165] Memory required for data: 168800492
I0406 18:19:33.992982 24310 layer_factory.hpp:77] Creating layer relu6
I0406 18:19:33.992995 24310 net.cpp:106] Creating Layer relu6
I0406 18:19:33.993000 24310 net.cpp:454] relu6 <- fc6
I0406 18:19:33.993008 24310 net.cpp:397] relu6 -> fc6 (in-place)
I0406 18:19:33.993018 24310 net.cpp:150] Setting up relu6
I0406 18:19:33.993023 24310 net.cpp:157] Top shape: 1 4096 (4096)
I0406 18:19:33.993026 24310 net.cpp:165] Memory required for data: 168816876
I0406 18:19:33.993031 24310 layer_factory.hpp:77] Creating layer drop6
I0406 18:19:33.993046 24310 net.cpp:106] Creating Layer drop6
I0406 18:19:33.993048 24310 net.cpp:454] drop6 <- fc6
I0406 18:19:33.993052 24310 net.cpp:397] drop6 -> fc6 (in-place)
I0406 18:19:33.993077 24310 net.cpp:150] Setting up drop6
I0406 18:19:33.993094 24310 net.cpp:157] Top shape: 1 4096 (4096)
I0406 18:19:33.993096 24310 net.cpp:165] Memory required for data: 168833260
I0406 18:19:33.993100 24310 layer_factory.hpp:77] Creating layer fc7
I0406 18:19:33.993114 24310 net.cpp:106] Creating Layer fc7
I0406 18:19:33.993119 24310 net.cpp:454] fc7 <- fc6
I0406 18:19:33.993124 24310 net.cpp:411] fc7 -> fc7
I0406 18:19:34.034696 24310 net.cpp:150] Setting up fc7
I0406 18:19:34.034739 24310 net.cpp:157] Top shape: 1 4096 (4096)
I0406 18:19:34.034755 24310 net.cpp:165] Memory required for data: 168849644
I0406 18:19:34.034765 24310 layer_factory.hpp:77] Creating layer relu7
I0406 18:19:34.034785 24310 net.cpp:106] Creating Layer relu7
I0406 18:19:34.034791 24310 net.cpp:454] relu7 <- fc7
I0406 18:19:34.034811 24310 net.cpp:397] relu7 -> fc7 (in-place)
I0406 18:19:34.034821 24310 net.cpp:150] Setting up relu7
I0406 18:19:34.034826 24310 net.cpp:157] Top shape: 1 4096 (4096)
I0406 18:19:34.034827 24310 net.cpp:165] Memory required for data: 168866028
I0406 18:19:34.034829 24310 layer_factory.hpp:77] Creating layer drop7
I0406 18:19:34.034837 24310 net.cpp:106] Creating Layer drop7
I0406 18:19:34.034840 24310 net.cpp:454] drop7 <- fc7
I0406 18:19:34.034844 24310 net.cpp:397] drop7 -> fc7 (in-place)
I0406 18:19:34.034865 24310 net.cpp:150] Setting up drop7
I0406 18:19:34.034870 24310 net.cpp:157] Top shape: 1 4096 (4096)
I0406 18:19:34.034873 24310 net.cpp:165] Memory required for data: 168882412
I0406 18:19:34.034878 24310 layer_factory.hpp:77] Creating layer fc7_drop7_0_split
I0406 18:19:34.034883 24310 net.cpp:106] Creating Layer fc7_drop7_0_split
I0406 18:19:34.034885 24310 net.cpp:454] fc7_drop7_0_split <- fc7
I0406 18:19:34.034890 24310 net.cpp:411] fc7_drop7_0_split -> fc7_drop7_0_split_0
I0406 18:19:34.034909 24310 net.cpp:411] fc7_drop7_0_split -> fc7_drop7_0_split_1
I0406 18:19:34.034941 24310 net.cpp:150] Setting up fc7_drop7_0_split
I0406 18:19:34.034946 24310 net.cpp:157] Top shape: 1 4096 (4096)
I0406 18:19:34.034950 24310 net.cpp:157] Top shape: 1 4096 (4096)
I0406 18:19:34.034952 24310 net.cpp:165] Memory required for data: 168915180
I0406 18:19:34.034955 24310 layer_factory.hpp:77] Creating layer cls_score
I0406 18:19:34.034962 24310 net.cpp:106] Creating Layer cls_score
I0406 18:19:34.034966 24310 net.cpp:454] cls_score <- fc7_drop7_0_split_0
I0406 18:19:34.034971 24310 net.cpp:411] cls_score -> cls_score
I0406 18:19:34.035178 24310 net.cpp:150] Setting up cls_score
I0406 18:19:34.035183 24310 net.cpp:157] Top shape: 1 2 (2)
I0406 18:19:34.035187 24310 net.cpp:165] Memory required for data: 168915188
I0406 18:19:34.035192 24310 layer_factory.hpp:77] Creating layer bbox_pred
I0406 18:19:34.035197 24310 net.cpp:106] Creating Layer bbox_pred
I0406 18:19:34.035202 24310 net.cpp:454] bbox_pred <- fc7_drop7_0_split_1
I0406 18:19:34.035208 24310 net.cpp:411] bbox_pred -> bbox_pred
I0406 18:19:34.035787 24310 net.cpp:150] Setting up bbox_pred
I0406 18:19:34.035794 24310 net.cpp:157] Top shape: 1 8 (8)
I0406 18:19:34.035796 24310 net.cpp:165] Memory required for data: 168915220
I0406 18:19:34.035814 24310 layer_factory.hpp:77] Creating layer loss_cls
I0406 18:19:34.035820 24310 net.cpp:106] Creating Layer loss_cls
I0406 18:19:34.035825 24310 net.cpp:454] loss_cls <- cls_score
I0406 18:19:34.035830 24310 net.cpp:454] loss_cls <- labels
I0406 18:19:34.035835 24310 net.cpp:411] loss_cls -> cls_loss
…
           'USE_FLIPPED': True,
           'USE_PREFETCH': False},
 'USE_GPU_NMS': False}
../../tools/test_net.py:80: RuntimeWarning: to-Python converter for boost::shared_ptr<caffe::Blob<float> > already registered; second conversion method ignored.
  caffe.set_mode_gpu()
WARNING: Logging before InitGoogleLogging() is written to STDERR
I0406 18:19:52.521697 24348 net.cpp:49] Initializing net from parameters: 
name: "ZF"
input: "data"
input: "im_info"
state {
  phase: TEST
}
input_shape {
  dim: 1
  dim: 3
  dim: 224
  dim: 224
}
input_shape {
  dim: 1
  dim: 3
}
layer {
  name: "conv1"
  type: "Convolution"
  bottom: "data"
  top: "conv1"
  convolution_param {
    num_output: 96
    pad: 3
    kernel_size: 7
    stride: 2
  }
}
layer {
  name: "relu1"
  type: "ReLU"
  bottom: "conv1"
  top: "conv1"
}
layer {
  name: "norm1"
  type: "LRN"
  bottom: "conv1"
  top: "norm1"
  lrn_param {
    local_size: 3
    alpha: 5e-05
    beta: 0.75
    norm_region: WITHIN_CHANNEL
    engine: CAFFE
  }
}
layer {
  name: "pool1"
  type: "Pooling"
  bottom: "norm1"
  top: "pool1"
  pooling_param {
    pool: MAX
    kernel_size: 3
    stride: 2
    pad: 1
  }
}
layer {
  name: "conv2"
  type: "Convolution"
  bottom: "pool1"
  top: "conv2"
  convolution_param {
    num_output: 256
    pad: 2
    kernel_size: 5
    stride: 2
  }
}
layer {
  name: "relu2"
  type: "ReLU"
  bottom: "conv2"
  top: "conv2"
}
layer {
  name: "norm2"
  type: "LRN"
  bottom: "conv2"
  top: "norm2"
  lrn_param {
    local_size: 3
    alpha: 5e-05
    beta: 0.75
    norm_region: WITHIN_CHANNEL
    engine: CAFFE
  }
}
layer {
  name: "pool2"
  type: "Pooling"
  bottom: "norm2"
  top: "pool2"
  pooling_param {
    pool: MAX
    kernel_size: 3
    stride: 2
    pad: 1
  }
}
layer {
  name: "conv3"
  type: "Convolution"
  bottom: "pool2"
  top: "conv3"
  convolution_param {
    num_output: 384
    pad: 1
    kernel_size: 3
    stride: 1
  }
}
layer {
  name: "relu3"
  type: "ReLU"
  bottom: "conv3"
  top: "conv3"
}
layer {
  name: "conv4"
  type: "Convolution"
  bottom: "conv3"
  top: "conv4"
  convolution_param {
    num_output: 384
    pad: 1
    kernel_size: 3
    stride: 1
  }
}
layer {
  name: "relu4"
  type: "ReLU"
  bottom: "conv4"
  top: "conv4"
}
layer {
  name: "conv5"
  type: "Convolution"
  bottom: "conv4"
  top: "conv5"
  convolution_param {
    num_output: 256
    pad: 1
    kernel_size: 3
    stride: 1
  }
}
layer {
  name: "relu5"
  type: "ReLU"
  bottom: "conv5"
  top: "conv5"
}
layer {
  name: "rpn_conv/3x3"
  type: "Convolution"
  bottom: "conv5"
  top: "rpn/output"
  convolution_param {
    num_output: 256
    pad: 1
    kernel_size: 3
    stride: 1
    weight_filler {
      type: "gaussian"
      std: 0.01
    }
    bias_filler {
      type: "constant"
      value: 0
    }
  }
}
layer {
  name: "rpn_relu/3x3"
  type: "ReLU"
  bottom: "rpn/output"
  top: "rpn/output"
}
layer {
  name: "rpn_cls_score"
  type: "Convolution"
  bottom: "rpn/output"
  top: "rpn_cls_score"
  convolution_param {
    num_output: 18
    pad: 0
    kernel_size: 1
    stride: 1
    weight_filler {
      type: "gaussian"
      std: 0.01
    }
    bias_filler {
      type: "constant"
      value: 0
    }
  }
}
layer {
  name: "rpn_bbox_pred"
  type: "Convolution"
  bottom: "rpn/output"
  top: "rpn_bbox_pred"
  convolution_param {
    num_output: 36
    pad: 0
    kernel_size: 1
    stride: 1
    weight_filler {
      type: "gaussian"
      std: 0.01
    }
    bias_filler {
      type: "constant"
      value: 0
    }
  }
}
layer {
  name: "rpn_cls_score_reshape"
  type: "Reshape"
  bottom: "rpn_cls_score"
  top: "rpn_cls_score_reshape"
  reshape_param {
    shape {
      dim: 0
      dim: 2
      dim: -1
      dim: 0
    }
  }
}
layer {
  name: "rpn_cls_prob"
  type: "Softmax"
  bottom: "rpn_cls_score_reshape"
  top: "rpn_cls_prob"
}
layer {
  name: "rpn_cls_prob_reshape"
  type: "Reshape"
  bottom: "rpn_cls_prob"
  top: "rpn_cls_prob_reshape"
  reshape_param {
    shape {
      dim: 0
      dim: 18
      dim: -1
      dim: 0
    }
  }
}
layer {
  name: "proposal"
  type: "Python"
  bottom: "rpn_cls_prob_reshape"
  bottom: "rpn_bbox_pred"
  bottom: "im_info"
  top: "rois"
  python_param {
    module: "rpn.proposal_layer"
    layer: "ProposalLayer"
    param_str: "\'feat_stride\': 16"
  }
}
layer {
  name: "roi_pool_conv5"
  type: "ROIPooling"
  bottom: "conv5"
  bottom: "rois"
  top: "roi_pool_conv5"
  roi_pooling_param {
    pooled_h: 6
    pooled_w: 6
    spatial_scale: 0.0625
  }
}
layer {
  name: "fc6"
  type: "InnerProduct"
  bottom: "roi_pool_conv5"
  top: "fc6"
  inner_product_param {
    num_output: 4096
  }
}
layer {
  name: "relu6"
  type: "ReLU"
  bottom: "fc6"
  top: "fc6"
}
layer {
  name: "drop6"
  type: "Dropout"
  bottom: "fc6"
  top: "fc6"
  dropout_param {
    dropout_ratio: 0.5
    scale_train: false
  }
}
layer {
  name: "fc7"
  type: "InnerProduct"
  bottom: "fc6"
  top: "fc7"
  inner_product_param {
    num_output: 4096
  }
}
layer {
  name: "relu7"
  type: "ReLU"
  bottom: "fc7"
  top: "fc7"
}
layer {
  name: "drop7"
  type: "Dropout"
  bottom: "fc7"
  top: "fc7"
  dropout_param {
    dropout_ratio: 0.5
    scale_train: false
  }
}
layer {
  name: "cls_score"
  type: "InnerProduct"
  bottom: "fc7"
  top: "cls_score"
  inner_product_param {
    num_output: 2
  }
}
layer {
  name: "bbox_pred"
  type: "InnerProduct"
  bottom: "fc7"
  top: "bbox_pred"
  inner_product_param {
    num_output: 8
  }
}
layer {
  name: "cls_prob"
  type: "Softmax"
  bottom: "cls_score"
  top: "cls_prob"
  loss_param {
    ignore_label: -1
    normalize: true
  }
}
I0406 18:19:52.522001 24348 net.cpp:413] Input 0 -> data
I0406 18:19:52.566752 24348 net.cpp:413] Input 1 -> im_info
I0406 18:19:52.566834 24348 layer_factory.hpp:77] Creating layer conv1
I0406 18:19:52.566871 24348 net.cpp:106] Creating Layer conv1
I0406 18:19:52.566879 24348 net.cpp:454] conv1 <- data
I0406 18:19:52.566890 24348 net.cpp:411] conv1 -> conv1
I0406 18:19:52.568060 24348 net.cpp:150] Setting up conv1
I0406 18:19:52.568083 24348 net.cpp:157] Top shape: 1 96 112 112 (1204224)
I0406 18:19:52.568087 24348 net.cpp:165] Memory required for data: 4816896
I0406 18:19:52.568107 24348 layer_factory.hpp:77] Creating layer relu1
I0406 18:19:52.568126 24348 net.cpp:106] Creating Layer relu1
I0406 18:19:52.568132 24348 net.cpp:454] relu1 <- conv1
I0406 18:19:52.568140 24348 net.cpp:397] relu1 -> conv1 (in-place)
I0406 18:19:52.568153 24348 net.cpp:150] Setting up relu1
I0406 18:19:52.568161 24348 net.cpp:157] Top shape: 1 96 112 112 (1204224)
I0406 18:19:52.568166 24348 net.cpp:165] Memory required for data: 9633792
I0406 18:19:52.568171 24348 layer_factory.hpp:77] Creating layer norm1
I0406 18:19:52.568182 24348 net.cpp:106] Creating Layer norm1
I0406 18:19:52.568187 24348 net.cpp:454] norm1 <- conv1
I0406 18:19:52.568195 24348 net.cpp:411] norm1 -> norm1
I0406 18:19:52.568333 24348 net.cpp:150] Setting up norm1
I0406 18:19:52.568344 24348 net.cpp:157] Top shape: 1 96 112 112 (1204224)
I0406 18:19:52.568349 24348 net.cpp:165] Memory required for data: 14450688
I0406 18:19:52.568356 24348 layer_factory.hpp:77] Creating layer pool1
I0406 18:19:52.568366 24348 net.cpp:106] Creating Layer pool1
I0406 18:19:52.568370 24348 net.cpp:454] pool1 <- norm1
I0406 18:19:52.568378 24348 net.cpp:411] pool1 -> pool1
I0406 18:19:52.568423 24348 net.cpp:150] Setting up pool1
I0406 18:19:52.568431 24348 net.cpp:157] Top shape: 1 96 57 57 (311904)
I0406 18:19:52.568437 24348 net.cpp:165] Memory required for data: 15698304
I0406 18:19:52.568449 24348 layer_factory.hpp:77] Creating layer conv2
I0406 18:19:52.568459 24348 net.cpp:106] Creating Layer conv2
I0406 18:19:52.568464 24348 net.cpp:454] conv2 <- pool1
I0406 18:19:52.568470 24348 net.cpp:411] conv2 -> conv2
I0406 18:19:52.571729 24348 net.cpp:150] Setting up conv2
I0406 18:19:52.571746 24348 net.cpp:157] Top shape: 1 256 29 29 (215296)
I0406 18:19:52.571753 24348 net.cpp:165] Memory required for data: 16559488
I0406 18:19:52.571768 24348 layer_factory.hpp:77] Creating layer relu2
I0406 18:19:52.571780 24348 net.cpp:106] Creating Layer relu2
I0406 18:19:52.571786 24348 net.cpp:454] relu2 <- conv2
I0406 18:19:52.571795 24348 net.cpp:397] relu2 -> conv2 (in-place)
I0406 18:19:52.571805 24348 net.cpp:150] Setting up relu2
I0406 18:19:52.571812 24348 net.cpp:157] Top shape: 1 256 29 29 (215296)
I0406 18:19:52.571817 24348 net.cpp:165] Memory required for data: 17420672
I0406 18:19:52.571821 24348 layer_factory.hpp:77] Creating layer norm2
I0406 18:19:52.571831 24348 net.cpp:106] Creating Layer norm2
I0406 18:19:52.571836 24348 net.cpp:454] norm2 <- conv2
I0406 18:19:52.571844 24348 net.cpp:411] norm2 -> norm2
I0406 18:19:52.571966 24348 net.cpp:150] Setting up norm2
I0406 18:19:52.571976 24348 net.cpp:157] Top shape: 1 256 29 29 (215296)
I0406 18:19:52.571981 24348 net.cpp:165] Memory required for data: 18281856
I0406 18:19:52.571985 24348 layer_factory.hpp:77] Creating layer pool2
I0406 18:19:52.571993 24348 net.cpp:106] Creating Layer pool2
I0406 18:19:52.572000 24348 net.cpp:454] pool2 <- norm2
I0406 18:19:52.572007 24348 net.cpp:411] pool2 -> pool2
I0406 18:19:52.572051 24348 net.cpp:150] Setting up pool2
I0406 18:19:52.572058 24348 net.cpp:157] Top shape: 1 256 15 15 (57600)
I0406 18:19:52.572063 24348 net.cpp:165] Memory required for data: 18512256
I0406 18:19:52.572069 24348 layer_factory.hpp:77] Creating layer conv3
I0406 18:19:52.572082 24348 net.cpp:106] Creating Layer conv3
I0406 18:19:52.572088 24348 net.cpp:454] conv3 <- pool2
I0406 18:19:52.572096 24348 net.cpp:411] conv3 -> conv3
I0406 18:19:52.575417 24348 net.cpp:150] Setting up conv3
I0406 18:19:52.575434 24348 net.cpp:157] Top shape: 1 384 15 15 (86400)
I0406 18:19:52.575448 24348 net.cpp:165] Memory required for data: 18857856
I0406 18:19:52.575464 24348 layer_factory.hpp:77] Creating layer relu3
I0406 18:19:52.575475 24348 net.cpp:106] Creating Layer relu3
I0406 18:19:52.575482 24348 net.cpp:454] relu3 <- conv3
I0406 18:19:52.575491 24348 net.cpp:397] relu3 -> conv3 (in-place)
I0406 18:19:52.575502 24348 net.cpp:150] Setting up relu3
I0406 18:19:52.575510 24348 net.cpp:157] Top shape: 1 384 15 15 (86400)
I0406 18:19:52.575515 24348 net.cpp:165] Memory required for data: 19203456
I0406 18:19:52.575518 24348 layer_factory.hpp:77] Creating layer conv4
I0406 18:19:52.575529 24348 net.cpp:106] Creating Layer conv4
I0406 18:19:52.575536 24348 net.cpp:454] conv4 <- conv3
I0406 18:19:52.575542 24348 net.cpp:411] conv4 -> conv4
I0406 18:19:52.580297 24348 net.cpp:150] Setting up conv4
I0406 18:19:52.580314 24348 net.cpp:157] Top shape: 1 384 15 15 (86400)
I0406 18:19:52.580320 24348 net.cpp:165] Memory required for data: 19549056
I0406 18:19:52.580332 24348 layer_factory.hpp:77] Creating layer relu4
I0406 18:19:52.580340 24348 net.cpp:106] Creating Layer relu4
I0406 18:19:52.580346 24348 net.cpp:454] relu4 <- conv4
I0406 18:19:52.580353 24348 net.cpp:397] relu4 -> conv4 (in-place)
I0406 18:19:52.580363 24348 net.cpp:150] Setting up relu4
I0406 18:19:52.580370 24348 net.cpp:157] Top shape: 1 384 15 15 (86400)
I0406 18:19:52.580375 24348 net.cpp:165] Memory required for data: 19894656
I0406 18:19:52.580381 24348 layer_factory.hpp:77] Creating layer conv5
I0406 18:19:52.580394 24348 net.cpp:106] Creating Layer conv5
I0406 18:19:52.580400 24348 net.cpp:454] conv5 <- conv4
I0406 18:19:52.580409 24348 net.cpp:411] conv5 -> conv5
I0406 18:19:52.583613 24348 net.cpp:150] Setting up conv5
I0406 18:19:52.583629 24348 net.cpp:157] Top shape: 1 256 15 15 (57600)
I0406 18:19:52.583636 24348 net.cpp:165] Memory required for data: 20125056
I0406 18:19:52.583650 24348 layer_factory.hpp:77] Creating layer relu5
I0406 18:19:52.583660 24348 net.cpp:106] Creating Layer relu5
I0406 18:19:52.583667 24348 net.cpp:454] relu5 <- conv5
I0406 18:19:52.583675 24348 net.cpp:397] relu5 -> conv5 (in-place)
I0406 18:19:52.583685 24348 net.cpp:150] Setting up relu5
I0406 18:19:52.583693 24348 net.cpp:157] Top shape: 1 256 15 15 (57600)
I0406 18:19:52.583698 24348 net.cpp:165] Memory required for data: 20355456
I0406 18:19:52.583700 24348 layer_factory.hpp:77] Creating layer conv5_relu5_0_split
I0406 18:19:52.583714 24348 net.cpp:106] Creating Layer conv5_relu5_0_split
I0406 18:19:52.583719 24348 net.cpp:454] conv5_relu5_0_split <- conv5
I0406 18:19:52.583725 24348 net.cpp:411] conv5_relu5_0_split -> conv5_relu5_0_split_0
I0406 18:19:52.583734 24348 net.cpp:411] conv5_relu5_0_split -> conv5_relu5_0_split_1
I0406 18:19:52.583778 24348 net.cpp:150] Setting up conv5_relu5_0_split
I0406 18:19:52.583786 24348 net.cpp:157] Top shape: 1 256 15 15 (57600)
I0406 18:19:52.583794 24348 net.cpp:157] Top shape: 1 256 15 15 (57600)
I0406 18:19:52.583798 24348 net.cpp:165] Memory required for data: 20816256
I0406 18:19:52.583802 24348 layer_factory.hpp:77] Creating layer rpn_conv/3x3
I0406 18:19:52.583816 24348 net.cpp:106] Creating Layer rpn_conv/3x3
I0406 18:19:52.583820 24348 net.cpp:454] rpn_conv/3x3 <- conv5_relu5_0_split_0
I0406 18:19:52.583829 24348 net.cpp:411] rpn_conv/3x3 -> rpn/output
I0406 18:19:52.598985 24348 net.cpp:150] Setting up rpn_conv/3x3
I0406 18:19:52.599001 24348 net.cpp:157] Top shape: 1 256 15 15 (57600)
I0406 18:19:52.599007 24348 net.cpp:165] Memory required for data: 21046656
I0406 18:19:52.599016 24348 layer_factory.hpp:77] Creating layer rpn_relu/3x3
I0406 18:19:52.599027 24348 net.cpp:106] Creating Layer rpn_relu/3x3
I0406 18:19:52.599033 24348 net.cpp:454] rpn_relu/3x3 <- rpn/output
I0406 18:19:52.599040 24348 net.cpp:397] rpn_relu/3x3 -> rpn/output (in-place)
I0406 18:19:52.599050 24348 net.cpp:150] Setting up rpn_relu/3x3
I0406 18:19:52.599056 24348 net.cpp:157] Top shape: 1 256 15 15 (57600)
I0406 18:19:52.599059 24348 net.cpp:165] Memory required for data: 21277056
I0406 18:19:52.599063 24348 layer_factory.hpp:77] Creating layer rpn/output_rpn_relu/3x3_0_split
I0406 18:19:52.599073 24348 net.cpp:106] Creating Layer rpn/output_rpn_relu/3x3_0_split
I0406 18:19:52.599079 24348 net.cpp:454] rpn/output_rpn_relu/3x3_0_split <- rpn/output
I0406 18:19:52.599084 24348 net.cpp:411] rpn/output_rpn_relu/3x3_0_split -> rpn/output_rpn_relu/3x3_0_split_0
I0406 18:19:52.599093 24348 net.cpp:411] rpn/output_rpn_relu/3x3_0_split -> rpn/output_rpn_relu/3x3_0_split_1
I0406 18:19:52.599131 24348 net.cpp:150] Setting up rpn/output_rpn_relu/3x3_0_split
I0406 18:19:52.599138 24348 net.cpp:157] Top shape: 1 256 15 15 (57600)
I0406 18:19:52.599146 24348 net.cpp:157] Top shape: 1 256 15 15 (57600)
I0406 18:19:52.599150 24348 net.cpp:165] Memory required for data: 21737856
I0406 18:19:52.599154 24348 layer_factory.hpp:77] Creating layer rpn_cls_score
I0406 18:19:52.599166 24348 net.cpp:106] Creating Layer rpn_cls_score
I0406 18:19:52.599171 24348 net.cpp:454] rpn_cls_score <- rpn/output_rpn_relu/3x3_0_split_0
I0406 18:19:52.599179 24348 net.cpp:411] rpn_cls_score -> rpn_cls_score
I0406 18:19:52.599534 24348 net.cpp:150] Setting up rpn_cls_score
I0406 18:19:52.599545 24348 net.cpp:157] Top shape: 1 18 15 15 (4050)
I0406 18:19:52.599550 24348 net.cpp:165] Memory required for data: 21754056
I0406 18:19:52.599556 24348 layer_factory.hpp:77] Creating layer rpn_bbox_pred
I0406 18:19:52.599568 24348 net.cpp:106] Creating Layer rpn_bbox_pred
I0406 18:19:52.599573 24348 net.cpp:454] rpn_bbox_pred <- rpn/output_rpn_relu/3x3_0_split_1
I0406 18:19:52.599581 24348 net.cpp:411] rpn_bbox_pred -> rpn_bbox_pred
I0406 18:19:52.600020 24348 net.cpp:150] Setting up rpn_bbox_pred
I0406 18:19:52.600029 24348 net.cpp:157] Top shape: 1 36 15 15 (8100)
I0406 18:19:52.600034 24348 net.cpp:165] Memory required for data: 21786456
I0406 18:19:52.600041 24348 layer_factory.hpp:77] Creating layer rpn_cls_score_reshape
I0406 18:19:52.600055 24348 net.cpp:106] Creating Layer rpn_cls_score_reshape
I0406 18:19:52.600060 24348 net.cpp:454] rpn_cls_score_reshape <- rpn_cls_score
I0406 18:19:52.600069 24348 net.cpp:411] rpn_cls_score_reshape -> rpn_cls_score_reshape
I0406 18:19:52.600103 24348 net.cpp:150] Setting up rpn_cls_score_reshape
I0406 18:19:52.600111 24348 net.cpp:157] Top shape: 1 2 135 15 (4050)
I0406 18:19:52.600116 24348 net.cpp:165] Memory required for data: 21802656
I0406 18:19:52.600119 24348 layer_factory.hpp:77] Creating layer rpn_cls_prob
I0406 18:19:52.600129 24348 net.cpp:106] Creating Layer rpn_cls_prob
I0406 18:19:52.600134 24348 net.cpp:454] rpn_cls_prob <- rpn_cls_score_reshape
I0406 18:19:52.600141 24348 net.cpp:411] rpn_cls_prob -> rpn_cls_prob
I0406 18:19:52.600206 24348 net.cpp:150] Setting up rpn_cls_prob
I0406 18:19:52.600214 24348 net.cpp:157] Top shape: 1 2 135 15 (4050)
I0406 18:19:52.600217 24348 net.cpp:165] Memory required for data: 21818856
I0406 18:19:52.600221 24348 layer_factory.hpp:77] Creating layer rpn_cls_prob_reshape
I0406 18:19:52.600231 24348 net.cpp:106] Creating Layer rpn_cls_prob_reshape
I0406 18:19:52.600236 24348 net.cpp:454] rpn_cls_prob_reshape <- rpn_cls_prob
I0406 18:19:52.600244 24348 net.cpp:411] rpn_cls_prob_reshape -> rpn_cls_prob_reshape
I0406 18:19:52.600267 24348 net.cpp:150] Setting up rpn_cls_prob_reshape
I0406 18:19:52.600275 24348 net.cpp:157] Top shape: 1 18 15 15 (4050)
I0406 18:19:52.600278 24348 net.cpp:165] Memory required for data: 21835056
I0406 18:19:52.600282 24348 layer_factory.hpp:77] Creating layer proposal
I0406 18:19:52.627194 24348 net.cpp:106] Creating Layer proposal
I0406 18:19:52.627221 24348 net.cpp:454] proposal <- rpn_cls_prob_reshape
I0406 18:19:52.627241 24348 net.cpp:454] proposal <- rpn_bbox_pred
I0406 18:19:52.627256 24348 net.cpp:454] proposal <- im_info
I0406 18:19:52.627277 24348 net.cpp:411] proposal -> rois
I0406 18:19:52.629313 24348 net.cpp:150] Setting up proposal
I0406 18:19:52.629338 24348 net.cpp:157] Top shape: 1 5 (5)
I0406 18:19:52.629345 24348 net.cpp:165] Memory required for data: 21835076
I0406 18:19:52.629353 24348 layer_factory.hpp:77] Creating layer roi_pool_conv5
I0406 18:19:52.629372 24348 net.cpp:106] Creating Layer roi_pool_conv5
I0406 18:19:52.629384 24348 net.cpp:454] roi_pool_conv5 <- conv5_relu5_0_split_1
I0406 18:19:52.629401 24348 net.cpp:454] roi_pool_conv5 <- rois
I0406 18:19:52.629418 24348 net.cpp:411] roi_pool_conv5 -> roi_pool_conv5
I0406 18:19:52.629459 24348 roi_pooling_layer.cpp:30] Spatial scale: 0.0625
I0406 18:19:52.629590 24348 net.cpp:150] Setting up roi_pool_conv5
I0406 18:19:52.629608 24348 net.cpp:157] Top shape: 1 256 6 6 (9216)
I0406 18:19:52.629619 24348 net.cpp:165] Memory required for data: 21871940
I0406 18:19:52.629636 24348 layer_factory.hpp:77] Creating layer fc6
I0406 18:19:52.629663 24348 net.cpp:106] Creating Layer fc6
I0406 18:19:52.629678 24348 net.cpp:454] fc6 <- roi_pool_conv5
I0406 18:19:52.629698 24348 net.cpp:411] fc6 -> fc6
I0406 18:19:52.764943 24348 net.cpp:150] Setting up fc6
I0406 18:19:52.764974 24348 net.cpp:157] Top shape: 1 4096 (4096)
I0406 18:19:52.764979 24348 net.cpp:165] Memory required for data: 21888324
I0406 18:19:52.764998 24348 layer_factory.hpp:77] Creating layer relu6
I0406 18:19:52.765012 24348 net.cpp:106] Creating Layer relu6
I0406 18:19:52.765019 24348 net.cpp:454] relu6 <- fc6
I0406 18:19:52.765030 24348 net.cpp:397] relu6 -> fc6 (in-place)
I0406 18:19:52.765046 24348 net.cpp:150] Setting up relu6
I0406 18:19:52.765053 24348 net.cpp:157] Top shape: 1 4096 (4096)
I0406 18:19:52.765059 24348 net.cpp:165] Memory required for data: 21904708
I0406 18:19:52.765066 24348 layer_factory.hpp:77] Creating layer drop6
I0406 18:19:52.765082 24348 net.cpp:106] Creating Layer drop6
I0406 18:19:52.765089 24348 net.cpp:454] drop6 <- fc6
I0406 18:19:52.765100 24348 net.cpp:397] drop6 -> fc6 (in-place)
I0406 18:19:52.765139 24348 net.cpp:150] Setting up drop6
I0406 18:19:52.765147 24348 net.cpp:157] Top shape: 1 4096 (4096)
I0406 18:19:52.765153 24348 net.cpp:165] Memory required for data: 21921092
I0406 18:19:52.765161 24348 layer_factory.hpp:77] Creating layer fc7
I0406 18:19:52.765173 24348 net.cpp:106] Creating Layer fc7
I0406 18:19:52.765180 24348 net.cpp:454] fc7 <- fc6
I0406 18:19:52.765192 24348 net.cpp:411] fc7 -> fc7
I0406 18:19:52.813395 24348 net.cpp:150] Setting up fc7
I0406 18:19:52.813428 24348 net.cpp:157] Top shape: 1 4096 (4096)
I0406 18:19:52.813433 24348 net.cpp:165] Memory required for data: 21937476
I0406 18:19:52.813448 24348 layer_factory.hpp:77] Creating layer relu7
I0406 18:19:52.813462 24348 net.cpp:106] Creating Layer relu7
I0406 18:19:52.813467 24348 net.cpp:454] relu7 <- fc7
I0406 18:19:52.813473 24348 net.cpp:397] relu7 -> fc7 (in-place)
I0406 18:19:52.813483 24348 net.cpp:150] Setting up relu7
I0406 18:19:52.813490 24348 net.cpp:157] Top shape: 1 4096 (4096)
I0406 18:19:52.813495 24348 net.cpp:165] Memory required for data: 21953860
I0406 18:19:52.813500 24348 layer_factory.hpp:77] Creating layer drop7
I0406 18:19:52.813511 24348 net.cpp:106] Creating Layer drop7
I0406 18:19:52.813518 24348 net.cpp:454] drop7 <- fc7
I0406 18:19:52.813524 24348 net.cpp:397] drop7 -> fc7 (in-place)
I0406 18:19:52.813560 24348 net.cpp:150] Setting up drop7
I0406 18:19:52.813570 24348 net.cpp:157] Top shape: 1 4096 (4096)
I0406 18:19:52.813576 24348 net.cpp:165] Memory required for data: 21970244
I0406 18:19:52.813585 24348 layer_factory.hpp:77] Creating layer fc7_drop7_0_split
I0406 18:19:52.813597 24348 net.cpp:106] Creating Layer fc7_drop7_0_split
I0406 18:19:52.813606 24348 net.cpp:454] fc7_drop7_0_split <- fc7
I0406 18:19:52.813616 24348 net.cpp:411] fc7_drop7_0_split -> fc7_drop7_0_split_0
I0406 18:19:52.813627 24348 net.cpp:411] fc7_drop7_0_split -> fc7_drop7_0_split_1
I0406 18:19:52.813676 24348 net.cpp:150] Setting up fc7_drop7_0_split
I0406 18:19:52.813684 24348 net.cpp:157] Top shape: 1 4096 (4096)
I0406 18:19:52.813691 24348 net.cpp:157] Top shape: 1 4096 (4096)
I0406 18:19:52.813697 24348 net.cpp:165] Memory required for data: 22003012
I0406 18:19:52.813704 24348 layer_factory.hpp:77] Creating layer cls_score
I0406 18:19:52.813725 24348 net.cpp:106] Creating Layer cls_score
I0406 18:19:52.813732 24348 net.cpp:454] cls_score <- fc7_drop7_0_split_0
I0406 18:19:52.813745 24348 net.cpp:411] cls_score -> cls_score
I0406 18:19:52.813858 24348 net.cpp:150] Setting up cls_score
I0406 18:19:52.813865 24348 net.cpp:157] Top shape: 1 2 (2)
I0406 18:19:52.813871 24348 net.cpp:165] Memory required for data: 22003020
I0406 18:19:52.813904 24348 layer_factory.hpp:77] Creating layer bbox_pred
I0406 18:19:52.813918 24348 net.cpp:106] Creating Layer bbox_pred
I0406 18:19:52.813925 24348 net.cpp:454] bbox_pred <- fc7_drop7_0_split_1
I0406 18:19:52.813937 24348 net.cpp:411] bbox_pred -> bbox_pred
I0406 18:19:52.814873 24348 net.cpp:150] Setting up bbox_pred
I0406 18:19:52.814887 24348 net.cpp:157] Top shape: 1 8 (8)
I0406 18:19:52.814893 24348 net.cpp:165] Memory required for data: 22003052
I0406 18:19:52.814906 24348 layer_factory.hpp:77] Creating layer cls_prob
I0406 18:19:52.814920 24348 net.cpp:106] Creating Layer cls_prob
I0406 18:19:52.814929 24348 net.cpp:454] cls_prob <- cls_score
I0406 18:19:52.814939 24348 net.cpp:411] cls_prob -> cls_prob
I0406 18:19:52.815011 24348 net.cpp:150] Setting up cls_prob
I0406 18:19:52.815019 24348 net.cpp:157] Top shape: 1 2 (2)
I0406 18:19:52.815026 24348 net.cpp:165] Memory required for data: 22003060
I0406 18:19:52.815033 24348 net.cpp:228] cls_prob does not need backward computation.
I0406 18:19:52.815040 24348 net.cpp:228] bbox_pred does not need backward computation.
I0406 18:19:52.815047 24348 net.cpp:228] cls_score does not need backward computation.
I0406 18:19:52.815054 24348 net.cpp:228] fc7_drop7_0_split does not need backward computation.
…
