…
           'USE_FLIPPED': True,
           'USE_PREFETCH': False},
 'USE_GPU_NMS': False}
../../tools/test_net.py:80: RuntimeWarning: to-Python converter for boost::shared_ptr<caffe::Blob<float> > already registered; second conversion method ignored.
  caffe.set_mode_gpu()
WARNING: Logging before InitGoogleLogging() is written to STDERR
I0430 12:05:23.622313 14177 net.cpp:49] Initializing net from parameters: 
name: "ZF"
input: "data"
input: "im_info"
state {
  phase: TEST
}
input_shape {
  dim: 1
  dim: 3
  dim: 224
  dim: 224
}
input_shape {
  dim: 1
  dim: 3
}
layer {
  name: "conv1"
  type: "Convolution"
  bottom: "data"
  top: "conv1"
  convolution_param {
    num_output: 96
    pad: 3
    kernel_size: 7
    stride: 2
  }
}
layer {
  name: "relu1"
  type: "ReLU"
  bottom: "conv1"
  top: "conv1"
}
layer {
  name: "norm1"
  type: "LRN"
  bottom: "conv1"
  top: "norm1"
  lrn_param {
    local_size: 3
    alpha: 5e-05
    beta: 0.75
    norm_region: WITHIN_CHANNEL
    engine: CAFFE
  }
}
layer {
  name: "pool1"
  type: "Pooling"
  bottom: "norm1"
  top: "pool1"
  pooling_param {
    pool: MAX
    kernel_size: 3
    stride: 2
    pad: 1
  }
}
layer {
  name: "conv2"
  type: "Convolution"
  bottom: "pool1"
  top: "conv2"
  convolution_param {
    num_output: 256
    pad: 2
    kernel_size: 5
    stride: 2
  }
}
layer {
  name: "relu2"
  type: "ReLU"
  bottom: "conv2"
  top: "conv2"
}
layer {
  name: "norm2"
  type: "LRN"
  bottom: "conv2"
  top: "norm2"
  lrn_param {
    local_size: 3
    alpha: 5e-05
    beta: 0.75
    norm_region: WITHIN_CHANNEL
    engine: CAFFE
  }
}
layer {
  name: "pool2"
  type: "Pooling"
  bottom: "norm2"
  top: "pool2"
  pooling_param {
    pool: MAX
    kernel_size: 3
    stride: 2
    pad: 1
  }
}
layer {
  name: "conv3"
  type: "Convolution"
  bottom: "pool2"
  top: "conv3"
  convolution_param {
    num_output: 384
    pad: 1
    kernel_size: 3
    stride: 1
  }
}
layer {
  name: "relu3"
  type: "ReLU"
  bottom: "conv3"
  top: "conv3"
}
layer {
  name: "conv4"
  type: "Convolution"
  bottom: "conv3"
  top: "conv4"
  convolution_param {
    num_output: 384
    pad: 1
    kernel_size: 3
    stride: 1
  }
}
layer {
  name: "relu4"
  type: "ReLU"
  bottom: "conv4"
  top: "conv4"
}
layer {
  name: "conv5"
  type: "Convolution"
  bottom: "conv4"
  top: "conv5"
  convolution_param {
    num_output: 256
    pad: 1
    kernel_size: 3
    stride: 1
  }
}
layer {
  name: "relu5"
  type: "ReLU"
  bottom: "conv5"
  top: "conv5"
}
layer {
  name: "rpn_conv/3x3"
  type: "Convolution"
  bottom: "conv5"
  top: "rpn/output"
  convolution_param {
    num_output: 256
    pad: 1
    kernel_size: 3
    stride: 1
    weight_filler {
      type: "gaussian"
      std: 0.01
    }
    bias_filler {
      type: "constant"
      value: 0
    }
  }
}
layer {
  name: "rpn_relu/3x3"
  type: "ReLU"
  bottom: "rpn/output"
  top: "rpn/output"
}
layer {
  name: "rpn_cls_score"
  type: "Convolution"
  bottom: "rpn/output"
  top: "rpn_cls_score"
  convolution_param {
    num_output: 18
    pad: 0
    kernel_size: 1
    stride: 1
    weight_filler {
      type: "gaussian"
      std: 0.01
    }
    bias_filler {
      type: "constant"
      value: 0
    }
  }
}
layer {
  name: "rpn_bbox_pred"
  type: "Convolution"
  bottom: "rpn/output"
  top: "rpn_bbox_pred"
  convolution_param {
    num_output: 36
    pad: 0
    kernel_size: 1
    stride: 1
    weight_filler {
      type: "gaussian"
      std: 0.01
    }
    bias_filler {
      type: "constant"
      value: 0
    }
  }
}
layer {
  name: "rpn_cls_score_reshape"
  type: "Reshape"
  bottom: "rpn_cls_score"
  top: "rpn_cls_score_reshape"
  reshape_param {
    shape {
      dim: 0
      dim: 2
      dim: -1
      dim: 0
    }
  }
}
layer {
  name: "rpn_cls_prob"
  type: "Softmax"
  bottom: "rpn_cls_score_reshape"
  top: "rpn_cls_prob"
}
layer {
  name: "rpn_cls_prob_reshape"
  type: "Reshape"
  bottom: "rpn_cls_prob"
  top: "rpn_cls_prob_reshape"
  reshape_param {
    shape {
      dim: 0
      dim: 18
      dim: -1
      dim: 0
    }
  }
}
layer {
  name: "proposal"
  type: "Python"
  bottom: "rpn_cls_prob_reshape"
  bottom: "rpn_bbox_pred"
  bottom: "im_info"
  top: "rois"
  python_param {
    module: "rpn.proposal_layer"
    layer: "ProposalLayer"
    param_str: "\'feat_stride\': 16"
  }
}
layer {
  name: "roi_pool_conv5"
  type: "ROIPooling"
  bottom: "conv5"
  bottom: "rois"
  top: "roi_pool_conv5"
  roi_pooling_param {
    pooled_h: 6
    pooled_w: 6
    spatial_scale: 0.0625
  }
}
layer {
  name: "fc6"
  type: "InnerProduct"
  bottom: "roi_pool_conv5"
  top: "fc6"
  inner_product_param {
    num_output: 4096
  }
}
layer {
  name: "relu6"
  type: "ReLU"
  bottom: "fc6"
  top: "fc6"
}
layer {
  name: "drop6"
  type: "Dropout"
  bottom: "fc6"
  top: "fc6"
  dropout_param {
    dropout_ratio: 0.5
    scale_train: false
  }
}
layer {
  name: "fc7"
  type: "InnerProduct"
  bottom: "fc6"
  top: "fc7"
  inner_product_param {
    num_output: 4096
  }
}
layer {
  name: "relu7"
  type: "ReLU"
  bottom: "fc7"
  top: "fc7"
}
layer {
  name: "drop7"
  type: "Dropout"
  bottom: "fc7"
  top: "fc7"
  dropout_param {
    dropout_ratio: 0.5
    scale_train: false
  }
}
layer {
  name: "cls_score"
  type: "InnerProduct"
  bottom: "fc7"
  top: "cls_score"
  inner_product_param {
    num_output: 2
  }
}
layer {
  name: "bbox_pred"
  type: "InnerProduct"
  bottom: "fc7"
  top: "bbox_pred"
  inner_product_param {
    num_output: 8
  }
}
layer {
  name: "cls_prob"
  type: "Softmax"
  bottom: "cls_score"
  top: "cls_prob"
  loss_param {
    ignore_label: -1
    normalize: true
  }
}
I0430 12:05:23.622475 14177 net.cpp:413] Input 0 -> data
I0430 12:05:23.645951 14177 net.cpp:413] Input 1 -> im_info
I0430 12:05:23.646006 14177 layer_factory.hpp:77] Creating layer conv1
I0430 12:05:23.646031 14177 net.cpp:106] Creating Layer conv1
I0430 12:05:23.646037 14177 net.cpp:454] conv1 <- data
I0430 12:05:23.646042 14177 net.cpp:411] conv1 -> conv1
I0430 12:05:23.646880 14177 net.cpp:150] Setting up conv1
I0430 12:05:23.646895 14177 net.cpp:157] Top shape: 1 96 112 112 (1204224)
I0430 12:05:23.646899 14177 net.cpp:165] Memory required for data: 4816896
I0430 12:05:23.646914 14177 layer_factory.hpp:77] Creating layer relu1
I0430 12:05:23.646929 14177 net.cpp:106] Creating Layer relu1
I0430 12:05:23.646935 14177 net.cpp:454] relu1 <- conv1
I0430 12:05:23.646942 14177 net.cpp:397] relu1 -> conv1 (in-place)
I0430 12:05:23.646955 14177 net.cpp:150] Setting up relu1
I0430 12:05:23.646961 14177 net.cpp:157] Top shape: 1 96 112 112 (1204224)
I0430 12:05:23.646965 14177 net.cpp:165] Memory required for data: 9633792
I0430 12:05:23.646971 14177 layer_factory.hpp:77] Creating layer norm1
I0430 12:05:23.646983 14177 net.cpp:106] Creating Layer norm1
I0430 12:05:23.646987 14177 net.cpp:454] norm1 <- conv1
I0430 12:05:23.646996 14177 net.cpp:411] norm1 -> norm1
I0430 12:05:23.647104 14177 net.cpp:150] Setting up norm1
I0430 12:05:23.647112 14177 net.cpp:157] Top shape: 1 96 112 112 (1204224)
I0430 12:05:23.647116 14177 net.cpp:165] Memory required for data: 14450688
I0430 12:05:23.647121 14177 layer_factory.hpp:77] Creating layer pool1
I0430 12:05:23.647130 14177 net.cpp:106] Creating Layer pool1
I0430 12:05:23.647135 14177 net.cpp:454] pool1 <- norm1
I0430 12:05:23.647145 14177 net.cpp:411] pool1 -> pool1
I0430 12:05:23.647182 14177 net.cpp:150] Setting up pool1
I0430 12:05:23.647189 14177 net.cpp:157] Top shape: 1 96 57 57 (311904)
I0430 12:05:23.647194 14177 net.cpp:165] Memory required for data: 15698304
I0430 12:05:23.647199 14177 layer_factory.hpp:77] Creating layer conv2
I0430 12:05:23.647209 14177 net.cpp:106] Creating Layer conv2
I0430 12:05:23.647213 14177 net.cpp:454] conv2 <- pool1
I0430 12:05:23.647222 14177 net.cpp:411] conv2 -> conv2
I0430 12:05:23.649603 14177 net.cpp:150] Setting up conv2
I0430 12:05:23.649617 14177 net.cpp:157] Top shape: 1 256 29 29 (215296)
I0430 12:05:23.649623 14177 net.cpp:165] Memory required for data: 16559488
I0430 12:05:23.649636 14177 layer_factory.hpp:77] Creating layer relu2
I0430 12:05:23.649644 14177 net.cpp:106] Creating Layer relu2
I0430 12:05:23.649649 14177 net.cpp:454] relu2 <- conv2
I0430 12:05:23.649658 14177 net.cpp:397] relu2 -> conv2 (in-place)
I0430 12:05:23.649667 14177 net.cpp:150] Setting up relu2
I0430 12:05:23.649673 14177 net.cpp:157] Top shape: 1 256 29 29 (215296)
I0430 12:05:23.649677 14177 net.cpp:165] Memory required for data: 17420672
I0430 12:05:23.649682 14177 layer_factory.hpp:77] Creating layer norm2
I0430 12:05:23.649690 14177 net.cpp:106] Creating Layer norm2
I0430 12:05:23.649693 14177 net.cpp:454] norm2 <- conv2
I0430 12:05:23.649700 14177 net.cpp:411] norm2 -> norm2
I0430 12:05:23.649811 14177 net.cpp:150] Setting up norm2
I0430 12:05:23.649821 14177 net.cpp:157] Top shape: 1 256 29 29 (215296)
I0430 12:05:23.649826 14177 net.cpp:165] Memory required for data: 18281856
I0430 12:05:23.649830 14177 layer_factory.hpp:77] Creating layer pool2
I0430 12:05:23.649840 14177 net.cpp:106] Creating Layer pool2
I0430 12:05:23.649844 14177 net.cpp:454] pool2 <- norm2
I0430 12:05:23.649852 14177 net.cpp:411] pool2 -> pool2
I0430 12:05:23.649888 14177 net.cpp:150] Setting up pool2
I0430 12:05:23.649894 14177 net.cpp:157] Top shape: 1 256 15 15 (57600)
I0430 12:05:23.649900 14177 net.cpp:165] Memory required for data: 18512256
I0430 12:05:23.649905 14177 layer_factory.hpp:77] Creating layer conv3
I0430 12:05:23.649915 14177 net.cpp:106] Creating Layer conv3
I0430 12:05:23.649920 14177 net.cpp:454] conv3 <- pool2
I0430 12:05:23.649933 14177 net.cpp:411] conv3 -> conv3
I0430 12:05:23.652842 14177 net.cpp:150] Setting up conv3
I0430 12:05:23.652858 14177 net.cpp:157] Top shape: 1 384 15 15 (86400)
I0430 12:05:23.652863 14177 net.cpp:165] Memory required for data: 18857856
I0430 12:05:23.652876 14177 layer_factory.hpp:77] Creating layer relu3
I0430 12:05:23.652887 14177 net.cpp:106] Creating Layer relu3
I0430 12:05:23.652892 14177 net.cpp:454] relu3 <- conv3
I0430 12:05:23.652900 14177 net.cpp:397] relu3 -> conv3 (in-place)
I0430 12:05:23.652909 14177 net.cpp:150] Setting up relu3
I0430 12:05:23.652915 14177 net.cpp:157] Top shape: 1 384 15 15 (86400)
I0430 12:05:23.652920 14177 net.cpp:165] Memory required for data: 19203456
I0430 12:05:23.652927 14177 layer_factory.hpp:77] Creating layer conv4
I0430 12:05:23.652940 14177 net.cpp:106] Creating Layer conv4
I0430 12:05:23.652943 14177 net.cpp:454] conv4 <- conv3
I0430 12:05:23.652951 14177 net.cpp:411] conv4 -> conv4
I0430 12:05:23.656476 14177 net.cpp:150] Setting up conv4
I0430 12:05:23.656491 14177 net.cpp:157] Top shape: 1 384 15 15 (86400)
I0430 12:05:23.656496 14177 net.cpp:165] Memory required for data: 19549056
I0430 12:05:23.656505 14177 layer_factory.hpp:77] Creating layer relu4
I0430 12:05:23.656513 14177 net.cpp:106] Creating Layer relu4
I0430 12:05:23.656518 14177 net.cpp:454] relu4 <- conv4
I0430 12:05:23.656525 14177 net.cpp:397] relu4 -> conv4 (in-place)
I0430 12:05:23.656534 14177 net.cpp:150] Setting up relu4
I0430 12:05:23.656540 14177 net.cpp:157] Top shape: 1 384 15 15 (86400)
I0430 12:05:23.656544 14177 net.cpp:165] Memory required for data: 19894656
I0430 12:05:23.656549 14177 layer_factory.hpp:77] Creating layer conv5
I0430 12:05:23.656560 14177 net.cpp:106] Creating Layer conv5
I0430 12:05:23.656564 14177 net.cpp:454] conv5 <- conv4
I0430 12:05:23.656574 14177 net.cpp:411] conv5 -> conv5
I0430 12:05:23.658946 14177 net.cpp:150] Setting up conv5
I0430 12:05:23.658962 14177 net.cpp:157] Top shape: 1 256 15 15 (57600)
I0430 12:05:23.658978 14177 net.cpp:165] Memory required for data: 20125056
I0430 12:05:23.658991 14177 layer_factory.hpp:77] Creating layer relu5
I0430 12:05:23.658999 14177 net.cpp:106] Creating Layer relu5
I0430 12:05:23.659003 14177 net.cpp:454] relu5 <- conv5
I0430 12:05:23.659011 14177 net.cpp:397] relu5 -> conv5 (in-place)
I0430 12:05:23.659019 14177 net.cpp:150] Setting up relu5
I0430 12:05:23.659025 14177 net.cpp:157] Top shape: 1 256 15 15 (57600)
I0430 12:05:23.659029 14177 net.cpp:165] Memory required for data: 20355456
I0430 12:05:23.659034 14177 layer_factory.hpp:77] Creating layer conv5_relu5_0_split
I0430 12:05:23.659047 14177 net.cpp:106] Creating Layer conv5_relu5_0_split
I0430 12:05:23.659051 14177 net.cpp:454] conv5_relu5_0_split <- conv5
I0430 12:05:23.659062 14177 net.cpp:411] conv5_relu5_0_split -> conv5_relu5_0_split_0
I0430 12:05:23.659070 14177 net.cpp:411] conv5_relu5_0_split -> conv5_relu5_0_split_1
I0430 12:05:23.659107 14177 net.cpp:150] Setting up conv5_relu5_0_split
I0430 12:05:23.659114 14177 net.cpp:157] Top shape: 1 256 15 15 (57600)
I0430 12:05:23.659122 14177 net.cpp:157] Top shape: 1 256 15 15 (57600)
I0430 12:05:23.659126 14177 net.cpp:165] Memory required for data: 20816256
I0430 12:05:23.659131 14177 layer_factory.hpp:77] Creating layer rpn_conv/3x3
I0430 12:05:23.659144 14177 net.cpp:106] Creating Layer rpn_conv/3x3
I0430 12:05:23.659148 14177 net.cpp:454] rpn_conv/3x3 <- conv5_relu5_0_split_0
I0430 12:05:23.659157 14177 net.cpp:411] rpn_conv/3x3 -> rpn/output
I0430 12:05:23.670584 14177 net.cpp:150] Setting up rpn_conv/3x3
I0430 12:05:23.670600 14177 net.cpp:157] Top shape: 1 256 15 15 (57600)
I0430 12:05:23.670613 14177 net.cpp:165] Memory required for data: 21046656
I0430 12:05:23.670624 14177 layer_factory.hpp:77] Creating layer rpn_relu/3x3
I0430 12:05:23.670636 14177 net.cpp:106] Creating Layer rpn_relu/3x3
I0430 12:05:23.670641 14177 net.cpp:454] rpn_relu/3x3 <- rpn/output
I0430 12:05:23.670650 14177 net.cpp:397] rpn_relu/3x3 -> rpn/output (in-place)
I0430 12:05:23.670658 14177 net.cpp:150] Setting up rpn_relu/3x3
I0430 12:05:23.670665 14177 net.cpp:157] Top shape: 1 256 15 15 (57600)
I0430 12:05:23.670668 14177 net.cpp:165] Memory required for data: 21277056
I0430 12:05:23.670675 14177 layer_factory.hpp:77] Creating layer rpn/output_rpn_relu/3x3_0_split
I0430 12:05:23.670681 14177 net.cpp:106] Creating Layer rpn/output_rpn_relu/3x3_0_split
I0430 12:05:23.670686 14177 net.cpp:454] rpn/output_rpn_relu/3x3_0_split <- rpn/output
I0430 12:05:23.670693 14177 net.cpp:411] rpn/output_rpn_relu/3x3_0_split -> rpn/output_rpn_relu/3x3_0_split_0
I0430 12:05:23.670702 14177 net.cpp:411] rpn/output_rpn_relu/3x3_0_split -> rpn/output_rpn_relu/3x3_0_split_1
I0430 12:05:23.670737 14177 net.cpp:150] Setting up rpn/output_rpn_relu/3x3_0_split
I0430 12:05:23.670744 14177 net.cpp:157] Top shape: 1 256 15 15 (57600)
I0430 12:05:23.670752 14177 net.cpp:157] Top shape: 1 256 15 15 (57600)
I0430 12:05:23.670755 14177 net.cpp:165] Memory required for data: 21737856
I0430 12:05:23.670760 14177 layer_factory.hpp:77] Creating layer rpn_cls_score
I0430 12:05:23.670773 14177 net.cpp:106] Creating Layer rpn_cls_score
I0430 12:05:23.670778 14177 net.cpp:454] rpn_cls_score <- rpn/output_rpn_relu/3x3_0_split_0
I0430 12:05:23.670788 14177 net.cpp:411] rpn_cls_score -> rpn_cls_score
I0430 12:05:23.671072 14177 net.cpp:150] Setting up rpn_cls_score
I0430 12:05:23.671082 14177 net.cpp:157] Top shape: 1 18 15 15 (4050)
I0430 12:05:23.671087 14177 net.cpp:165] Memory required for data: 21754056
I0430 12:05:23.671097 14177 layer_factory.hpp:77] Creating layer rpn_bbox_pred
I0430 12:05:23.671108 14177 net.cpp:106] Creating Layer rpn_bbox_pred
I0430 12:05:23.671113 14177 net.cpp:454] rpn_bbox_pred <- rpn/output_rpn_relu/3x3_0_split_1
I0430 12:05:23.671121 14177 net.cpp:411] rpn_bbox_pred -> rpn_bbox_pred
I0430 12:05:23.671469 14177 net.cpp:150] Setting up rpn_bbox_pred
I0430 12:05:23.671478 14177 net.cpp:157] Top shape: 1 36 15 15 (8100)
I0430 12:05:23.671483 14177 net.cpp:165] Memory required for data: 21786456
I0430 12:05:23.671492 14177 layer_factory.hpp:77] Creating layer rpn_cls_score_reshape
I0430 12:05:23.671509 14177 net.cpp:106] Creating Layer rpn_cls_score_reshape
I0430 12:05:23.671515 14177 net.cpp:454] rpn_cls_score_reshape <- rpn_cls_score
I0430 12:05:23.671524 14177 net.cpp:411] rpn_cls_score_reshape -> rpn_cls_score_reshape
I0430 12:05:23.671555 14177 net.cpp:150] Setting up rpn_cls_score_reshape
I0430 12:05:23.671562 14177 net.cpp:157] Top shape: 1 2 135 15 (4050)
I0430 12:05:23.671567 14177 net.cpp:165] Memory required for data: 21802656
I0430 12:05:23.671571 14177 layer_factory.hpp:77] Creating layer rpn_cls_prob
I0430 12:05:23.671579 14177 net.cpp:106] Creating Layer rpn_cls_prob
I0430 12:05:23.671584 14177 net.cpp:454] rpn_cls_prob <- rpn_cls_score_reshape
I0430 12:05:23.671593 14177 net.cpp:411] rpn_cls_prob -> rpn_cls_prob
I0430 12:05:23.671648 14177 net.cpp:150] Setting up rpn_cls_prob
I0430 12:05:23.671656 14177 net.cpp:157] Top shape: 1 2 135 15 (4050)
I0430 12:05:23.671661 14177 net.cpp:165] Memory required for data: 21818856
I0430 12:05:23.671666 14177 layer_factory.hpp:77] Creating layer rpn_cls_prob_reshape
I0430 12:05:23.671675 14177 net.cpp:106] Creating Layer rpn_cls_prob_reshape
I0430 12:05:23.671680 14177 net.cpp:454] rpn_cls_prob_reshape <- rpn_cls_prob
I0430 12:05:23.671687 14177 net.cpp:411] rpn_cls_prob_reshape -> rpn_cls_prob_reshape
I0430 12:05:23.671712 14177 net.cpp:150] Setting up rpn_cls_prob_reshape
I0430 12:05:23.671718 14177 net.cpp:157] Top shape: 1 18 15 15 (4050)
I0430 12:05:23.671723 14177 net.cpp:165] Memory required for data: 21835056
I0430 12:05:23.671728 14177 layer_factory.hpp:77] Creating layer proposal
I0430 12:05:23.674644 14177 net.cpp:106] Creating Layer proposal
I0430 12:05:23.674657 14177 net.cpp:454] proposal <- rpn_cls_prob_reshape
I0430 12:05:23.674664 14177 net.cpp:454] proposal <- rpn_bbox_pred
I0430 12:05:23.674669 14177 net.cpp:454] proposal <- im_info
I0430 12:05:23.674675 14177 net.cpp:411] proposal -> rois
I0430 12:05:23.675689 14177 net.cpp:150] Setting up proposal
I0430 12:05:23.675704 14177 net.cpp:157] Top shape: 1 5 (5)
I0430 12:05:23.675707 14177 net.cpp:165] Memory required for data: 21835076
I0430 12:05:23.675711 14177 layer_factory.hpp:77] Creating layer roi_pool_conv5
I0430 12:05:23.675722 14177 net.cpp:106] Creating Layer roi_pool_conv5
I0430 12:05:23.675726 14177 net.cpp:454] roi_pool_conv5 <- conv5_relu5_0_split_1
I0430 12:05:23.675731 14177 net.cpp:454] roi_pool_conv5 <- rois
I0430 12:05:23.675736 14177 net.cpp:411] roi_pool_conv5 -> roi_pool_conv5
I0430 12:05:23.675747 14177 roi_pooling_layer.cpp:30] Spatial scale: 0.0625
I0430 12:05:23.675793 14177 net.cpp:150] Setting up roi_pool_conv5
I0430 12:05:23.675799 14177 net.cpp:157] Top shape: 1 256 6 6 (9216)
I0430 12:05:23.675802 14177 net.cpp:165] Memory required for data: 21871940
I0430 12:05:23.675806 14177 layer_factory.hpp:77] Creating layer fc6
I0430 12:05:23.675814 14177 net.cpp:106] Creating Layer fc6
I0430 12:05:23.675818 14177 net.cpp:454] fc6 <- roi_pool_conv5
I0430 12:05:23.675823 14177 net.cpp:411] fc6 -> fc6
I0430 12:05:23.779480 14177 net.cpp:150] Setting up fc6
I0430 12:05:23.779511 14177 net.cpp:157] Top shape: 1 4096 (4096)
I0430 12:05:23.779515 14177 net.cpp:165] Memory required for data: 21888324
I0430 12:05:23.779534 14177 layer_factory.hpp:77] Creating layer relu6
I0430 12:05:23.779546 14177 net.cpp:106] Creating Layer relu6
I0430 12:05:23.779554 14177 net.cpp:454] relu6 <- fc6
I0430 12:05:23.779562 14177 net.cpp:397] relu6 -> fc6 (in-place)
I0430 12:05:23.779573 14177 net.cpp:150] Setting up relu6
I0430 12:05:23.779578 14177 net.cpp:157] Top shape: 1 4096 (4096)
I0430 12:05:23.779582 14177 net.cpp:165] Memory required for data: 21904708
I0430 12:05:23.779585 14177 layer_factory.hpp:77] Creating layer drop6
I0430 12:05:23.779599 14177 net.cpp:106] Creating Layer drop6
I0430 12:05:23.779605 14177 net.cpp:454] drop6 <- fc6
I0430 12:05:23.779609 14177 net.cpp:397] drop6 -> fc6 (in-place)
I0430 12:05:23.779636 14177 net.cpp:150] Setting up drop6
I0430 12:05:23.779642 14177 net.cpp:157] Top shape: 1 4096 (4096)
I0430 12:05:23.779645 14177 net.cpp:165] Memory required for data: 21921092
I0430 12:05:23.779649 14177 layer_factory.hpp:77] Creating layer fc7
I0430 12:05:23.779657 14177 net.cpp:106] Creating Layer fc7
I0430 12:05:23.779660 14177 net.cpp:454] fc7 <- fc6
I0430 12:05:23.779664 14177 net.cpp:411] fc7 -> fc7
I0430 12:05:23.826192 14177 net.cpp:150] Setting up fc7
I0430 12:05:23.826221 14177 net.cpp:157] Top shape: 1 4096 (4096)
I0430 12:05:23.826225 14177 net.cpp:165] Memory required for data: 21937476
I0430 12:05:23.826236 14177 layer_factory.hpp:77] Creating layer relu7
I0430 12:05:23.826247 14177 net.cpp:106] Creating Layer relu7
I0430 12:05:23.826256 14177 net.cpp:454] relu7 <- fc7
I0430 12:05:23.826261 14177 net.cpp:397] relu7 -> fc7 (in-place)
I0430 12:05:23.826272 14177 net.cpp:150] Setting up relu7
I0430 12:05:23.826280 14177 net.cpp:157] Top shape: 1 4096 (4096)
I0430 12:05:23.826287 14177 net.cpp:165] Memory required for data: 21953860
I0430 12:05:23.826292 14177 layer_factory.hpp:77] Creating layer drop7
I0430 12:05:23.826300 14177 net.cpp:106] Creating Layer drop7
I0430 12:05:23.826305 14177 net.cpp:454] drop7 <- fc7
I0430 12:05:23.826310 14177 net.cpp:397] drop7 -> fc7 (in-place)
I0430 12:05:23.826344 14177 net.cpp:150] Setting up drop7
I0430 12:05:23.826354 14177 net.cpp:157] Top shape: 1 4096 (4096)
I0430 12:05:23.826359 14177 net.cpp:165] Memory required for data: 21970244
I0430 12:05:23.826361 14177 layer_factory.hpp:77] Creating layer fc7_drop7_0_split
I0430 12:05:23.826369 14177 net.cpp:106] Creating Layer fc7_drop7_0_split
I0430 12:05:23.826372 14177 net.cpp:454] fc7_drop7_0_split <- fc7
I0430 12:05:23.826378 14177 net.cpp:411] fc7_drop7_0_split -> fc7_drop7_0_split_0
I0430 12:05:23.826385 14177 net.cpp:411] fc7_drop7_0_split -> fc7_drop7_0_split_1
I0430 12:05:23.826426 14177 net.cpp:150] Setting up fc7_drop7_0_split
I0430 12:05:23.826431 14177 net.cpp:157] Top shape: 1 4096 (4096)
I0430 12:05:23.826436 14177 net.cpp:157] Top shape: 1 4096 (4096)
I0430 12:05:23.826439 14177 net.cpp:165] Memory required for data: 22003012
I0430 12:05:23.826442 14177 layer_factory.hpp:77] Creating layer cls_score
I0430 12:05:23.826457 14177 net.cpp:106] Creating Layer cls_score
I0430 12:05:23.826460 14177 net.cpp:454] cls_score <- fc7_drop7_0_split_0
I0430 12:05:23.826467 14177 net.cpp:411] cls_score -> cls_score
I0430 12:05:23.826575 14177 net.cpp:150] Setting up cls_score
I0430 12:05:23.826581 14177 net.cpp:157] Top shape: 1 2 (2)
I0430 12:05:23.826584 14177 net.cpp:165] Memory required for data: 22003020
I0430 12:05:23.826591 14177 layer_factory.hpp:77] Creating layer bbox_pred
I0430 12:05:23.826597 14177 net.cpp:106] Creating Layer bbox_pred
I0430 12:05:23.826601 14177 net.cpp:454] bbox_pred <- fc7_drop7_0_split_1
I0430 12:05:23.826608 14177 net.cpp:411] bbox_pred -> bbox_pred
I0430 12:05:23.827519 14177 net.cpp:150] Setting up bbox_pred
I0430 12:05:23.827531 14177 net.cpp:157] Top shape: 1 8 (8)
I0430 12:05:23.827534 14177 net.cpp:165] Memory required for data: 22003052
I0430 12:05:23.827543 14177 layer_factory.hpp:77] Creating layer cls_prob
I0430 12:05:23.827553 14177 net.cpp:106] Creating Layer cls_prob
I0430 12:05:23.827556 14177 net.cpp:454] cls_prob <- cls_score
I0430 12:05:23.827563 14177 net.cpp:411] cls_prob -> cls_prob
I0430 12:05:23.827618 14177 net.cpp:150] Setting up cls_prob
I0430 12:05:23.827625 14177 net.cpp:157] Top shape: 1 2 (2)
I0430 12:05:23.827628 14177 net.cpp:165] Memory required for data: 22003060
I0430 12:05:23.827631 14177 net.cpp:228] cls_prob does not need backward computation.
I0430 12:05:23.827636 14177 net.cpp:228] bbox_pred does not need backward computation.
I0430 12:05:23.827639 14177 net.cpp:228] cls_score does not need backward computation.
I0430 12:05:23.827643 14177 net.cpp:228] fc7_drop7_0_split does not need backward computation.
…
