…
snapshot_prefix: "zf_faster_rcnn"
average_loss: 100
iter_size: 2
I0326 15:48:47.932121 24197 solver.cpp:81] Creating training net from train_net file: /home/sgabriel/py-faster-rcnn/models/pascal_voc/ZF/faster_rcnn_end2end/train.prototxt
I0326 15:48:47.944912 24197 net.cpp:49] Initializing net from parameters: 
name: "ZF"
state {
  phase: TRAIN
}
layer {
  name: "input-data"
  type: "Python"
  top: "data"
  top: "im_info"
  top: "gt_boxes"
  python_param {
    module: "roi_data_layer.layer"
    layer: "RoIDataLayer"
    param_str: "\'num_classes\': 2"
  }
}
layer {
  name: "conv1"
  type: "Convolution"
  bottom: "data"
  top: "conv1"
  param {
    lr_mult: 0
  }
  param {
    lr_mult: 0
  }
  convolution_param {
    num_output: 96
    pad: 3
    kernel_size: 7
    stride: 2
  }
}
layer {
  name: "relu1"
  type: "ReLU"
  bottom: "conv1"
  top: "conv1"
}
layer {
  name: "norm1"
  type: "LRN"
  bottom: "conv1"
  top: "norm1"
  lrn_param {
    local_size: 3
    alpha: 5e-05
    beta: 0.75
    norm_region: WITHIN_CHANNEL
    engine: CAFFE
  }
}
layer {
  name: "pool1"
  type: "Pooling"
  bottom: "norm1"
  top: "pool1"
  pooling_param {
    pool: MAX
    kernel_size: 3
    stride: 2
    pad: 1
  }
}
layer {
  name: "conv2"
  type: "Convolution"
  bottom: "pool1"
  top: "conv2"
  param {
    lr_mult: 0
  }
  param {
    lr_mult: 0
  }
  convolution_param {
    num_output: 256
    pad: 2
    kernel_size: 5
    stride: 2
  }
}
layer {
  name: "relu2"
  type: "ReLU"
  bottom: "conv2"
  top: "conv2"
}
layer {
  name: "norm2"
  type: "LRN"
  bottom: "conv2"
  top: "norm2"
  lrn_param {
    local_size: 3
    alpha: 5e-05
    beta: 0.75
    norm_region: WITHIN_CHANNEL
    engine: CAFFE
  }
}
layer {
  name: "pool2"
  type: "Pooling"
  bottom: "norm2"
  top: "pool2"
  pooling_param {
    pool: MAX
    kernel_size: 3
    stride: 2
    pad: 1
  }
}
layer {
  name: "conv3"
  type: "Convolution"
  bottom: "pool2"
  top: "conv3"
  param {
    lr_mult: 0
  }
  param {
    lr_mult: 0
  }
  convolution_param {
    num_output: 384
    pad: 1
    kernel_size: 3
    stride: 1
  }
}
layer {
  name: "relu3"
  type: "ReLU"
  bottom: "conv3"
  top: "conv3"
}
layer {
  name: "conv4"
  type: "Convolution"
  bottom: "conv3"
  top: "conv4"
  param {
    lr_mult: 0
  }
  param {
    lr_mult: 0
  }
  convolution_param {
    num_output: 384
    pad: 1
    kernel_size: 3
    stride: 1
  }
}
layer {
  name: "relu4"
  type: "ReLU"
  bottom: "conv4"
  top: "conv4"
}
layer {
  name: "conv5"
  type: "Convolution"
  bottom: "conv4"
  top: "conv5"
  param {
    lr_mult: 0
  }
  param {
    lr_mult: 0
  }
  convolution_param {
    num_output: 256
    pad: 1
    kernel_size: 3
    stride: 1
  }
}
layer {
  name: "relu5"
  type: "ReLU"
  bottom: "conv5"
  top: "conv5"
}
layer {
  name: "rpn_conv/3x3"
  type: "Convolution"
  bottom: "conv5"
  top: "rpn/output"
  param {
    lr_mult: 1
  }
  param {
    lr_mult: 2
  }
  convolution_param {
    num_output: 256
    pad: 1
    kernel_size: 3
    stride: 1
    weight_filler {
      type: "gaussian"
      std: 0.01
    }
    bias_filler {
      type: "constant"
      value: 0
    }
  }
}
layer {
  name: "rpn_relu/3x3"
  type: "ReLU"
  bottom: "rpn/output"
  top: "rpn/output"
}
layer {
  name: "rpn_cls_score"
  type: "Convolution"
  bottom: "rpn/output"
  top: "rpn_cls_score"
  param {
    lr_mult: 1
  }
  param {
    lr_mult: 2
  }
  convolution_param {
    num_output: 18
    pad: 0
    kernel_size: 1
    stride: 1
    weight_filler {
      type: "gaussian"
      std: 0.01
    }
    bias_filler {
      type: "constant"
      value: 0
    }
  }
}
layer {
  name: "rpn_bbox_pred"
  type: "Convolution"
  bottom: "rpn/output"
  top: "rpn_bbox_pred"
  param {
    lr_mult: 1
  }
  param {
    lr_mult: 2
  }
  convolution_param {
    num_output: 36
    pad: 0
    kernel_size: 1
    stride: 1
    weight_filler {
      type: "gaussian"
      std: 0.01
    }
    bias_filler {
      type: "constant"
      value: 0
    }
  }
}
layer {
  name: "rpn_cls_score_reshape"
  type: "Reshape"
  bottom: "rpn_cls_score"
  top: "rpn_cls_score_reshape"
  reshape_param {
    shape {
      dim: 0
      dim: 2
      dim: -1
      dim: 0
    }
  }
}
layer {
  name: "rpn-data"
  type: "Python"
  bottom: "rpn_cls_score"
  bottom: "gt_boxes"
  bottom: "im_info"
  bottom: "data"
  top: "rpn_labels"
  top: "rpn_bbox_targets"
  top: "rpn_bbox_inside_weights"
  top: "rpn_bbox_outside_weights"
  python_param {
    module: "rpn.anchor_target_layer"
    layer: "AnchorTargetLayer"
    param_str: "\'feat_stride\': 16"
  }
}
layer {
  name: "rpn_loss_cls"
  type: "SoftmaxWithLoss"
  bottom: "rpn_cls_score_reshape"
  bottom: "rpn_labels"
  top: "rpn_cls_loss"
  loss_weight: 1
  propagate_down: true
  propagate_down: false
  loss_param {
    ignore_label: -1
    normalize: true
  }
}
layer {
  name: "rpn_loss_bbox"
  type: "SmoothL1Loss"
  bottom: "rpn_bbox_pred"
  bottom: "rpn_bbox_targets"
  bottom: "rpn_bbox_inside_weights"
  bottom: "rpn_bbox_outside_weights"
  top: "rpn_loss_bbox"
  loss_weight: 1
  smooth_l1_loss_param {
    sigma: 3
  }
}
layer {
  name: "rpn_cls_prob"
  type: "Softmax"
  bottom: "rpn_cls_score_reshape"
  top: "rpn_cls_prob"
}
layer {
  name: "rpn_cls_prob_reshape"
  type: "Reshape"
  bottom: "rpn_cls_prob"
  top: "rpn_cls_prob_reshape"
  reshape_param {
    shape {
      dim: 0
      dim: 18
      dim: -1
      dim: 0
    }
  }
}
layer {
  name: "proposal"
  type: "Python"
  bottom: "rpn_cls_prob_reshape"
  bottom: "rpn_bbox_pred"
  bottom: "im_info"
  top: "rpn_rois"
  python_param {
    module: "rpn.proposal_layer"
    layer: "ProposalLayer"
    param_str: "\'feat_stride\': 16"
  }
}
layer {
  name: "roi-data"
  type: "Python"
  bottom: "rpn_rois"
  bottom: "gt_boxes"
  top: "rois"
  top: "labels"
  top: "bbox_targets"
  top: "bbox_inside_weights"
  top: "bbox_outside_weights"
  python_param {
    module: "rpn.proposal_target_layer"
    layer: "ProposalTargetLayer"
    param_str: "\'num_classes\': 2"
  }
}
layer {
  name: "roi_pool_conv5"
  type: "ROIPooling"
  bottom: "conv5"
  bottom: "rois"
  top: "roi_pool_conv5"
  roi_pooling_param {
    pooled_h: 6
    pooled_w: 6
    spatial_scale: 0.0625
  }
}
layer {
  name: "fc6"
  type: "InnerProduct"
  bottom: "roi_pool_conv5"
  top: "fc6"
  param {
    lr_mult: 1
  }
  param {
    lr_mult: 2
  }
  inner_product_param {
    num_output: 4096
  }
}
layer {
  name: "relu6"
  type: "ReLU"
  bottom: "fc6"
  top: "fc6"
}
layer {
  name: "drop6"
  type: "Dropout"
  bottom: "fc6"
  top: "fc6"
  dropout_param {
    dropout_ratio: 0.5
    scale_train: false
  }
}
layer {
  name: "fc7"
  type: "InnerProduct"
  bottom: "fc6"
  top: "fc7"
  param {
    lr_mult: 0
  }
  param {
    lr_mult: 0
  }
  inner_product_param {
    num_output: 4096
  }
}
layer {
  name: "relu7"
  type: "ReLU"
  bottom: "fc7"
  top: "fc7"
}
layer {
  name: "drop7"
  type: "Dropout"
  bottom: "fc7"
  top: "fc7"
  dropout_param {
    dropout_ratio: 0.5
    scale_train: false
  }
}
layer {
  name: "cls_score"
  type: "InnerProduct"
  bottom: "fc7"
  top: "cls_score"
  param {
    lr_mult: 1
  }
  param {
    lr_mult: 2
  }
  inner_product_param {
    num_output: 2
    weight_filler {
      type: "gaussian"
      std: 0.01
    }
    bias_filler {
      type: "constant"
      value: 0
    }
  }
}
layer {
  name: "bbox_pred"
  type: "InnerProduct"
  bottom: "fc7"
  top: "bbox_pred"
  param {
    lr_mult: 1
  }
  param {
    lr_mult: 2
  }
  inner_product_param {
    num_output: 8
    weight_filler {
      type: "gaussian"
      std: 0.001
    }
    bias_filler {
      type: "constant"
      value: 0
    }
  }
}
layer {
  name: "loss_cls"
  type: "SoftmaxWithLoss"
  bottom: "cls_score"
  bottom: "labels"
  top: "cls_loss"
  loss_weight: 1
  propagate_down: true
  propagate_down: false
  loss_param {
    ignore_label: -1
    normalize: true
  }
}
layer {
  name: "loss_bbox"
  type: "SmoothL1Loss"
  bottom: "bbox_pred"
  bottom: "bbox_targets"
  bottom: "bbox_inside_weights"
  bottom: "bbox_outside_weights"
  top: "bbox_loss"
  loss_weight: 1
}
I0326 15:48:47.945168 24197 layer_factory.hpp:77] Creating layer input-data
I0326 15:48:48.268077 24197 net.cpp:106] Creating Layer input-data
I0326 15:48:48.268106 24197 net.cpp:411] input-data -> data
I0326 15:48:48.268131 24197 net.cpp:411] input-data -> im_info
I0326 15:48:48.268142 24197 net.cpp:411] input-data -> gt_boxes
RoiDataLayer: name_to_top: {'gt_boxes': 2, 'data': 0, 'im_info': 1}
I0326 15:48:48.286911 24197 net.cpp:150] Setting up input-data
I0326 15:48:48.286936 24197 net.cpp:157] Top shape: 1 3 600 600 (1080000)
I0326 15:48:48.286944 24197 net.cpp:157] Top shape: 1 3 (3)
I0326 15:48:48.286950 24197 net.cpp:157] Top shape: 1 4 (4)
I0326 15:48:48.286955 24197 net.cpp:165] Memory required for data: 4320028
I0326 15:48:48.286965 24197 layer_factory.hpp:77] Creating layer data_input-data_0_split
I0326 15:48:48.286981 24197 net.cpp:106] Creating Layer data_input-data_0_split
I0326 15:48:48.286988 24197 net.cpp:454] data_input-data_0_split <- data
I0326 15:48:48.287000 24197 net.cpp:411] data_input-data_0_split -> data_input-data_0_split_0
I0326 15:48:48.287014 24197 net.cpp:411] data_input-data_0_split -> data_input-data_0_split_1
I0326 15:48:48.287065 24197 net.cpp:150] Setting up data_input-data_0_split
I0326 15:48:48.287072 24197 net.cpp:157] Top shape: 1 3 600 600 (1080000)
I0326 15:48:48.287081 24197 net.cpp:157] Top shape: 1 3 600 600 (1080000)
I0326 15:48:48.287084 24197 net.cpp:165] Memory required for data: 12960028
I0326 15:48:48.287089 24197 layer_factory.hpp:77] Creating layer im_info_input-data_1_split
I0326 15:48:48.287098 24197 net.cpp:106] Creating Layer im_info_input-data_1_split
I0326 15:48:48.287108 24197 net.cpp:454] im_info_input-data_1_split <- im_info
I0326 15:48:48.287117 24197 net.cpp:411] im_info_input-data_1_split -> im_info_input-data_1_split_0
I0326 15:48:48.287124 24197 net.cpp:411] im_info_input-data_1_split -> im_info_input-data_1_split_1
I0326 15:48:48.287169 24197 net.cpp:150] Setting up im_info_input-data_1_split
I0326 15:48:48.287176 24197 net.cpp:157] Top shape: 1 3 (3)
I0326 15:48:48.287183 24197 net.cpp:157] Top shape: 1 3 (3)
I0326 15:48:48.287187 24197 net.cpp:165] Memory required for data: 12960052
I0326 15:48:48.287191 24197 layer_factory.hpp:77] Creating layer gt_boxes_input-data_2_split
I0326 15:48:48.287199 24197 net.cpp:106] Creating Layer gt_boxes_input-data_2_split
I0326 15:48:48.287202 24197 net.cpp:454] gt_boxes_input-data_2_split <- gt_boxes
I0326 15:48:48.287209 24197 net.cpp:411] gt_boxes_input-data_2_split -> gt_boxes_input-data_2_split_0
I0326 15:48:48.287217 24197 net.cpp:411] gt_boxes_input-data_2_split -> gt_boxes_input-data_2_split_1
I0326 15:48:48.287258 24197 net.cpp:150] Setting up gt_boxes_input-data_2_split
I0326 15:48:48.287266 24197 net.cpp:157] Top shape: 1 4 (4)
I0326 15:48:48.287272 24197 net.cpp:157] Top shape: 1 4 (4)
I0326 15:48:48.287276 24197 net.cpp:165] Memory required for data: 12960084
I0326 15:48:48.287281 24197 layer_factory.hpp:77] Creating layer conv1
I0326 15:48:48.287298 24197 net.cpp:106] Creating Layer conv1
I0326 15:48:48.287303 24197 net.cpp:454] conv1 <- data_input-data_0_split_0
I0326 15:48:48.287312 24197 net.cpp:411] conv1 -> conv1
I0326 15:48:48.289181 24197 net.cpp:150] Setting up conv1
I0326 15:48:48.289198 24197 net.cpp:157] Top shape: 1 96 300 300 (8640000)
I0326 15:48:48.289203 24197 net.cpp:165] Memory required for data: 47520084
I0326 15:48:48.289227 24197 layer_factory.hpp:77] Creating layer relu1
I0326 15:48:48.289238 24197 net.cpp:106] Creating Layer relu1
I0326 15:48:48.289244 24197 net.cpp:454] relu1 <- conv1
I0326 15:48:48.289254 24197 net.cpp:397] relu1 -> conv1 (in-place)
I0326 15:48:48.289265 24197 net.cpp:150] Setting up relu1
I0326 15:48:48.289273 24197 net.cpp:157] Top shape: 1 96 300 300 (8640000)
I0326 15:48:48.289276 24197 net.cpp:165] Memory required for data: 82080084
I0326 15:48:48.289283 24197 layer_factory.hpp:77] Creating layer norm1
I0326 15:48:48.289290 24197 net.cpp:106] Creating Layer norm1
I0326 15:48:48.289295 24197 net.cpp:454] norm1 <- conv1
I0326 15:48:48.289304 24197 net.cpp:411] norm1 -> norm1
I0326 15:48:48.289443 24197 net.cpp:150] Setting up norm1
I0326 15:48:48.289453 24197 net.cpp:157] Top shape: 1 96 300 300 (8640000)
I0326 15:48:48.289456 24197 net.cpp:165] Memory required for data: 116640084
I0326 15:48:48.289460 24197 layer_factory.hpp:77] Creating layer pool1
I0326 15:48:48.289472 24197 net.cpp:106] Creating Layer pool1
I0326 15:48:48.289477 24197 net.cpp:454] pool1 <- norm1
I0326 15:48:48.289484 24197 net.cpp:411] pool1 -> pool1
I0326 15:48:48.289525 24197 net.cpp:150] Setting up pool1
I0326 15:48:48.289532 24197 net.cpp:157] Top shape: 1 96 151 151 (2188896)
I0326 15:48:48.289537 24197 net.cpp:165] Memory required for data: 125395668
I0326 15:48:48.289541 24197 layer_factory.hpp:77] Creating layer conv2
I0326 15:48:48.289551 24197 net.cpp:106] Creating Layer conv2
I0326 15:48:48.289556 24197 net.cpp:454] conv2 <- pool1
I0326 15:48:48.289563 24197 net.cpp:411] conv2 -> conv2
I0326 15:48:48.291965 24197 net.cpp:150] Setting up conv2
I0326 15:48:48.291980 24197 net.cpp:157] Top shape: 1 256 76 76 (1478656)
I0326 15:48:48.291985 24197 net.cpp:165] Memory required for data: 131310292
I0326 15:48:48.291997 24197 layer_factory.hpp:77] Creating layer relu2
I0326 15:48:48.292011 24197 net.cpp:106] Creating Layer relu2
I0326 15:48:48.292027 24197 net.cpp:454] relu2 <- conv2
I0326 15:48:48.292035 24197 net.cpp:397] relu2 -> conv2 (in-place)
I0326 15:48:48.292044 24197 net.cpp:150] Setting up relu2
I0326 15:48:48.292052 24197 net.cpp:157] Top shape: 1 256 76 76 (1478656)
I0326 15:48:48.292055 24197 net.cpp:165] Memory required for data: 137224916
I0326 15:48:48.292059 24197 layer_factory.hpp:77] Creating layer norm2
I0326 15:48:48.292069 24197 net.cpp:106] Creating Layer norm2
I0326 15:48:48.292074 24197 net.cpp:454] norm2 <- conv2
I0326 15:48:48.292080 24197 net.cpp:411] norm2 -> norm2
I0326 15:48:48.292194 24197 net.cpp:150] Setting up norm2
I0326 15:48:48.292202 24197 net.cpp:157] Top shape: 1 256 76 76 (1478656)
I0326 15:48:48.292207 24197 net.cpp:165] Memory required for data: 143139540
I0326 15:48:48.292210 24197 layer_factory.hpp:77] Creating layer pool2
I0326 15:48:48.292217 24197 net.cpp:106] Creating Layer pool2
I0326 15:48:48.292222 24197 net.cpp:454] pool2 <- norm2
I0326 15:48:48.292228 24197 net.cpp:411] pool2 -> pool2
I0326 15:48:48.292279 24197 net.cpp:150] Setting up pool2
I0326 15:48:48.292289 24197 net.cpp:157] Top shape: 1 256 39 39 (389376)
I0326 15:48:48.292292 24197 net.cpp:165] Memory required for data: 144697044
I0326 15:48:48.292296 24197 layer_factory.hpp:77] Creating layer conv3
I0326 15:48:48.292307 24197 net.cpp:106] Creating Layer conv3
I0326 15:48:48.292312 24197 net.cpp:454] conv3 <- pool2
I0326 15:48:48.292320 24197 net.cpp:411] conv3 -> conv3
I0326 15:48:48.296876 24197 net.cpp:150] Setting up conv3
I0326 15:48:48.296893 24197 net.cpp:157] Top shape: 1 384 39 39 (584064)
I0326 15:48:48.296898 24197 net.cpp:165] Memory required for data: 147033300
I0326 15:48:48.296912 24197 layer_factory.hpp:77] Creating layer relu3
I0326 15:48:48.296924 24197 net.cpp:106] Creating Layer relu3
I0326 15:48:48.296929 24197 net.cpp:454] relu3 <- conv3
I0326 15:48:48.296937 24197 net.cpp:397] relu3 -> conv3 (in-place)
I0326 15:48:48.296947 24197 net.cpp:150] Setting up relu3
I0326 15:48:48.296953 24197 net.cpp:157] Top shape: 1 384 39 39 (584064)
I0326 15:48:48.296957 24197 net.cpp:165] Memory required for data: 149369556
I0326 15:48:48.296962 24197 layer_factory.hpp:77] Creating layer conv4
I0326 15:48:48.296973 24197 net.cpp:106] Creating Layer conv4
I0326 15:48:48.296978 24197 net.cpp:454] conv4 <- conv3
I0326 15:48:48.296984 24197 net.cpp:411] conv4 -> conv4
I0326 15:48:48.301180 24197 net.cpp:150] Setting up conv4
I0326 15:48:48.301196 24197 net.cpp:157] Top shape: 1 384 39 39 (584064)
I0326 15:48:48.301200 24197 net.cpp:165] Memory required for data: 151705812
I0326 15:48:48.301208 24197 layer_factory.hpp:77] Creating layer relu4
I0326 15:48:48.301218 24197 net.cpp:106] Creating Layer relu4
I0326 15:48:48.301223 24197 net.cpp:454] relu4 <- conv4
I0326 15:48:48.301230 24197 net.cpp:397] relu4 -> conv4 (in-place)
I0326 15:48:48.301239 24197 net.cpp:150] Setting up relu4
I0326 15:48:48.301244 24197 net.cpp:157] Top shape: 1 384 39 39 (584064)
I0326 15:48:48.301249 24197 net.cpp:165] Memory required for data: 154042068
I0326 15:48:48.301252 24197 layer_factory.hpp:77] Creating layer conv5
I0326 15:48:48.301265 24197 net.cpp:106] Creating Layer conv5
I0326 15:48:48.301270 24197 net.cpp:454] conv5 <- conv4
I0326 15:48:48.301277 24197 net.cpp:411] conv5 -> conv5
I0326 15:48:48.304214 24197 net.cpp:150] Setting up conv5
I0326 15:48:48.304229 24197 net.cpp:157] Top shape: 1 256 39 39 (389376)
I0326 15:48:48.304234 24197 net.cpp:165] Memory required for data: 155599572
I0326 15:48:48.304249 24197 layer_factory.hpp:77] Creating layer relu5
I0326 15:48:48.304257 24197 net.cpp:106] Creating Layer relu5
I0326 15:48:48.304261 24197 net.cpp:454] relu5 <- conv5
I0326 15:48:48.304268 24197 net.cpp:397] relu5 -> conv5 (in-place)
I0326 15:48:48.304276 24197 net.cpp:150] Setting up relu5
I0326 15:48:48.304283 24197 net.cpp:157] Top shape: 1 256 39 39 (389376)
I0326 15:48:48.304287 24197 net.cpp:165] Memory required for data: 157157076
I0326 15:48:48.304291 24197 layer_factory.hpp:77] Creating layer conv5_relu5_0_split
I0326 15:48:48.304298 24197 net.cpp:106] Creating Layer conv5_relu5_0_split
I0326 15:48:48.304302 24197 net.cpp:454] conv5_relu5_0_split <- conv5
I0326 15:48:48.304312 24197 net.cpp:411] conv5_relu5_0_split -> conv5_relu5_0_split_0
I0326 15:48:48.304319 24197 net.cpp:411] conv5_relu5_0_split -> conv5_relu5_0_split_1
I0326 15:48:48.304359 24197 net.cpp:150] Setting up conv5_relu5_0_split
I0326 15:48:48.304365 24197 net.cpp:157] Top shape: 1 256 39 39 (389376)
I0326 15:48:48.304371 24197 net.cpp:157] Top shape: 1 256 39 39 (389376)
I0326 15:48:48.304375 24197 net.cpp:165] Memory required for data: 160272084
I0326 15:48:48.304381 24197 layer_factory.hpp:77] Creating layer rpn_conv/3x3
I0326 15:48:48.304399 24197 net.cpp:106] Creating Layer rpn_conv/3x3
I0326 15:48:48.304402 24197 net.cpp:454] rpn_conv/3x3 <- conv5_relu5_0_split_0
I0326 15:48:48.304410 24197 net.cpp:411] rpn_conv/3x3 -> rpn/output
I0326 15:48:48.317818 24197 net.cpp:150] Setting up rpn_conv/3x3
I0326 15:48:48.317833 24197 net.cpp:157] Top shape: 1 256 39 39 (389376)
I0326 15:48:48.317836 24197 net.cpp:165] Memory required for data: 161829588
I0326 15:48:48.317844 24197 layer_factory.hpp:77] Creating layer rpn_relu/3x3
I0326 15:48:48.317852 24197 net.cpp:106] Creating Layer rpn_relu/3x3
I0326 15:48:48.317857 24197 net.cpp:454] rpn_relu/3x3 <- rpn/output
I0326 15:48:48.317863 24197 net.cpp:397] rpn_relu/3x3 -> rpn/output (in-place)
I0326 15:48:48.317872 24197 net.cpp:150] Setting up rpn_relu/3x3
I0326 15:48:48.317878 24197 net.cpp:157] Top shape: 1 256 39 39 (389376)
I0326 15:48:48.317880 24197 net.cpp:165] Memory required for data: 163387092
I0326 15:48:48.317883 24197 layer_factory.hpp:77] Creating layer rpn/output_rpn_relu/3x3_0_split
I0326 15:48:48.317890 24197 net.cpp:106] Creating Layer rpn/output_rpn_relu/3x3_0_split
I0326 15:48:48.317893 24197 net.cpp:454] rpn/output_rpn_relu/3x3_0_split <- rpn/output
I0326 15:48:48.317903 24197 net.cpp:411] rpn/output_rpn_relu/3x3_0_split -> rpn/output_rpn_relu/3x3_0_split_0
I0326 15:48:48.317910 24197 net.cpp:411] rpn/output_rpn_relu/3x3_0_split -> rpn/output_rpn_relu/3x3_0_split_1
I0326 15:48:48.317945 24197 net.cpp:150] Setting up rpn/output_rpn_relu/3x3_0_split
I0326 15:48:48.317952 24197 net.cpp:157] Top shape: 1 256 39 39 (389376)
I0326 15:48:48.317956 24197 net.cpp:157] Top shape: 1 256 39 39 (389376)
I0326 15:48:48.317960 24197 net.cpp:165] Memory required for data: 166502100
I0326 15:48:48.317962 24197 layer_factory.hpp:77] Creating layer rpn_cls_score
I0326 15:48:48.317976 24197 net.cpp:106] Creating Layer rpn_cls_score
I0326 15:48:48.317981 24197 net.cpp:454] rpn_cls_score <- rpn/output_rpn_relu/3x3_0_split_0
I0326 15:48:48.317987 24197 net.cpp:411] rpn_cls_score -> rpn_cls_score
I0326 15:48:48.318357 24197 net.cpp:150] Setting up rpn_cls_score
I0326 15:48:48.318367 24197 net.cpp:157] Top shape: 1 18 39 39 (27378)
I0326 15:48:48.318370 24197 net.cpp:165] Memory required for data: 166611612
I0326 15:48:48.318377 24197 layer_factory.hpp:77] Creating layer rpn_cls_score_rpn_cls_score_0_split
I0326 15:48:48.318384 24197 net.cpp:106] Creating Layer rpn_cls_score_rpn_cls_score_0_split
I0326 15:48:48.318388 24197 net.cpp:454] rpn_cls_score_rpn_cls_score_0_split <- rpn_cls_score
I0326 15:48:48.318394 24197 net.cpp:411] rpn_cls_score_rpn_cls_score_0_split -> rpn_cls_score_rpn_cls_score_0_split_0
I0326 15:48:48.318401 24197 net.cpp:411] rpn_cls_score_rpn_cls_score_0_split -> rpn_cls_score_rpn_cls_score_0_split_1
I0326 15:48:48.318439 24197 net.cpp:150] Setting up rpn_cls_score_rpn_cls_score_0_split
I0326 15:48:48.318445 24197 net.cpp:157] Top shape: 1 18 39 39 (27378)
I0326 15:48:48.318449 24197 net.cpp:157] Top shape: 1 18 39 39 (27378)
I0326 15:48:48.318454 24197 net.cpp:165] Memory required for data: 166830636
I0326 15:48:48.318457 24197 layer_factory.hpp:77] Creating layer rpn_bbox_pred
I0326 15:48:48.318469 24197 net.cpp:106] Creating Layer rpn_bbox_pred
I0326 15:48:48.318473 24197 net.cpp:454] rpn_bbox_pred <- rpn/output_rpn_relu/3x3_0_split_1
I0326 15:48:48.318481 24197 net.cpp:411] rpn_bbox_pred -> rpn_bbox_pred
I0326 15:48:48.318914 24197 net.cpp:150] Setting up rpn_bbox_pred
I0326 15:48:48.318924 24197 net.cpp:157] Top shape: 1 36 39 39 (54756)
I0326 15:48:48.318928 24197 net.cpp:165] Memory required for data: 167049660
I0326 15:48:48.318936 24197 layer_factory.hpp:77] Creating layer rpn_bbox_pred_rpn_bbox_pred_0_split
I0326 15:48:48.318945 24197 net.cpp:106] Creating Layer rpn_bbox_pred_rpn_bbox_pred_0_split
I0326 15:48:48.318950 24197 net.cpp:454] rpn_bbox_pred_rpn_bbox_pred_0_split <- rpn_bbox_pred
I0326 15:48:48.318958 24197 net.cpp:411] rpn_bbox_pred_rpn_bbox_pred_0_split -> rpn_bbox_pred_rpn_bbox_pred_0_split_0
I0326 15:48:48.318965 24197 net.cpp:411] rpn_bbox_pred_rpn_bbox_pred_0_split -> rpn_bbox_pred_rpn_bbox_pred_0_split_1
I0326 15:48:48.319005 24197 net.cpp:150] Setting up rpn_bbox_pred_rpn_bbox_pred_0_split
I0326 15:48:48.319010 24197 net.cpp:157] Top shape: 1 36 39 39 (54756)
I0326 15:48:48.319015 24197 net.cpp:157] Top shape: 1 36 39 39 (54756)
I0326 15:48:48.319020 24197 net.cpp:165] Memory required for data: 167487708
I0326 15:48:48.319023 24197 layer_factory.hpp:77] Creating layer rpn_cls_score_reshape
I0326 15:48:48.319036 24197 net.cpp:106] Creating Layer rpn_cls_score_reshape
I0326 15:48:48.319041 24197 net.cpp:454] rpn_cls_score_reshape <- rpn_cls_score_rpn_cls_score_0_split_0
I0326 15:48:48.319047 24197 net.cpp:411] rpn_cls_score_reshape -> rpn_cls_score_reshape
I0326 15:48:48.319077 24197 net.cpp:150] Setting up rpn_cls_score_reshape
I0326 15:48:48.319083 24197 net.cpp:157] Top shape: 1 2 351 39 (27378)
I0326 15:48:48.319088 24197 net.cpp:165] Memory required for data: 167597220
I0326 15:48:48.319092 24197 layer_factory.hpp:77] Creating layer rpn_cls_score_reshape_rpn_cls_score_reshape_0_split
I0326 15:48:48.319099 24197 net.cpp:106] Creating Layer rpn_cls_score_reshape_rpn_cls_score_reshape_0_split
I0326 15:48:48.319104 24197 net.cpp:454] rpn_cls_score_reshape_rpn_cls_score_reshape_0_split <- rpn_cls_score_reshape
I0326 15:48:48.319109 24197 net.cpp:411] rpn_cls_score_reshape_rpn_cls_score_reshape_0_split -> rpn_cls_score_reshape_rpn_cls_score_reshape_0_split_0
I0326 15:48:48.319118 24197 net.cpp:411] rpn_cls_score_reshape_rpn_cls_score_reshape_0_split -> rpn_cls_score_reshape_rpn_cls_score_reshape_0_split_1
I0326 15:48:48.319150 24197 net.cpp:150] Setting up rpn_cls_score_reshape_rpn_cls_score_reshape_0_split
I0326 15:48:48.319156 24197 net.cpp:157] Top shape: 1 2 351 39 (27378)
I0326 15:48:48.319162 24197 net.cpp:157] Top shape: 1 2 351 39 (27378)
I0326 15:48:48.319165 24197 net.cpp:165] Memory required for data: 167816244
I0326 15:48:48.319169 24197 layer_factory.hpp:77] Creating layer rpn-data
I0326 15:48:48.351466 24197 net.cpp:106] Creating Layer rpn-data
I0326 15:48:48.351481 24197 net.cpp:454] rpn-data <- rpn_cls_score_rpn_cls_score_0_split_1
I0326 15:48:48.351488 24197 net.cpp:454] rpn-data <- gt_boxes_input-data_2_split_0
I0326 15:48:48.351493 24197 net.cpp:454] rpn-data <- im_info_input-data_1_split_0
I0326 15:48:48.351498 24197 net.cpp:454] rpn-data <- data_input-data_0_split_1
I0326 15:48:48.351505 24197 net.cpp:411] rpn-data -> rpn_labels
I0326 15:48:48.351516 24197 net.cpp:411] rpn-data -> rpn_bbox_targets
I0326 15:48:48.351526 24197 net.cpp:411] rpn-data -> rpn_bbox_inside_weights
I0326 15:48:48.351533 24197 net.cpp:411] rpn-data -> rpn_bbox_outside_weights
I0326 15:48:48.353309 24197 net.cpp:150] Setting up rpn-data
I0326 15:48:48.353327 24197 net.cpp:157] Top shape: 1 1 351 39 (13689)
I0326 15:48:48.353332 24197 net.cpp:157] Top shape: 1 36 39 39 (54756)
I0326 15:48:48.353337 24197 net.cpp:157] Top shape: 1 36 39 39 (54756)
I0326 15:48:48.353341 24197 net.cpp:157] Top shape: 1 36 39 39 (54756)
I0326 15:48:48.353344 24197 net.cpp:165] Memory required for data: 168528072
I0326 15:48:48.353349 24197 layer_factory.hpp:77] Creating layer rpn_loss_cls
I0326 15:48:48.353363 24197 net.cpp:106] Creating Layer rpn_loss_cls
I0326 15:48:48.353368 24197 net.cpp:454] rpn_loss_cls <- rpn_cls_score_reshape_rpn_cls_score_reshape_0_split_0
I0326 15:48:48.353374 24197 net.cpp:454] rpn_loss_cls <- rpn_labels
…
I0326 15:48:48.354100 24197 net.cpp:157] Top shape: (1)
I0326 15:48:48.354106 24197 net.cpp:160]     with loss weight 1
I0326 15:48:48.354116 24197 net.cpp:165] Memory required for data: 168528080
I0326 15:48:48.354122 24197 layer_factory.hpp:77] Creating layer rpn_cls_prob
I0326 15:48:48.354131 24197 net.cpp:106] Creating Layer rpn_cls_prob
I0326 15:48:48.354136 24197 net.cpp:454] rpn_cls_prob <- rpn_cls_score_reshape_rpn_cls_score_reshape_0_split_1
I0326 15:48:48.354148 24197 net.cpp:411] rpn_cls_prob -> rpn_cls_prob
I0326 15:48:48.354212 24197 net.cpp:150] Setting up rpn_cls_prob
I0326 15:48:48.354220 24197 net.cpp:157] Top shape: 1 2 351 39 (27378)
I0326 15:48:48.354226 24197 net.cpp:165] Memory required for data: 168637592
I0326 15:48:48.354233 24197 layer_factory.hpp:77] Creating layer rpn_cls_prob_reshape
I0326 15:48:48.354250 24197 net.cpp:106] Creating Layer rpn_cls_prob_reshape
I0326 15:48:48.354256 24197 net.cpp:454] rpn_cls_prob_reshape <- rpn_cls_prob
I0326 15:48:48.354265 24197 net.cpp:411] rpn_cls_prob_reshape -> rpn_cls_prob_reshape
I0326 15:48:48.354295 24197 net.cpp:150] Setting up rpn_cls_prob_reshape
I0326 15:48:48.354303 24197 net.cpp:157] Top shape: 1 18 39 39 (27378)
I0326 15:48:48.354308 24197 net.cpp:165] Memory required for data: 168747104
I0326 15:48:48.354315 24197 layer_factory.hpp:77] Creating layer proposal
I0326 15:48:48.426012 24197 net.cpp:106] Creating Layer proposal
I0326 15:48:48.426038 24197 net.cpp:454] proposal <- rpn_cls_prob_reshape
I0326 15:48:48.426049 24197 net.cpp:454] proposal <- rpn_bbox_pred_rpn_bbox_pred_0_split_1
I0326 15:48:48.426056 24197 net.cpp:454] proposal <- im_info_input-data_1_split_1
I0326 15:48:48.426065 24197 net.cpp:411] proposal -> rpn_rois
I0326 15:48:48.445088 24197 net.cpp:150] Setting up proposal
I0326 15:48:48.445108 24197 net.cpp:157] Top shape: 1 5 (5)
I0326 15:48:48.445112 24197 net.cpp:165] Memory required for data: 168747124
I0326 15:48:48.445119 24197 layer_factory.hpp:77] Creating layer roi-data
I0326 15:48:48.454257 24197 net.cpp:106] Creating Layer roi-data
I0326 15:48:48.454268 24197 net.cpp:454] roi-data <- rpn_rois
I0326 15:48:48.454274 24197 net.cpp:454] roi-data <- gt_boxes_input-data_2_split_1
I0326 15:48:48.454282 24197 net.cpp:411] roi-data -> rois
I0326 15:48:48.454290 24197 net.cpp:411] roi-data -> labels
I0326 15:48:48.454298 24197 net.cpp:411] roi-data -> bbox_targets
I0326 15:48:48.454304 24197 net.cpp:411] roi-data -> bbox_inside_weights
I0326 15:48:48.454311 24197 net.cpp:411] roi-data -> bbox_outside_weights
I0326 15:48:48.454998 24197 net.cpp:150] Setting up roi-data
I0326 15:48:48.455015 24197 net.cpp:157] Top shape: 1 5 (5)
I0326 15:48:48.455024 24197 net.cpp:157] Top shape: 1 1 (1)
I0326 15:48:48.455032 24197 net.cpp:157] Top shape: 1 8 (8)
I0326 15:48:48.455039 24197 net.cpp:157] Top shape: 1 8 (8)
I0326 15:48:48.455046 24197 net.cpp:157] Top shape: 1 8 (8)
I0326 15:48:48.455052 24197 net.cpp:165] Memory required for data: 168747244
I0326 15:48:48.455060 24197 layer_factory.hpp:77] Creating layer roi_pool_conv5
I0326 15:48:48.455077 24197 net.cpp:106] Creating Layer roi_pool_conv5
I0326 15:48:48.455085 24197 net.cpp:454] roi_pool_conv5 <- conv5_relu5_0_split_1
I0326 15:48:48.455094 24197 net.cpp:454] roi_pool_conv5 <- rois
I0326 15:48:48.455103 24197 net.cpp:411] roi_pool_conv5 -> roi_pool_conv5
I0326 15:48:48.455119 24197 roi_pooling_layer.cpp:30] Spatial scale: 0.0625
I0326 15:48:48.455176 24197 net.cpp:150] Setting up roi_pool_conv5
I0326 15:48:48.455186 24197 net.cpp:157] Top shape: 1 256 6 6 (9216)
I0326 15:48:48.455193 24197 net.cpp:165] Memory required for data: 168784108
I0326 15:48:48.455199 24197 layer_factory.hpp:77] Creating layer fc6
I0326 15:48:48.455211 24197 net.cpp:106] Creating Layer fc6
I0326 15:48:48.455219 24197 net.cpp:454] fc6 <- roi_pool_conv5
I0326 15:48:48.455234 24197 net.cpp:411] fc6 -> fc6
I0326 15:48:48.560503 24197 net.cpp:150] Setting up fc6
I0326 15:48:48.560544 24197 net.cpp:157] Top shape: 1 4096 (4096)
I0326 15:48:48.560549 24197 net.cpp:165] Memory required for data: 168800492
I0326 15:48:48.560576 24197 layer_factory.hpp:77] Creating layer relu6
I0326 15:48:48.560596 24197 net.cpp:106] Creating Layer relu6
I0326 15:48:48.560606 24197 net.cpp:454] relu6 <- fc6
I0326 15:48:48.560614 24197 net.cpp:397] relu6 -> fc6 (in-place)
I0326 15:48:48.560624 24197 net.cpp:150] Setting up relu6
I0326 15:48:48.560629 24197 net.cpp:157] Top shape: 1 4096 (4096)
I0326 15:48:48.560633 24197 net.cpp:165] Memory required for data: 168816876
I0326 15:48:48.560636 24197 layer_factory.hpp:77] Creating layer drop6
I0326 15:48:48.560648 24197 net.cpp:106] Creating Layer drop6
I0326 15:48:48.560652 24197 net.cpp:454] drop6 <- fc6
I0326 15:48:48.560657 24197 net.cpp:397] drop6 -> fc6 (in-place)
I0326 15:48:48.560684 24197 net.cpp:150] Setting up drop6
I0326 15:48:48.560689 24197 net.cpp:157] Top shape: 1 4096 (4096)
I0326 15:48:48.560693 24197 net.cpp:165] Memory required for data: 168833260
I0326 15:48:48.560698 24197 layer_factory.hpp:77] Creating layer fc7
I0326 15:48:48.560714 24197 net.cpp:106] Creating Layer fc7
I0326 15:48:48.560717 24197 net.cpp:454] fc7 <- fc6
I0326 15:48:48.560727 24197 net.cpp:411] fc7 -> fc7
I0326 15:48:48.605684 24197 net.cpp:150] Setting up fc7
I0326 15:48:48.605715 24197 net.cpp:157] Top shape: 1 4096 (4096)
I0326 15:48:48.605720 24197 net.cpp:165] Memory required for data: 168849644
I0326 15:48:48.605731 24197 layer_factory.hpp:77] Creating layer relu7
I0326 15:48:48.605743 24197 net.cpp:106] Creating Layer relu7
I0326 15:48:48.605749 24197 net.cpp:454] relu7 <- fc7
I0326 15:48:48.605757 24197 net.cpp:397] relu7 -> fc7 (in-place)
I0326 15:48:48.605767 24197 net.cpp:150] Setting up relu7
I0326 15:48:48.605773 24197 net.cpp:157] Top shape: 1 4096 (4096)
I0326 15:48:48.605777 24197 net.cpp:165] Memory required for data: 168866028
I0326 15:48:48.605782 24197 layer_factory.hpp:77] Creating layer drop7
I0326 15:48:48.605790 24197 net.cpp:106] Creating Layer drop7
I0326 15:48:48.605794 24197 net.cpp:454] drop7 <- fc7
I0326 15:48:48.605800 24197 net.cpp:397] drop7 -> fc7 (in-place)
I0326 15:48:48.605824 24197 net.cpp:150] Setting up drop7
I0326 15:48:48.605830 24197 net.cpp:157] Top shape: 1 4096 (4096)
I0326 15:48:48.605834 24197 net.cpp:165] Memory required for data: 168882412
I0326 15:48:48.605839 24197 layer_factory.hpp:77] Creating layer fc7_drop7_0_split
I0326 15:48:48.605846 24197 net.cpp:106] Creating Layer fc7_drop7_0_split
I0326 15:48:48.605849 24197 net.cpp:454] fc7_drop7_0_split <- fc7
I0326 15:48:48.605856 24197 net.cpp:411] fc7_drop7_0_split -> fc7_drop7_0_split_0
I0326 15:48:48.605865 24197 net.cpp:411] fc7_drop7_0_split -> fc7_drop7_0_split_1
I0326 15:48:48.605903 24197 net.cpp:150] Setting up fc7_drop7_0_split
I0326 15:48:48.605909 24197 net.cpp:157] Top shape: 1 4096 (4096)
I0326 15:48:48.605913 24197 net.cpp:157] Top shape: 1 4096 (4096)
I0326 15:48:48.605917 24197 net.cpp:165] Memory required for data: 168915180
I0326 15:48:48.605921 24197 layer_factory.hpp:77] Creating layer cls_score
I0326 15:48:48.605929 24197 net.cpp:106] Creating Layer cls_score
I0326 15:48:48.605933 24197 net.cpp:454] cls_score <- fc7_drop7_0_split_0
I0326 15:48:48.605942 24197 net.cpp:411] cls_score -> cls_score
I0326 15:48:48.606185 24197 net.cpp:150] Setting up cls_score
I0326 15:48:48.606192 24197 net.cpp:157] Top shape: 1 2 (2)
I0326 15:48:48.606196 24197 net.cpp:165] Memory required for data: 168915188
I0326 15:48:48.606204 24197 layer_factory.hpp:77] Creating layer bbox_pred
I0326 15:48:48.606212 24197 net.cpp:106] Creating Layer bbox_pred
I0326 15:48:48.606217 24197 net.cpp:454] bbox_pred <- fc7_drop7_0_split_1
I0326 15:48:48.606225 24197 net.cpp:411] bbox_pred -> bbox_pred
I0326 15:48:48.606925 24197 net.cpp:150] Setting up bbox_pred
I0326 15:48:48.606933 24197 net.cpp:157] Top shape: 1 8 (8)
I0326 15:48:48.606937 24197 net.cpp:165] Memory required for data: 168915220
I0326 15:48:48.606945 24197 layer_factory.hpp:77] Creating layer loss_cls
I0326 15:48:48.606953 24197 net.cpp:106] Creating Layer loss_cls
I0326 15:48:48.606957 24197 net.cpp:454] loss_cls <- cls_score
I0326 15:48:48.606963 24197 net.cpp:454] loss_cls <- labels
I0326 15:48:48.606971 24197 net.cpp:411] loss_cls -> cls_loss
…
